mlruns/761854136110779325/60ca8dda9a7a472e8a2c65a7254040d7/artifacts/deep_nn_pytorch.pth (torch, 199248 bytes, 22 tensors)

fc1.weight f4 [256, 8]
-0.004939093 -0.007806458 0.0070619755 0.25489137 -0.6941905 -0.16789486 -0.056743234 -0.23529376
-0.0065934365 0.004383378 0.021881413 0.34183624 -0.7106423 -0.0068430696 -0.18317716 -0.04595712
-0.1439425 -0.49123436 -0.21692552 0.36011562 0.17810203 0.3650847 0.17724404 -0.009778133
-0.009746247 0.007848978 0.03769304 0.09905066 -0.47609422 -0.5182052 -0.325795 0.093484096
0.097912155 -0.018538784 -0.2717796 0.29149458 0.0018955406 -0.14177819 -0.31722203 0.047956016
0.26845992 -0.10727584 -0.17248154 0.027129348 -0.09121563 -0.01813568 0.20056202 0.18684599
-0.10041026 0.5676713 0.118599415 -0.0004096658 -0.07535055 -0.09334522 -0.15029033 0.1735447
0.1628131 0.02538455 -0.0283795 -0.41428554 0.18164913 0.12552626 0.40858072 -0.1739301
-0.17399049 0.3547841 -0.2680867 0.058059767 -0.0361186 0.17190242 0.04636287 -0.030650463
-0.35849276 0.032879584 -0.07670566 -0.16509292 0.10189033 0.16845955 -0.39469475 0.2517703
0.043739222 0.05056747 0.09839363 0.021388484 -0.6068796 -0.4151491 -0.5625797 -0.4870985
0.17597897 -0.0999643 -0.2052087 -0.48876277 0.37930447 -0.15379135 0.16719665 -0.35675913
-0.1596722 -0.12606514 -0.03881458 0.23473193 0.22551955 -0.44432327 0.13114922 0.11211989
0.38836622 -0.017302914 -0.0014060992 -0.098229796 -0.4832353 -0.23132852 -0.40331173 0.15870976
0.065602295 -0.45070535 -0.14577489 -0.22541294 0.21877092 -0.13669044 0.14645417 0.088975556
-0.078221746 0.017559929 0.21042947 0.24496262 -0.39746252 0.25508776 0.23347482 -0.30180004
0.26068315 0.046340685 -0.37443724 -0.058064386 0.057941098 -0.26374233 -0.17742619 0.36830005
-0.20217751 0.022669276 -0.036268495 -0.21909295 -0.10684378 -0.31560785 0.40925243 -0.24327397
0.06118876 0.014734944 -0.035931144 -0.6966606 0.354873 -0.0022792525 0.19568254 -0.4439407
-0.39437094 0.00855065 -0.05304603 0.11889465 -0.17282954 -0.0626528 -0.12067849 0.30866528
-0.35862446 0.27009946 0.2048816 0.0050284807 0.14268978 0.13321184 0.0022985502 0.18381502
0.28968722 0.0055500153 0.053809866 0.0008462639 -0.031854883 -0.22858784 0.26804253 -0.10161367
0.39006975 0.23879555 0.21494892 -0.16438758 0.2052916 0.22050425 -0.19004942 -0.0026194311
-0.10625168 -0.09525322 -0.03657929 -0.529362 -0.52370054 0.13833386 -0.52694416 -0.16776809
-0.5270664 0.00051124365 -0.115301825 -0.044424713 -0.10757228 -0.14291398 0.110272564 0.2914398
-0.28094098 -0.0048875776 -0.016563166 0.20334557 0.31691083 -0.3240349 0.0386073 -0.07144702
-0.06408936 0.032427333 0.3174888 0.2815163 0.020064462 -0.5479312 0.16583972 -0.24756342
-0.07594004 -0.038669378 0.22912824 -0.14780718 0.18719882 -0.024613228 -0.2670816 0.17710294
-0.14340702 -0.027076809 0.43947372 -0.24243498 0.37095022 -0.1297556 0.114995085 -0.15104157
0.3721784 0.070464075 0.13247114 0.17984295 -0.058841277 0.11866277 0.30531275 -0.09488607
0.037587292 -0.07840567 -0.24404803 -0.22651424 -0.41499922 -0.089621805 -0.63354254 -0.1710129
0.05934922 -0.004751195 0.12364308 -0.70022863 0.05281615 0.2530937 -0.6023328 -0.6983124
00000000: 1dd8 a1bb 51cd ffbb 2568 e73b 1f81 823e
00000010: 78b6 31bf a1ec 2bbe 986b 68bd d9f0 70be
00000020: c10d d8bb 71a2 8f3b a640 b33c 2905 af3e
00000030: a7ec 35bf d43b e0bb cb92 3bbe 883d 3cbd
00000040: aa65 13be 1283 fbbe b921 5ebe 1361 b83e
00000050: 6160 363e 62ec ba3e 767f 353e 7634 20bc
00000060: b9ae 1fbc 0099 003c 0464 1a3d 13db ca3d
00000070: 9fc2 f3be 19a9 04bf 9ace a6be 9774 bf3d
00000080: 2b86 c83d a6de 97bc b226 8bbe c73e 953e
00000090: ca73 f83a 4d2e 11be ed6a a2be 876d 443d
000000a0: 9473 893e 70b3 dbbd 009f 30be 5e3e de3c
000000b0: 43cf babd 4791 94bc 2160 4d3e 8e54 3f3e
000000c0: e5a3 cdbd e852 113f 40e4 f23d 6ac8 d6b9
000000d0: 6451 9abd c72b bfbd b5e5 19be b4b5 313e
000000e0: 7ab8 263e 43f3 cf3c 207c e8bc 3c1d d4be
000000f0: 3b02 3a3e f589 003e 7e31 d13e bb1a 32be
00000100: 902a 32be 43a6 b53e a942 89be 14d0 6d3d
00000110: 19f1 13bd 3007 303e fee6 3d3d ae16 fbbc
00000120: 5d8c b7be beac 063d db17 9dbd 1e0e 29be
00000130: e1ab d03d a980 2c3e 6e15 cabe 09e8 803e
00000140: e627 333d d61f 4f3d 9982 c93d e736 af3c
00000150: 765c 1bbf 6c8e d4be 3905 10bf f964 f9be
00000160: d533 343e 15ba ccbd 3b22 52be 1d3f fabe
00000170: 3234 c23e 7b7b 1dbe 9935 2b3e 22a9 b6be
00000180: 1c81 23be 3817 01be 09fc 1ebd 915d 703e
00000190: 99ee 663e 577e e3be fb4b 063e 1d9f e53d
000001a0: f0d7 c63e d7be 8dbc dc4c b8ba b42c c9bd
000001b0: 9e6a f7be 62e1 6cbe e07e cebe d084 223e
000001c0: 7f5a 863d dac2 e6be 0346 15be a6d2 66be
000001d0: 7c05 603e 94f8 0bbe 15f8 153e d138 b63d
000001e0: b932 a0bd d7d9 8f3c d37a 573e 7bd7 7a3e
000001f0: 3580 cbbe dd9a 823e 0614 6f3e 8985 9abe
00000200: 4378 853e bbcf 3d3d 3db6 bfbe ecd4 6dbd
00000210: a553 6d3d 3c09 87be 36af 35be d391 bc3e
00000220: 9f07 4fbe ebb4 b93c 468e 14bd e759 60be
00000230: e9d0 dabd 5a97 a1be 8989 d13e d01c 79be
00000240: 11a1 7a3d d66a 713c 892c 13bd 5958 32bf
00000250: eab1 b53e 835f 15bb 0161 483e 324c e3be
00000260: fdea c9be 0718 0c3c cb46 59bd 0a7f f33d
00000270: 3afa 30be 1c50 80bd 4926 f7bd 6009 9e3e
00000280: a09d b7be 7a4a 8a3e 7bcc 513e f4c5 a43b
00000290: 451d 123e af68 083e 46a3 163b 013a 3c3e
000002a0: e251 943e e7dc b53b bc67 5c3d cfd7 5d3a
000002b0: 447a 02bd ee12 6abe df3c 893e d41a d0bd
000002c0: 39b7 c73e d286 743e 921b 5c3e 3855 28be
000002d0: f637 523e decb 613e 519c 42be c3aa 2bbb
000002e0: 7b9a d9bd 1f14 c3bd 2ad4 15bd 4584 07bf
000002f0: 3d11 06bf 64a7 0d3e d0e5 06bf 66cb 2bbe
00000300: d3ed 06bf fb04 063a 5d23 ecbd b0f6 35bd
00000310: db4e dcbd 0b58 12be 95d6 e13d 9937 953e
00000320: 7fd7 8fbe f927 a0bb 7aaf 87bc d239 503e
00000330: 2342 a23e e7e7 a5be b022 1e3d d152 92bd
00000340: 4841 83bd 86d2 043d e48d a23e e822 903e
00000350: 3a5e a43c 3845 0cbf e3d1 293e 4481 7dbe
00000360: 7486 9bbd c863 1ebd 98a0 6a3e c45a 17be
00000370: 0cb1 3f3e aea1 c9bc ebbe 88be 795a 353e
00000380: 4ad9 12be 2fd0 ddbc b302 e13e e040 78be
00000390: 30ed bd3e a7de 04be 8b82 eb3d a4aa 1abe
000003a0: 2b8e be3e 784f 903d 84a6 073e c028 383e
000003b0: 8d03 71bd 7705 f33d f451 9c3e a153 c2bd
000003c0: 22f5 193d 2793 a0bd bae7 79be 59f3 67be
000003d0: c77a d4be a38b b7bd d82f 22bf 011e 2fbe
000003e0: 2b18 733d eaaf 9bbb 9538 fd3d 2f42 33bf
000003f0: bf55 583d 7f95 813e 7b32 1abf 9ac4 32bf

fc1.bias f4 [256]
0.3298892 0.2927818 0.013272983 0.16921695 0.19277959 -0.3160702 -0.27677444 0.046550494
0.2733935 0.28378725 0.17752194 0.0342856 0.06898657 0.23987637 0.1877108 0.2811212
0.29279327 0.010342457 -0.034587316 -0.17578246 -0.23715772 -0.3177594 -0.133319 -0.31502476
-0.28965747 -0.3007485 -0.25555405 0.01842585 -0.34162983 -0.24689971 0.2805711 0.22753793
-0.19817956 -0.1498775 -0.11281072 0.24662194 0.1596002 0.08830086 -0.02108515 0.12473731
0.23430236 -0.1601737 0.08306074 -0.33797753 0.18331346 -0.10231364 -0.32404706 -0.15663967
0.025530491 -0.30992174 -0.07253591 -0.07050173 0.20067349 -0.2049197 0.042317588 -0.32171607
-0.19200826 -0.118135236 -0.2000851 0.07326804 -0.089493155 -0.15150212 0.23418707 0.1123941
-0.15205723 0.18304075 0.04103585 -0.29821393 0.04664385 0.27267674 -0.26111183 0.08795185
0.0004067045 -0.30899113 0.18473949 0.15290903 0.1553387 -0.09145611 0.033430725 -0.32109958
0.27101222 0.20421183 0.030778483 -0.23802339 0.13958395 -0.087856665 -0.21312971 0.1101093
-0.0848151 0.0031920816 0.35242668 -0.15724866 -0.13276507 0.10506369 -0.2924785 -0.045999326
0.20701547 0.26392725 -0.11105045 0.17008679 -0.1415154 -0.10057758 -0.014850758 0.32203317
0.22604577 0.34814897 0.25168785 0.20966956 -0.28515482 0.2627364 -0.32207376 -0.03373612
0.17410785 0.24970259 -0.32872105 0.3540511 0.27979767 -0.31061202 0.12231812 -0.17211255
-0.14223997 -0.17580956 -0.31963208 0.06005243 0.13638818 -0.12343191 0.19448902 -0.30282587
-0.32654524 0.03338055 -0.26182222 0.12069966 0.2598289 0.11293637 0.115388274 -0.11490773
-0.31721735 0.11729417 0.3559441 -0.064285904 -0.02283446 -0.011629192 0.048758183 0.0069856322
-0.2665139 0.24925323 0.14878415 0.20173088 -0.27528653 -0.3545272 0.11902058 -0.15003036
-0.020763326 0.25804996 0.035828967 0.25738806 -0.29462636 -0.055214733 -0.25296533 0.18823692
-0.012240435 0.26641533 0.15368472 -0.23073068 -0.038600426 -0.23672922 0.17738636 0.18009308
0.0023903844 -0.3544858 0.33435446 0.2849403 -0.11975425 0.060927927 0.21688262 -0.28895128
0.077838585 0.14044389 -0.18259142 -0.32082132 0.30953392 -0.1021242 0.20904087 -0.18852276
0.32498306 -0.25400394 0.03506404 -0.1334136 -0.0329974 0.20978896 -0.035242487 0.1751391
0.12454898 -0.19478144 0.047266647 -0.23040587 -0.16925585 -0.0125563415 -0.11245904 -0.32545057
0.25547543 0.13626452 0.28436127 -0.18521336 -0.11543174 0.15905693 0.0836916 -0.29569888
0.093926854 0.3523668 -0.25696567 0.21335784 0.12187149 0.095161594 0.10903268 0.016331509
-0.0077639148 0.11839885 -0.117247514 -0.34846246 0.30996016 -0.170247 -0.2741617 0.19465838
-0.18692356 -0.062104493 -0.00037777436 0.29848465 0.10321974 -0.09723856 0.3471743 0.041637868
-0.3158183 -0.008463688 0.008388809 0.24585181 0.32512686 0.15706804 -0.0023295535 -0.30491707
-0.23094006 -0.08898234 -0.115566164 0.04183811 0.24630201 -0.06799575 0.22671507 0.25730205
-0.22816144 0.063485384 0.077039175 0.35972455 -0.23376755 -0.31311604 0.04541784 -0.17438252
00000000: 3de7 a83e 7fe7 953e ed76 593c 3547 2d3e
00000010: 0368 453e f4d3 a1be 61b5 8dbe bbab 3e3d
00000020: 3cfa 8b3e 904c 913e 50c8 353e 0f6f 0c3d
00000030: d548 8d3d 27a2 753e 4337 403e 1eef 8f3e
00000040: 00e9 953e 6973 293c 6eab 0dbd 5100 34be
00000050: 79d9 72be 5cb1 a2be c784 08be ed4a a1be
00000060: fc4d 94be b5fb 99be fbd7 82be cff1 963c
00000070: 1bea aebe 47d3 7cbe 04a7 8f3e b4ff 683e
00000080: 95ef 4abe 7d79 19be 4f09 e7bd 768a 7c3e
00000090: 3c6e 233e 15d7 b43d c4ba acbc 4676 ff3d
000000a0: f5ec 6f3e 9304 24be c01b aa3d 640b adbe
000000b0: 86b6 3b3e d089 d1bd 7fe9 a5be 2666 20be
000000c0: 5225 d13c 10ae 9ebe b58d 94bd 3663 90bd
000000d0: 5a7d 4d3e 78d6 51be 3555 2d3d f8b7 a4be
000000e0: d09d 44be e3f0 f1bd 1ce3 4cbe 8e0d 963d
000000f0: 3048 b7bd 5f23 1bbe bcce 6f3e e12e e63d
00000100: e4b4 1bbe 096f 3b3e 3515 283d 7faf 98be
00000110: 9f0d 3f3d 499c 8b3e 73b0 85be 1920 b43d
00000120: f43a d539 1634 9ebe 592c 3d3e 2f94 1c3e
00000130: 1c11 1f3e 574d bbbd a8ee 083d 2a67 a4be
00000140: 1dc2 8a3e e81c 513e 2823 fc3c 67bc 73be
00000150: 18ef 0e3e 32ee b3bd ad3e 5abe fc80 e13d
00000160: 8ab3 adbd 3e32 513b 4571 b43e cb05 21be
00000170: 91f3 07be a22b d73d bebf 95be ca69 3cbd
00000180: ddfb 533e 7921 873e 6b6e e3bd 3b2b 2e3e
00000190: 6ae9 10be 9efb cdbd 9850 73bc 88e1 a43e
000001a0: 8b78 673e 9540 b23e 3bdd 803e 9eb3 563e
000001b0: d0ff 91be 6385 863e dae6 a4be e32e 0abd
000001c0: 5449 323e 09b2 7f3e 204e a8be 3046 b53e
000001d0: a441 8f3e 8a08 9fbe ec81 fa3d 463e 30be
000001e0: 5ba7 11be 6c07 34be d1a6 a3be 89f9 753d
000001f0: 58a9 0b3e dfc9 fcbd 2128 473e fe0b 9bbe
00000200: f030 a7be 0bba 083d 900d 86be 6231 f73d
00000210: 4b08 853e 2f4b e73d b050 ec3d be54 ebbd
00000220: 506a a2be ed37 f03d 4e3e b63e 54a8 83bd
00000230: 550f bbbc 5e88 3ebc a9b6 473d bbe7 e43b
00000240: 8374 88be 3d3c 7f3e df5a 183e 8a92 4e3e
00000250: 5bf2 8cbe 9784 b5be 10c1 f33d 8fa1 19be
00000260: da17 aabc 201f 843e 65c1 123d 5ec8 833e
00000270: 44d9 96be d828 62bd ac84 81be 2ec1 403e
00000280: 1b8c 48bc 9767 883e 875f 1d3e aa44 6cbe
00000290: 7b1b 1ebd 2569 72be c5a4 353e 526a 383e
000002a0: ffa7 1c3b 2a7f b5be 8230 ab3e b2e3 913e
000002b0: b741 f5bd 908f 793d 7a16 5e3e 6cf1 93be
000002c0: d669 9f3d 86d0 0f3e 3ff9 3abe b142 a4be
000002d0: 3b7b 9e3e 7e26 d1bd cf0e 563e 1c0c 41be
000002e0: 2e64 a63e ce0c 82be 509f 0f3d 939d 08be
000002f0: 4828 07bd ebd2 563e 6d5a 10bd aa57 333e
00000300: 8913 ff3d c974 47be ac9a 413d 84ef 6bbe
00000310: 6851 2dbe 1db9 4dbc ed50 e6bd 75a1 a6be
00000320: adcd 823e ed88 0b3e cd97 913e 92a8 3dbe
00000330: 7a67 ecbd d2df 223e 8066 ab3d d865 97be
00000340: b95c c03d 6c69 b43e 0191 83be 7a7a 5a3e
00000350: c297 f93d 15e4 c23d 874c df3d a8c9 853c
00000360: 7068 febb 197b f23d 771f f0bd ac69 b2be
00000370: 19b3 9e3e 3b55 2ebe ec5e 8cbe 8754 473e
00000380: e468 3fbe 4861 7ebd 0410 c6b9 fbd2 983e
00000390: df64 d33d 0325 c7bd d4c0 b13e 788c 2a3d
000003a0: f0b2 a1be 48ab 0abc 3771 093c 94c0 7b3e
000003b0: 0777 a63e 72d6 203e 6cab 18bb 171e 9cbe
000003c0: 8d7b 6cbe 603c b6bd f4ad ecbd 705e 2b3d
000003d0: 9836 7c3e 5b41 8bbd ff27 683e 18bd 833e
000003e0: 27a3 69be a004 823d b7c6 9d3d d12d b83e
000003f0: c360 6fbe bf50 a0be 0f08 3a3d 5591 32be

bn1.weight f4 [256]
1.219395 1.1909901 0.8304433 1.2861054 0.84081584 0.7681097 0.94754153 1.0027277
0.8744982 0.81175447 1.0491229 0.9308158 0.833799 0.9316654 0.9650515 0.942259
0.9756912 0.91517925 1.1804847 0.9105212 0.79800165 0.923092 0.9526141 1.0026934
0.901723 0.86386347 1.094492 0.86437476 0.94633746 0.7940585 1.1195477 0.96274954
1.0910759 0.75398046 0.96920717 0.8452187 0.9486361 0.91851336 0.8734567 0.9131999
0.7592507 0.8418401 0.9660994 1.0291173 0.7857617 1.0891458 0.9898323 0.93978906
0.8413175 0.9116069 0.95286715 1.0439289 0.9832511 0.8732194 1.0969096 0.8157862
0.8800025 0.84758246 0.9619217 0.83269495 0.7806729 1.1020639 0.8386473 1.2862897
0.9685966 0.9157183 0.9520097 0.81143934 0.7605206 0.9517183 1.0719858 1.040979
0.9419555 0.8242475 0.8103377 0.8926168 1.2564993 1.2951517 0.89056 0.8592139
1.0066125 0.92442673 0.89054644 1.0062897 0.879025 0.93200207 0.88776976 1.0087311
0.9790308 1.2123872 0.86966 0.99032307 0.74350023 1.2084806 0.8754676 1.131787
0.85907847 1.0733569 0.9616748 0.79668826 1.1469318 0.8959572 0.90800726 0.7953981
0.99794465 0.83691853 1.0121919 0.72041684 0.8004864 0.7917163 0.78412396 1.0832758
0.91641337 0.8459672 0.6240452 0.9148336 0.754478 0.91083694 0.95004135 0.8612257
1.0092962 0.67809546 1.0298404 0.88430786 0.8140121 0.9938045 1.2136621 0.9036262
1.1790336 0.9761301 1.2421435 0.90972394 0.9199303 0.9130388 0.96792984 0.9992027
1.1698979 0.9636014 0.8920251 0.93407035 0.83620363 0.9779554 0.9810381 0.96460235
0.95667344 0.9204683 0.93100053 0.9126052 0.70712775 1.2630593 0.9651541 0.7230461
1.0794889 0.99463874 0.90859884 0.7786955 1.0152994 0.8961235 0.80505365 1.0348586
0.8334974 0.89100546 0.9780146 1.1505405 0.798732 0.8820431 1.0467035 0.8261752
1.0469006 0.93521386 0.987541 0.95478827 0.81586057 0.9338475 0.9119933 1.3586322
1.1692549 0.79907227 0.8569985 1.0909901 0.8983868 0.8328781 0.90468067 0.8362035
0.8996161 1.074513 1.0131772 0.8996895 0.95082724 1.2382528 1.3471992 0.9540804
0.857737 1.340416 0.93224543 0.81700885 0.8913494 1.0049139 0.79631215 0.8354777
1.1309935 0.8188305 1.0384887 1.1158472 1.3000151 0.9856123 1.0474008 1.3768761
0.9381784 0.87266177 1.2061774 0.90274614 1.1029912 0.86480445 1.3887994 1.0988615
0.9597758 0.8916174 0.9340435 0.796869 0.7451301 0.9627445 1.0203731 0.980179
1.2211845 1.0803604 0.77429205 0.765786 1.0218041 0.8027356 0.8330628 0.8606972
0.8431697 1.2148252 1.0650983 1.1969194 0.6668329 0.9294795 0.8158898 1.021138
1.0238353 0.9729578 1.2968642 0.7771779 1.3009106 0.81316715 0.8003712 0.8330919
0.7952568 1.2473209 0.8629262 0.8432098 0.86200225 1.1839072 1.2167271 1.1156029
00000000: 2315 9c3f 5d72 983f ef97 543f 1a9f a43f
00000010: b53f 573f d6a2 443f 1592 723f 6259 803f
00000020: 1ddf 5f3f 24cf 4f3f a949 863f f249 6e3f
00000030: da73 553f a081 6e3f 9d0d 773f e337 713f
00000040: e6c6 793f 3049 6a3f 1f1a 973f eb17 693f
00000050: d649 4c3f c24f 6c3f 85de 733f 4258 803f
00000060: 52d7 663f 2826 5d3f 5018 8c3f aa47 5d3f
00000070: 2c43 723f 6b47 4b3f 574d 8f3f c176 763f
00000080: 60a8 8b3f dd04 413f f61d 783f 4160 583f
00000090: d1d9 723f b123 6b3f dc9a 5f3f 78c7 693f
000000a0: 415e 423f d582 573f 4a52 773f 1eba 833f
000000b0: ae27 493f 2169 8b3f a665 7d3f 0496 703f
000000c0: 9560 573f 125f 693f 1aef 733f 769f 853f
000000d0: 58b6 7b3f 4e8b 5f3f 8967 8c3f 5dd7 503f
000000e0: d847 613f 2afb 583f 8040 763f 7f2b 553f
000000f0: 2eda 473f 6e10 8d3f 97b1 563f 24a5 a43f
00000100: f2f5 773f 846c 6a3f e8b6 733f 7dba 4f3f
00000110: 7ab1 423f cfa3 733f d536 893f cd3e 853f
00000120: ff23 713f e201 533f 4b72 4f3f 8982 643f
00000130: f8d4 a03f 88c7 a53f bdfb 633f 71f5 5b3f
00000140: aed8 803f 3ba7 6c3f dafa 633f 1ace 803f
00000150: c807 613f b097 6e3f e144 633f 1a1e 813f
00000160: c3a1 7a3f 812f 9b3f 0aa2 5e3f d085 7d3f
00000170: 0856 3e3f 7eaf 9a3f a51e 603f 65de 903f
00000180: 91ec 5b3f c263 893f 5230 763f c3f3 4b3f
00000190: a9ce 923f 735d 653f 2a73 683f 369f 4b3f
000001a0: 4d79 7f3f 4b40 563f 818f 813f 3d6d 383f
000001b0: adec 4c3f ebad 4a3f 59bc 483f c8a8 8a3f
000001c0: 119a 6a3f 4e91 583f 6dc1 1f3f 8932 6a3f
000001d0: 7825 413f 9c2c 693f e935 733f 4a79 5c3f
000001e0: 9e30 813f aa97 2d3f cfd1 833f 0062 623f
000001f0: 1963 503f f969 7e3f 4859 9b3f 0c54 673f
00000200: 93ea 963f aae3 793f 8ffe 9e3f abe3 683f
00000210: 8d80 6b3f e9bc 693f 40ca 773f c0cb 7f3f
00000220: 37bf 953f 95ae 763f c25b 643f 3c1f 6f3f
00000230: 7111 563f 495b 7a3f 5025 7b3f 2ef0 763f
00000240: 8de8 743f cfa3 6b3f 0d56 6e3f 7fa0 693f
00000250: 5306 353f edab a13f 5714 773f 8d19 393f
00000260: b12c 8a3f a5a0 7e3f ef99 683f 9758 473f
00000270: 55f5 813f 5a68 653f ff17 4e3f 3f76 843f
00000280: 1660 553f ef18 643f 2a5f 7a3f e944 933f
00000290: b379 4c3f 94cd 613f 61fa 853f 3880 533f
000002a0: d700 863f 2d6a 6f3f 7dcf 7c3f 016d 743f
000002b0: 3ddc 503f a110 6f3f 6578 693f a9e7 ad3f
000002c0: 25aa 953f 0090 4c3f 4164 5b3f 90a5 8b3f
000002d0: adfc 653f 8037 553f 2799 673f 6f11 563f
000002e0: 3e4d 663f a489 893f caaf 813f 0d52 663f
000002f0: 6a69 733f 117f 9e3f 0671 ac3f 9d3e 743f
00000300: a794 5b3f c092 ab3f a3a7 6e3f 7e27 513f
00000310: 792f 643f 05a1 803f 1ddb 4b3f dee1 553f
00000320: 65c4 903f e09e 513f 33ed 843f 15d4 8e3f
00000330: e566 a63f 1651 7c3f 3b11 863f 7a3d b03f
00000340: 762c 703f c366 5f3f 0564 9a3f 5f1a 673f
00000350: d12e 8d3f d363 5d3f 2ec4 b13f 7ea7 8c3f
00000360: deb3 753f 0a41 643f 7a1d 6f3f 9bff 4b3f
00000370: d9c0 3e3f 6c76 763f 969b 823f 03ed 7a3f
00000380: c64f 9c3f 4049 8a3f 0138 463f 8d0a 443f
00000390: 7aca 823f 1580 4d3f 9b43 553f a756 5c3f
000003a0: f8d9 573f 647f 9b3f 2455 883f a834 993f
000003b0: 90b5 2a3f 5ef2 6d3f 27de 503f a6b4 823f
000003c0: 090d 833f c313 793f a5ff a53f 21f5 463f
000003d0: 3d84 a63f b92b 503f 21e5 4c3f 8345 553f
000003e0: f395 4b3f 36a8 9f3f bbe8 5c3f 99dc 573f
000003f0: 2eac 5c3f 458a 973f b7bd 9b3f 13cc 8e3f

bn1.bias f4 [256]
-0.23839983 -0.1883577 -0.10849974 -0.18710719 -0.23232926 -0.18803711 -0.25352752 -0.17828901
-0.21719173 -0.28604507 -0.24036628 -0.18491605 0.08045573 -0.15283555 -0.24162194 -0.18290459
-0.1896245 -0.20524931 -0.18235146 -0.25283247 -0.08282124 -0.040098462 -0.2761463 -0.1672568
-0.31764674 -0.06344138 -0.11059176 -0.14310107 -0.14035197 0.14561236 -0.030105202 -0.13550669
-0.11136623 0.16214289 0.05548414 -0.3126768 -0.13942797 -0.22052768 -0.12981279 -0.2733528
0.08162986 -0.06180645 -0.20340246 -0.17551221 0.05740705 -0.08013743 -0.050951507 -0.4514329
-0.14795823 -0.06749991 -0.05376786 -0.1678325 0.006489589 -0.06841703 -0.20730196 -0.2944868
-0.021218702 -0.03938566 -0.17045541 -0.13090546 -0.4086548 -0.24018905 0.11052284 -0.30170524
-0.2519567 -0.22671038 -0.15376693 -0.16911805 -0.13642196 -0.15378225 -0.16671428 -0.039760835
-0.2517867 -0.24955337 -0.0944551 -0.16686948 -0.2559004 -0.21613206 -0.29127273 -0.06238309
-0.34505552 -0.25718513 -0.2895476 -0.2135061 -0.25914362 -0.07954606 -0.27073807 -0.23839027
0.08468359 -0.19727091 -0.06554892 -0.03750432 0.022839898 -0.11718205 -0.1456528 -0.102081366
-0.2639095 -0.18717149 -0.07100765 -0.18830699 -0.17871962 0.12028406 -0.23834938 -0.22085632
-0.21567807 -0.114747636 -0.22704479 -0.062254377 -0.4349203 -0.017172672 -0.055586737 -0.20554522
-0.37767223 -0.12897527 -0.037562627 -0.2962758 -0.28776243 -0.14567725 -0.05707878 -0.25350764
-0.19080609 -0.06543533 -0.21330063 -0.18595588 -0.40880987 -0.16623248 -0.23046032 -0.19323
-0.10850386 -0.14086303 -0.19745888 -0.21787271 -0.29695258 -0.048687648 -0.22883223 -0.19794127
-0.24701564 0.02999599 -0.08320737 -0.25060442 -0.15416916 -0.10935713 -0.15495442 -0.120903745
-0.09105644 -0.27262804 -0.26199543 -0.2347666 0.07286818 -0.26218516 -0.15372217 -0.07739247
-0.26146144 -0.0027044243 -0.15443562 -0.21163054 -0.1482106 -0.30667633 -0.21212053 -0.10473143
-0.019149296 -0.12040344 -0.23736951 -0.12797484 -0.15607156 -0.21687254 -0.1606006 -0.08985919
-0.11655343 -0.37187654 -0.48542362 -0.0037498367 -0.34457967 -0.14217381 -0.19122732 -0.25451174
-0.21433994 -0.05455366 -0.19095033 -0.1465386 -0.15827999 -0.2665816 -0.22454287 -0.09219694
-0.27341345 -0.030302966 0.11969995 -0.07914183 -0.19036517 -0.11668818 -0.31551784 -0.06636737
-0.22694284 -0.2228063 -0.4221638 -0.19138299 -0.16704877 -0.4330841 -0.14803268 -0.22764504
-0.100275084 -0.077446476 -0.06820624 -0.14076602 -0.3039237 -0.22356784 -0.12706329 -0.28081027
-0.113853864 -0.2011009 -0.023072595 -0.12884443 -0.15087685 -0.09364703 -0.25584844 -0.23148657
-0.2403189 -0.2599736 -0.25324765 -0.32036003 -0.30023924 -0.15073584 -0.13149899 -0.2621072
-0.22559677 -0.028666545 -0.35822678 -0.1285858 -0.10497157 -0.08233011 -0.16133171 -0.23462896
-0.13679397 -0.21189834 -0.16739768 -0.16512805 0.007115293 0.055013627 -0.22830944 -0.19727845
-0.040803302 -0.3339137 -0.27091023 0.043568626 -0.23468804 -0.17475052 -0.3233991 -0.16262709
-0.21710075 -0.30602226 -0.2047957 -0.077517174 -0.12555712 -0.24410723 -0.29303086 -0.2814398
00000000: 161f 74be d7e0 40be 1d35 debd 0799 3fbe
00000010: b9e7 6dbe cd8c 40be 5cce 81be 6591 36be
00000020: 8267 5ebe 8074 92be 9422 76be a25a 3dbe
00000030: f9c5 a43d ec80 1cbe be6b 77be 574b 3bbe
00000040: ed2c 42be e02c 52be 57ba 3abe 4273 81be
00000050: 2f9e a9bd 493e 24bd 0c63 8dbe 5e45 2bbe
00000060: 98a2 a2be 8eed 81bd ef7d e2bd 1689 12be
00000070: 6db8 0fbe 681b 153e 2f9f f6bc 44c2 0abe
00000080: fa13 e4bd c908 263e 5643 633d 2c17 a0be
00000090: 35c6 0ebe 02d2 61be a5ed 04be e6f4 8bbe
000000a0: 8e2d a73d c328 7dbd bc48 50be 79b9 33be
000000b0: a823 6b3d 181f a4bd 87b2 50bd 3722 e7be
000000c0: 5d82 17be 653d 8abd b03b 5cbd 48dc 2bbe
000000d0: 9ea6 d43b 3a1e 8cbd f746 54be f9c6 96be
000000e0: d8d2 adbc dc52 21bd dd8b 2ebe 150c 06be
000000f0: 343b d1be 1ef4 75be cc59 e23d 1c79 9abe
00000100: 7800 81be c426 68be 1475 1dbe 482d 2dbe
00000110: 33b2 0bbe 1879 1dbe 26b7 2abe 42dc 22bd
00000120: 30ea 80be eb8a 7fbe ad71 c1bd d5df 2abe
00000130: 6105 83be b951 5dbe b321 95be 6985 7fbd
00000140: 1eab b0be c5ad 83be 953f 94be 58a1 5abe
00000150: 79ae 84be 0be9 a2bd 2e9e 8abe 941c 74be
00000160: 976e ad3d 6301 4abe 833e 86bd 219e 19bd
00000170: bd1a bb3c 25fd efbd 0226 15be 0910 d1bd
00000180: 251f 87be e2a9 3fbe 756c 91bd 8cd3 40be
00000190: 4702 37be 7d57 f63d dc11 74be 2928 62be
000001a0: b6da 5cbe cf00 ebbd 6e7e 68be 72fe 7ebd
000001b0: e0ad debe b4ad 8cbc ebae 63bd 727a 52be
000001c0: 415e c1be 1812 04be 45db 19bd 76b1 97be
000001d0: 9955 93be 6b2c 15be 70cb 69bd c1cb 81be
000001e0: ac62 43be f502 86bd 7b6b 5abe 386b 3ebe
000001f0: 874f d1be d938 2abe cafd 6bbe 16de 45be
00000200: 4637 debd 663e 10be a932 4abe 061a 5fbe
00000210: 2b0a 98be b36c 47bd ff52 6abe 1eb1 4abe
00000220: abf1 7cbe 27ba f53c a068 aabd 394f 80be
00000230: 85de 1dbe a2f6 dfbd 5fac 1ebe 629c f7bd
00000240: cc7b babd e795 8bbe 4424 86be a866 70be
00000250: ea3b 953d 223d 86be 5869 1dbe f17f 9ebd
00000260: 46de 85be b63c 31bb 5f24 1ebe adb5 58be
00000270: 85c4 17be ae04 9dbe 2036 59be 6f7d d6bd
00000280: fcde 9cbc 1496 f6bd fe10 73be d60b 03be
00000290: 39d1 1fbe d613 5ebe 7c74 24be 1808 b8bd
000002a0: 91b3 eebd 9a66 bebe 7289 f8be d2bf 75bb
000002b0: bf6c b0be 0396 11be 18d1 43be 5d4f 82be
000002c0: ee7b 5bbe a973 5fbd 7c88 43be 370e 16be
000002d0: 2614 22be 627d 88be 91ee 65be c0d1 bcbd
000002e0: d9fc 8bbe ed3d f8bc 3f25 f53d 1d15 a2bd
000002f0: 16ef 42be 36fa eebd 8e8b a1be 9eeb 87bd
00000300: b463 68be 5627 64be db25 d8be e7f9 43be
00000310: d50e 2bbe 33bd ddbe e195 17be c81b 69be
00000320: 065d cdbd 429c 9ebd b7af 8bbd f824 10be
00000330: e39b 9bbe f8ee 64be e11c 02be 5dc6 8fbe
00000340: 372c e9bd 65ed 4dbe bd02 bdbc cbef 03be
00000350: 767f 1abe 04ca bfbd 91fe 82be d10a 6dbe
00000360: 2816 76be 421b 85be ada9 81be 3b06 a4be
00000370: f5b8 99be 7f5a 1abe aca7 06be ea32 86be
00000380: d702 67be 1ad6 eabc 8069 b7be ffab 03be
00000390: 56fb d6bd b09c a8bd 2434 25be 9342 70be
000003a0: b813 0cbe e1fb 58be 4c6a 2bbe 5417 29be
000003b0: 6727 e93b f855 613d f3c9 69be 5d03 4abe
000003c0: 5d21 27bd bdf6 aabe bfb4 8abe 0475 323d
000003d0: 1052 70be cdf1 32be 9194 a5be b787 26be
000003e0: a94f 5ebe f3ae 9cbe f7b5 51be 53c1 9ebd
000003f0: 0c92 00be 3ff7 79be 2408 96be e118 90be

bn1.running_mean f4 [256]
0.2840195 0.273326 0.060984507 0.10757223 0.20115721 -0.28384125 -0.28374484 0.05429149
0.28247386 0.2747299 0.07831909 0.007208966 0.050725944 0.22296523 0.1838591 0.2795198
0.3105864 -0.050763603 -0.07420337 -0.19363874 -0.23360999 -0.31787744 -0.09166011 -0.3834655
-0.32465377 -0.32783473 -0.30498523 0.012207577 -0.3713611 -0.20207697 0.22281697 0.16046983
-0.2573408 -0.1414588 -0.09969258 0.21503945 0.122110225 0.027843595 -0.03968353 0.10007237
0.29281905 -0.15981834 0.053257897 -0.35919416 0.16607732 -0.09734859 -0.35964423 -0.166505
0.05498894 -0.35908446 -0.09063633 -0.14743546 0.1755344 -0.14665371 -0.036067083 -0.35570967
-0.19192392 -0.06844239 -0.2709512 0.04543329 -0.074540846 -0.23916185 0.29774955 0.017308522
-0.1680837 0.16725396 0.01799921 -0.28945622 0.06363303 0.23900455 -0.33656448 0.07920278
-0.05076763 -0.32677796 0.18096215 0.20934239 0.14521113 -0.1687482 6.3208863e-06 -0.3210063
0.2588879 0.21942876 0.019356258 -0.25091368 0.17108999 -0.051466357 -0.2402456 0.09823764
-0.097858794 -0.08032701 0.38243046 -0.17427096 -0.10362214 0.0652373 -0.24720421 -0.11268204
0.17372347 0.18389186 -0.10527668 0.15273064 -0.2286797 -0.052787967 -0.04251474 0.34173706
0.17783134 0.29887962 0.22927596 0.23663104 -0.2706868 0.29052243 -0.35408556 -0.11499137
0.14576176 0.2825221 -0.26718837 0.32858786 0.2731002 -0.32320523 0.11524825 -0.15534997
-0.1728618 -0.17796792 -0.3788725 0.054081827 0.12954819 -0.1571075 0.120271295 -0.31331944
-0.38730863 0.032331463 -0.34968382 0.11024003 0.2638234 0.07905869 0.1255541 -0.19412734
-0.36193514 0.124812126 0.33810988 -0.10387168 -0.005588187 -0.02455382 0.020172331 -4.422525e-05
-0.27172533 0.2560943 0.17614721 0.1935807 -0.24330665 -0.43698564 0.03862404 -0.11465215
-0.10818423 0.22817758 -0.0119904345 0.281046 -0.32468602 -0.08358905 -0.2590466 0.1111689
-0.011282174 0.29086488 0.13613647 -0.2716233 -0.0127457585 -0.24149893 0.16426691 0.18010499
-0.096465096 -0.385436 0.3101638 0.25058067 -0.10335694 0.039171204 0.17824772 -0.38906914
0.0483203 0.16645758 -0.19613582 -0.37004614 0.3135604 -0.08055456 0.18499571 -0.16258053
0.32802194 -0.31848022 0.047492586 -0.12975708 -0.050270766 0.18820788 -0.076959506 0.20391145
0.10881532 -0.2099003 0.04175141 -0.24633458 -0.14602402 -0.04475398 -0.103129625 -0.33508235
0.2431157 0.1392969 0.27551275 -0.20717186 -0.14633295 0.14443707 0.061786115 -0.40289634
0.12370307 0.39356905 -0.27157402 0.21700613 0.05294939 0.076518856 0.007516356 -0.05891534
0.013732986 0.18408482 -0.11001364 -0.32063913 0.372028 -0.2069421 -0.27406287 0.15280932
-0.22078769 -0.0646244 0.012993291 0.27339315 0.06932105 -0.081474945 0.29162228 0.057299204
-0.29615995 -0.035634983 -0.09448065 0.18038903 0.36107925 0.1638293 0.022141 -0.31563365
-0.21984337 -0.07406007 -0.21286798 0.070908725 0.14867719 -0.07628434 0.23020367 0.31265524
-0.24237059 -0.030522436 0.091718435 0.37321562 -0.17013109 -0.34853846 0.002648164 -0.24675426
00000000: 016b 913e 63f1 8b3e e4ca 793d d44e dc3d
00000010: 28fc 4d3e a453 91be 0147 91be c160 5e3d
00000020: 6aa0 903e 66a9 8c3e c265 a03d 3139 ec3b
00000030: 02c6 4f3d ff50 643e 8f45 3c3e 381d 8f3e
00000040: 2e05 9f3e 7fed 4fbd f0f7 97bd 3c49 46be
00000050: 7537 6fbe d5c0 a2be 4cb8 bbbd 9755 c4be
00000060: 0539 a6be f4d9 a7be 0627 9cbe 4a02 483c
00000070: 0b23 bebe 44ed 4ebe 222a 643e 3452 243e
00000080: 2cc2 83be 93da 10be a02b ccbd 4d33 5c3e
00000090: ed14 fa3d 4018 e43c 328b 22bd bef2 cc3d
000000a0: 61ec 953e 6ba7 23be f424 5a3d 4ce8 b7be
000000b0: 2c10 2a3e b35e c7bd 4a23 b8be 4980 2abe
000000c0: 153c 613d ebd9 b7be 8a9f b9bd 52f9 16be
000000d0: 4abf 333e 642c 16be 14bb 13bd 941f b6be
000000e0: b487 44be 862b 8cbd 1eba 8abe 4218 3a3d
000000f0: dfa8 98bd d8e6 74be a172 983e 9aca 8d3c
00000100: 221e 2cbe 9f44 2b3e 1473 933c 9b33 94be
00000110: 0952 823d 9cbd 743e 2e52 acbe 1135 a23d
00000120: b8f1 4fbd 714f a7be 244e 393e da5d 563e
00000130: 3ab2 143e 54cc 2cbe 0018 d436 f05a a4be
00000140: f48c 843e efb1 603e 0491 9e3c c277 80be
00000150: 3732 2f3e 63ce 52bd f102 76be d130 c93d
00000160: 316a c8bd 7d82 a4bd edcd c33e 1674 32be
00000170: d837 d4bd 229b 853d 1a23 7dbe d7c5 e6bd
00000180: 91e4 313e 264e 3c3e 4d9b d7bd 6c65 1c3e
00000190: 032b 6abe 3238 58bd f023 2ebd 29f8 ae3e
000001a0: 6b19 363e c006 993e 51c7 6a3e 684f 723e
000001b0: 7697 8abe 5bbf 943e b44a b5be 9880 ebbd
000001c0: 9242 153e bda6 903e eacc 88be ab3c a83e
000001d0: cad3 8b3e 287b a5be 4607 ec3d 1014 1fbe
000001e0: af02 31be 393d 36be 94fb c1be e884 5d3d
000001f0: 48a8 043e cae0 20be cc50 f63d 686b a0be
00000200: 514d c6be ff6d 043d c209 b3be 86c5 e13d
00000210: dc13 873e 86e9 a13d 4191 003e 51c9 46be
00000220: 904f b9be 809d ff3d bd1c ad3e adba d4bd
00000230: 1c1d b7bb 1825 c9bc 7240 a53c 807e 39b8
00000240: 951f 8bbe cb1e 833e ef5f 343e 053a 463e
00000250: 6125 79be 95bc dfbe 3e34 1e3d bfce eabd
00000260: b28f ddbd 62a7 693e 8773 44bc 43e5 8f3e
00000270: 3f3d a6be bc30 abbd c2a1 84be 85ac e33d
00000280: ded8 38bc 3eec 943e 5c67 0b3e 3612 8bbe
00000290: 96d3 50bc 7f4b 77be 9635 283e 716d 383e
000002a0: 7e8f c5bd de57 c5be cacd 9e3e 1c4c 803e
000002b0: ceac d3bd fc71 203d 9286 363e 1234 c7be
000002c0: 82eb 453d db73 2a3e d4d7 48be b076 bdbe
000002d0: fd8a a03e caf9 a4bd 846f 3d3e 837b 26be
000002e0: 7ef2 a73e d70f a3be 9687 423d 0adf 04be
000002f0: b8e8 4dbd 91b9 403e f29c 9dbd 2ace 503e
00000300: 91da de3d 1bf0 56be 8703 2b3d 223f 7cbe
00000310: 5287 15be f34f 37bd a035 d3bd ea8f abbe
00000320: 52f3 783e d9a3 0e3e 0210 8d3e dc24 54be
00000330: 4ed8 15be 50e7 133e 7013 7d3d 6e48 cebe
00000340: 0958 fd3d e281 c93e c00b 8bbe db36 5e3e
00000350: 76e1 583d ebb5 9c3d c44b f63b 3651 71bd
00000360: 5100 613c bb80 3c3e d54e e1bd d02a a4be
00000370: 747a be3e a1e8 53be f851 8cbe 0c7a 1c3e
00000380: 2b16 62be cc59 84bd d0e1 543c 30fa 8b3e
00000390: 32f8 8d3d 56dc a6bd 844f 953e 92b2 6a3d
000003a0: 47a2 97be fdf5 11bd 127f c1bd e7b7 383e
000003b0: 61df b83e dec2 273e 0b61 b53c bc9a a1be
000003c0: 9f1e 61be ceac 97bd 10fa 59be 9838 913d
000003d0: d53e 183e f73a 9cbd 83ba 6b3e 5914 a03e
000003e0: ff2f 78be 300a fabc e0d6 bb3d 1e16 bf3e
000003f0: d836 2ebe a273 b2be d28c 2d3b 26ad 7cbe

bn1.running_var f4 [256]
0.9740983 0.42452413 1.5538173 1.3890035 0.13599549 0.19767445 0.36387527 0.12004008
0.35252577 0.32966366 4.2820873 0.4919074 0.44298375 1.1121372 0.28021228 0.109607115
0.22100939 0.64376044 0.6664417 0.21229145 0.516738 0.28529403 0.3562856 2.575391
0.3311577 0.28657416 0.9256547 0.066550046 0.33728427 0.31254795 2.1450896 3.1395633
1.3489792 0.34187678 0.21424983 0.2636971 0.54293525 1.0272081 0.29999623 0.38999072
0.83048904 0.18520804 0.7553879 0.65526885 0.38599432 0.40781844 0.49591777 0.38761666
0.1658892 1.0800894 0.26382604 1.7829341 0.47202557 0.4210341 1.8181489 0.6064704
0.47017935 0.34119263 2.3315647 1.0193397 0.22730012 3.5861728 0.702662 3.0205646
0.530017 0.19383803 0.6590556 0.37567717 0.3140925 0.4074934 1.7129583 0.11039942
0.6500269 0.23730151 0.39708054 0.43014225 0.06775183 1.8342264 0.21498883 0.3947201
0.10316816 0.3758149 0.09325589 0.30961466 0.4230376 0.18557979 0.22073998 0.29427543
0.31392264 3.329522 0.52380615 0.5640556 1.1267338 0.46427596 0.3592142 1.4752121
0.26233786 2.0834234 0.052459124 0.53368765 2.195703 0.41018802 0.23003033 0.4325668
1.1104326 1.1004711 0.7407342 0.556198 0.22667858 0.38578084 0.37034732 3.7426682
0.43069243 0.4682396 1.6426022 0.28308204 0.53876406 0.20911057 0.12151458 0.28769338
0.39663115 0.40507904 3.0563467 0.21175608 0.3184871 0.60172135 1.8860644 0.1351439
1.1396348 0.051615037 2.571362 0.23640788 0.22940423 0.51753867 0.13987176 2.125058
0.83302224 0.17118979 0.09320345 0.4305784 0.25144213 1.3799964 1.0467379 0.18364951
0.1891629 0.15286987 0.28531978 0.29875305 0.8407856 2.1315198 3.5881693 0.3095221
3.57532 0.11746471 0.26999366 0.35217708 0.40159112 0.18528813 0.20010054 1.9136825
0.15719278 0.33571315 0.30336064 0.6090851 0.974782 0.2729203 0.29995856 0.19907883
3.6013722 0.3694321 0.22928742 0.4815447 0.36771384 0.1385541 0.556992 3.4014988
0.772606 0.32883012 0.59378433 1.3368379 0.07661528 0.43019077 0.24726427 0.17291513
0.20623466 1.2379197 0.126998 0.13536854 0.3825901 0.13612267 0.66614294 0.42038202
0.10459226 0.17453781 0.45492703 0.36296132 0.20336533 0.3400498 0.50028235 0.16834137
0.079825774 0.16791168 0.68576646 0.31923226 0.38946182 0.33536595 0.4671734 3.7251706
0.33644214 0.22946215 0.22543634 0.2819898 1.3797436 0.86427665 3.365011 3.383377
0.41635662 0.69000924 0.12058376 0.26500532 0.6480827 0.27050143 0.27710268 0.42664227
0.4078306 0.7225221 0.20148541 0.34866482 0.3760942 0.23697713 2.034156 0.37443888
0.081553034 0.27463472 3.0909805 1.4473776 1.4148898 0.17711852 0.36065295 0.56416965
0.20116487 0.33139357 3.1920269 0.55558443 3.1729963 0.34692645 0.3308328 0.67839766
0.46045792 2.9852176 0.5258205 0.22107138 1.1070515 0.4486318 0.7761765 2.4632802
00000000: 825e 793f 3a5b d93e 7ce3 c63f deca b13f
00000010: 6742 0b3e 2c6b 4a3e dc4d ba3e 93d7 f53d
00000020: 427e b43e adc9 a83e dc06 8940 49db fb3e
00000030: c4ce e23e 835a 8e3f fc77 8f3e b279 e03d
00000040: 4950 623e 7ccd 243f ec9b 2a3f ee62 593e
00000050: f148 043f 0f12 923e 116b b63e 35d3 2440
00000060: 818d a93e d9b9 923e b5f7 6c3f 644b 883d
00000070: 86b0 ac3e 4906 a03e 2649 0940 9bee 4840
00000080: 5aab ac3f 790a af3e 4f64 5b3e 4e03 873e
00000090: cefd 0a3f 8e7b 833f 1b99 993e ddac c73e
000000a0: ee9a 543f 2da7 3d3e 1a61 413f b3bf 273f
000000b0: 0ca1 c53e 94cd d03e efe8 fd3e b175 c63e
000000c0: dcde 293e 5f40 8a3f 3514 873e 2f37 e43f
000000d0: 56ad f13e c891 d73e 1ab9 e83f a541 1b3f
000000e0: 59bb f03e cdb0 ae3e 5b38 1540 b979 823f
000000f0: 5dc1 683e db83 6540 a8e1 333f ee50 4140
00000100: 32af 073f 7a7d 463e deb7 283f c258 c03e
00000110: bbd0 a03e faa2 d03e 3842 db3f 1719 e23d
00000120: 2a68 263f 2bff 723e 244e cb3e 9b3b dc3e
00000130: 79c1 8a3d eec7 ea3f 0826 5c3e c118 ca3e
00000140: d449 d33d d06a c03e f2fc be3d d085 9e3e
00000150: 6298 d83e a108 3e3e a909 623e 45ab 963e
00000160: 78ba a03e e316 5540 2918 063f f365 103f
00000170: d038 903f 94b5 ed3e ecea b73e c0d3 bc3f
00000180: 2651 863e cf56 0540 61df 563d c19f 083f
00000190: 6686 0c40 2a04 d23e 128d 6b3e 6579 dd3e
000001a0: a822 8e3f 3ddc 8c3f c2a0 3d3f fe62 0e3f
000001b0: 6e1e 683e 1185 c53e 2a9e bd3e e087 6f40
000001c0: b883 dc3e 1abd ef3e ca40 d23f 21f0 903e
000001d0: 71ec 093f 1521 563e a3dc f83d 8c4c 933e
000001e0: 3d13 cb3e 8566 cf3e 2f9b 4340 96d6 583e
000001f0: be10 a33e 690a 1a3f 8f6a f13f 2a63 0a3e
00000200: 8edf 913f 4a6a 533d 3291 2440 e814 723e
00000210: f1e8 6a3e 6a7d 043f 8b3a 0f3e f300 0840
00000220: f240 553f 604c 2f3e 73e1 be3d c674 dc3e
00000230: 06bd 803e b9a3 b03f 82fb 853f 9e0e 3c3e
00000240: ebb3 413e eb89 1c3e 6f15 923e 29f6 983e
00000250: ba3d 573f d26a 0840 91a4 6540 ae79 9e3e
00000260: 0bd2 6440 5691 f03d 9c3c 8a3e 8e50 b43e
00000270: 5a9d cd3e 2cbc 3d3e 28e7 4c3e 8cf3 f43f
00000280: 25f7 203e 98e2 ab3e 1652 9b3e 00ed 1b3f
00000290: 508b 793f 36bc 8b3e 2b94 993e 52db 4b3e
000002a0: e27c 6640 3426 bd3e 52ca 6a3e 078d f63e
000002b0: fd44 bc3e 20e1 0d3e 0797 0e3f 28b2 5940
000002c0: 82c9 453f 6c5c a83e 4002 183f 811d ab3f
000002d0: 79e8 9c3d f741 dc3e d832 7d3e aa10 313e
000002e0: 2e2f 533e 2774 9e3f c40b 023e 0d9e 0a3e
000002f0: d9e2 c33e be63 0b3e 5888 2a3f 503c d73e
00000300: 7834 d63d 0aba 323e 32ec e83e 11d6 b93e
00000310: 003f 503e 021b ae3e 8112 003f ae61 2c3e
00000320: b27b a33d 0af1 2b3e 648e 2f3f 6972 a33e
00000330: 8a67 c73e 16b5 ab3e 5a31 ef3e 3269 6e40
00000340: 2542 ac3e 20f8 6a3e c9d8 663e f860 903e
00000350: 709b b03f 3c41 5d3f 575c 5740 4089 5840
00000360: b22c d53e 72a4 303f 9ef4 f63d c7ae 873e
00000370: bfe8 253f 2a7f 8a3e 67e0 8d3e db70 da3e
00000380: 2ccf d03e 35f7 383f 3152 4e3e 3284 b23e
00000390: 6b8f c03e 22aa 723e 9d2f 0240 74b6 bf3e
000003a0: 4705 a73d ec9c 8c3e a0d2 4540 ab43 b93f
000003b0: 1c1b b53f 8f5e 353e 81a7 b83e 6c6d 103f
000003c0: 2afe 4d3e 6bac a93e 2b4a 4c40 c83a 0e3f
000003d0: 5f12 4b40 58a0 b13e eb62 a93e 78ab 2d3f
000003e0: 24c1 eb3e ce0d 3f40 2c9c 063f 8960 623e
000003f0: ddb3 8d3f 11b3 e53e 81b3 463f 62a6 1d40

fc2.weight f4 [128, 256]
0.124605365 -0.049140662 0.016713595 0.17508098 -0.023684857 -0.0069905785 0.0064483206 -0.098096535
-0.020970685 -0.056727014 0.042856045 0.061568562 0.031021742 0.0837122 0.09585045 -0.0013701378
-0.059233006 0.04744617 0.098074555 -0.08855119 0.017546102 -0.019192476 -0.08282523 0.075167865
-0.16707616 -0.030833108 -0.032567624 0.00070494006 -0.05321524 -0.08908941 0.15176997 0.12338132
0.0075323586 0.05717126 -0.081812076 -0.018553207 -0.08105013 0.11869755 0.14187627 -0.014238717
-0.0418966 0.12378591 -0.08464018 -0.020703563 -0.033206984 -0.017040415 -0.00041537898 0.06710223
-0.13902402 0.06494802 0.018562032 -0.14304614 0.06198263 -0.1361842 0.14387481 -0.06075624
-0.10424837 -0.05443614 0.15223192 0.02683756 -0.12805991 0.25824022 -0.11627803 0.007845183
0.10671366 -0.12837042 -0.11054486 -0.1285532 0.07506671 0.064410456 0.084553145 0.03388376
0.03399639 0.016952997 -0.025665732 -0.107799076 0.10813867 0.14562647 0.015286656 0.078043066
-0.1355796 -0.10147228 -0.2100842 -0.023850922 0.050786704 -0.03617591 0.013109052 0.16492058
-0.023203 0.29559976 -0.09842852 0.026771136 -0.15448757 0.10590206 -0.16999753 -0.036066364
0.05444712 -0.14475632 0.04294753 -0.00026348885 0.18655708 0.03443561 0.019303698 0.031702127
0.114291 0.07409175 0.0057895225 -0.030720215 -0.052776296 -0.0511851 -0.12696329 0.26178724
-0.14876576 0.026609918 -0.12881315 0.037339684 0.059085652 0.060553383 -0.0010969638 -0.041081112
-0.094909586 -0.07769113 0.01957027 -0.058860604 -0.11040465 -0.053119604 -0.066447 -0.01887539
0.0032791912 0.11921533 0.025608325 0.026704608 0.041381493 -0.04162229 -0.13648577 0.12328399
0.1273002 0.062456638 0.054979037 -0.013438351 -0.09318716 0.002950004 0.104875386 0.104613826
-0.0019013344 -0.0072445245 0.004726052 0.0011065776 -0.076064184 -0.056702398 0.18929957 -0.099239275
0.17798172 0.02361289 0.027237752 -0.023417298 -0.059526727 -0.06622283 -0.043138623 0.07416981
0.021375638 0.05428402 -0.056474425 -0.003584841 -0.052803446 0.059021976 -0.030703899 -0.044029973
0.111123316 -0.09481614 -0.09124072 0.07615753 0.01831995 -0.10328173 0.022235086 -0.08661568
-0.047546335 0.037323054 0.012787038 0.15025197 0.06955135 -0.021640478 -0.017916542 -0.037222058
-0.047121882 0.06932427 -0.13037224 -0.005320737 -0.02467728 0.008849143 0.07071307 -0.15163773
0.089704104 0.05025323 0.021800404 0.073895454 -0.04527422 -0.13799292 -0.06345061 -0.06424184
0.028719302 -0.030642059 0.014047417 0.065251276 0.1302573 -0.107736446 -0.07541002 -0.0135055315
-0.01792558 -0.15309592 -0.006039328 -0.016884036 0.014037731 0.05153081 -0.04014128 0.12285327
0.021012647 -0.1310822 0.07309484 0.089056075 -0.024952592 -0.015741227 0.08861936 -0.031108806
0.0887347 0.012086732 -0.058515497 -0.05132949 0.059751913 -0.16567372 0.034929767 0.008083244
-0.0018860964 0.13827041 0.046992976 -0.08216043 0.057269674 0.006901232 -0.05400278 0.029266406
-0.14975077 0.079629615 0.1093704 -0.12917502 -0.026575424 0.017659632 0.00024540743 -0.07078864
0.045164414 -0.12203809 0.12204194 0.05761488 -0.16698734 0.08284954 0.16111688 0.21386224
00000000: 1931 ff3d b847 49bd f3ea 883c 6e48 333e
00000010: bf06 c2bc 3911 e5bb 6f4c d33b d6e6 c8bd
00000020: b7ca abbc 965a 68bd d289 2f3d 512f 7c3d
00000030: 4f21 fe3c 4d71 ab3d 3e4d c43d 3296 b3ba
00000040: 4f9e 72bd ea56 423d 50db c83d 545a b5bd
00000050: d8bc 8f3c 8a39 9dbc 46a0 a9bd 9cf1 993d
00000060: 0316 2bbe b795 fcbc a165 05bd bacb 383a
00000070: 39f8 59bd 8274 b6bd 9669 1b3e 58af fc3d
00000080: 01d2 f63b 692c 6a3d 178d a7bd e5fc 97bc
00000090: 9cfd a5bd b317 f33d 0348 113e 8249 69bc
000000a0: c59b 2bbd 7883 fd3d d557 adbd 859a a9bc
000000b0: 0c04 08bd 5798 8bbc 39c7 d9b9 e56c 893d
000000c0: 505c 0ebe 7803 853d 670f 983c b07a 12be
000000d0: 80e1 7d3d df73 0bbe eb53 133e 89db 78bd
000000e0: 2b80 d5bd 6ef8 5ebd afe2 1b3e 71da db3c
000000f0: 2322 03be 1038 843e 2d23 eebd 1589 003c
00000100: b18c da3d 8973 03be 5865 e2bd 73a3 03be
00000110: 93bc 993d a1e9 833d 332a ad3d b3c9 0a3d
00000120: cc3f 0b3d 03e1 8a3c f140 d2bc c3c5 dcbd
00000130: cf77 dd3d 1b1f 153e e274 7a3c 0bd5 9f3d
00000140: 61d5 0abe b3d0 cfbd 5020 57be 0263 c3bc
00000150: b805 503d 312d 14bd 59c7 563c f1e0 283e
00000160: 3814 bebc da58 973e e494 c9bd 244f db3c
00000170: fd31 1ebe 2ee3 d83d d513 2ebe 53ba 13bd
00000180: f103 5f3d 003b 14be c0e9 2f3d e024 8ab9
00000190: d208 3f3e 5b0c 0d3d ca22 9e3c 17da 013d
000001a0: 6611 ea3d 6abd 973d 09b6 bd3b f6a8 fbbc
000001b0: f52b 58bd 78a7 51bd aa02 02be fa08 863e
000001c0: 0d56 18be 0bfd d93c 98e7 03be 7ff1 183d
000001d0: cc03 723d d306 783d ffc7 8fba ab44 28bd
000001e0: f55f c2bd 871c 9fbd d551 a03c d117 71bd
000001f0: d51b e2bd f193 59bd 5d15 88bd 90a0 9abc
00000200: b3e7 563b 2b27 f43d 8dc8 d13c 9fc3 da3c
00000210: a47f 293d 227c 2abd edc2 0bbe 517c fc3d
00000220: fc5a 023e 88d2 7f3d b331 613d 882c 5cbc
00000230: e9d8 bebd db54 413b e8c8 d63d c63f d63d
00000240: 3236 f9ba 7a63 edbb ffdc 9a3b 950a 913a
00000250: 8ac7 9bbd c640 68bd bfd7 413e f63d cbbd
00000260: d740 363e d26f c13c b521 df3c a2d5 bfbc
00000270: 4cd2 73bd d69f 87bd 20b2 30bd 57e6 973d
00000280: f61b af3c ec58 5e3d ba51 67bd a7ef 6abb
00000290: 6d48 58bd 07c1 713d be86 fbbc c658 34bd
000002a0: 9f94 e33d f72e c2bd 6adc babd 7bf8 9b3d
000002b0: b813 963c 5f85 d3bd 5b26 b63c 9063 b1bd
000002c0: f2bf 42bd 0fe0 183d ba80 513c a7db 193e
000002d0: f070 8e3d 5f47 b1bc b6c5 92bc 2876 18bd
000002e0: e002 41bd e2f9 8d3d 4d80 05be 9459 aebb
000002f0: 0228 cabc fffb 103c 04d2 903d ec46 1bbe
00000300: c9b6 b73d 55d6 4d3d c396 b23c 8056 973d
00000310: 7671 39bd 044e 0dbe 65f2 81bd 3a91 83bd
00000320: be44 eb3c 0e05 fbbc 2327 663c 76a2 853d
00000330: 2b62 053e eda4 dcbd 9270 9abd 4e46 5dbc
00000340: aad8 92bc 2dc5 1cbe 8ee5 c5bb 6450 8abc
00000350: 83fe 653c f811 533d 2f6b 24bd 7f9a fb3d
00000360: b722 ac3c 6a3a 06be bfb2 953d 0863 b63d
00000370: 6169 ccbc bff3 80bc 117e b53d e5d7 febc
00000380: 8aba b53d 6e07 463c f2ad 6fbd df3e 52bd
00000390: 6cbe 743d 5fa6 29be 8412 0f3d 956f 043c
000003a0: e536 f7ba c296 0d3e b57b 403d ba43 a8bd
000003b0: 9b93 6a3d bb23 e23b 0532 5dbd 1ac0 ef3c
000003c0: 4458 19be da14 a33d 97fd df3d 7546 04be
000003d0: b4b4 d9bc efaa 903c 07aa 8039 a2f9 90bd
000003e0: 52fe 383d 1bef f9bd 20f1 f93d 95fd 6b3d
000003f0: bbfe 2abe 05ad a93d d3fb 243e b4fe 5a3e

fc2.bias f4 [128]
-0.015018161 0.056106426 0.026279604 0.030833175 -0.02133366 -0.004701067 -0.053732734 -0.049188316
0.029730288 -0.027501015 -0.02664658 0.031761594 0.019358994 -0.037503034 0.0029357278 -0.011909622
0.03319354 -0.03184706 0.050348274 -0.016244655 0.022976222 0.04337678 -0.016990472 0.041970573
0.045493018 0.006488136 -0.0014376908 -0.04276059 -0.0065189726 0.014583278 -0.0013193741 0.045222946
0.049420293 -0.009209895 -0.052570682 0.010432173 -0.014203116 -0.01894299 -0.011176678 0.034500796
0.002886265 -0.0038399338 0.02788794 -0.029139223 0.0070303376 0.038737524 0.049228407 -0.061945986
0.05531893 0.042373788 0.004215596 0.019688834 0.050725967 0.04779274 0.053243775 -0.017979842
0.033165116 -0.021409953 -0.017545495 -0.04310863 -0.0021236958 0.011332004 -0.0550114 -0.03390873
-0.049428515 0.0040529226 0.019921614 0.010381375 0.023622641 -0.003931775 -0.00936883 -0.040105365
-0.049169086 0.034777097 -0.05425698 0.05298187 -0.060153253 0.05827798 -0.05233856 0.017752443
0.053293925 0.030732106 0.04945725 -0.05475 0.0027333198 -0.0022966366 -0.038182836 0.035304636
0.01921918 -0.010464648 -0.03178622 0.0062427507 -0.03461015 -0.055772386 0.0027111121 -0.025187012
-0.036285684 -0.018897127 0.023108263 0.009364193 -0.00911478 -0.015677739 -0.054228917 -0.016637595
-0.009845198 -0.018148158 -0.015691169 -0.004193514 -0.028999178 -0.0015794133 -0.017917126 -0.024748757
-0.06529238 -0.022288328 0.057002805 0.0017015776 -0.05800656 0.009099891 -0.024391374 0.005098461
-0.0032353646 -0.030623998 0.045666672 -0.0012620422 0.015891934 -0.055841837 0.033761136 -0.017384868
00000000: bc0e 76bc dacf 653d 5348 d73c db95 fc3c
00000010: eec3 aebc 690b 9abb db16 5cbd b079 49bd
00000020: ef8c f33c cf49 e1bc ee49 dabc 7218 023d
00000030: c196 9e3c c89c 19bd 5765 403b 9320 43bc
00000040: f3f5 073d 1072 02bd fe39 4e3d 8313 85bc
00000050: a138 bc3c daab 313d 9a2f 8bbc 56e9 2b3d
00000060: e356 3a3d 6e9a d43b e670 bcba ba25 2fbd
00000070: 1b9d d5bb b4ee 6e3c d9ee acba b23b 393d
00000080: ef6c 4a3d 19e5 16bc 5b54 57bd b4eb 2a3c
00000090: 30b4 68bc 542e 9bbc 631e 37bc b550 0d3d
000000a0: 7e27 3d3b 66a7 7bbb 4075 e43c 61b5 eebc
000000b0: bf5e e63b 3dab 1e3d baa3 493d 13bb 7dbd
000000c0: 1a96 623d 2390 2d3d fb22 8a3b 7a4a a13c
000000d0: 08c6 4f3d 52c2 433d 2516 5a3d 764a 93bc
000000e0: 25d8 073d ed63 afbc 92bb 8fbc ad92 30bd
000000f0: b42d 0bbb dfa9 393c a253 61bd e1e3 0abd
00000100: 8e75 4abd 61ce 843b a732 a33c a516 2a3c
00000110: 4584 c13c 1fd6 80bb b97f 19bc 8645 24bd
00000120: 8665 49bd 6e72 0e3d 913c 5ebd 8403 593d
00000130: 4263 76bd e4b4 6e3d f560 56bd 926d 913c
00000140: bb4a 5a3d e6c1 fb3c af93 4a3d 8941 60bd
00000150: 7f21 333b 2b83 16bb 9b65 1cbd 989b 103d
00000160: 8b71 9d3c ea73 2bbc 4432 02bd fd8f cc3b
00000170: 5fc3 0dbd 9671 64bd eaac 313b fe54 cebc
00000180: 4ca0 14bd 26ce 9abc 8a4d bd3c 466c 193c
00000190: 2956 15bc 9a6e 80bc 241f 5ebd 914b 88bc
000001a0: c14d 21bc 72ab 94bc c48a 80bc bf69 89bb
000001b0: af8f edbc 5104 cfba f0c6 92bc e8bd cabc
000001c0: 03b8 85bd 0396 b6bc c67b 693d 7807 df3a
000001d0: 4998 6dbd b617 153c 6bd0 c7bc fe10 a73b
000001e0: 6908 54bb 2edf fabc fa0c 3b3d 1c6b a5ba
000001f0: cd2f 823c 69ba 64bd 1e49 0a3d b66a 8ebc

bn2.weight f4 [128]
1.0959674 0.92611426 0.97310483 1.0745815 1.0257211 1.0697821 0.9107864 1.000931
0.9398158 1.0879872 1.022534 1.0895655 0.94268715 0.9255672 0.92160517 0.95434296
1.0914727 1.044113 0.9772167 1.0559129 1.0207459 1.0706166 1.0228461 0.90723056
0.9282679 1.0745138 1.0566678 0.96467596 1.0480739 0.954038 1.0294987 0.95929873
1.0635056 0.9654342 0.9698201 0.96349853 1.0118911 0.85283995 1.007465 1.0515453
0.9702395 0.9642511 1.0063714 1.0259212 1.001546 0.97449017 0.9411875 1.0906155
0.9233892 0.93979317 1.0088863 1.008157 1.0176868 0.94596493 0.9820966 0.904159
0.96724373 1.0380069 0.9541656 0.9419377 1.000939 0.9865296 0.9183662 1.056651
1.0468193 1.021859 0.9348228 0.95701087 1.0482564 0.96117413 0.94331706 1.0900123
1.0261751 1.0993769 1.057926 1.0300953 1.0489856 0.8929738 0.9800867 0.990952
0.9389215 0.9246481 1.082751 0.91256106 1.0290898 1.0743586 0.91401744 1.1008443
0.94393504 1.0301244 0.93620306 1.0587627 0.9742579 0.9982012 0.97479796 0.95477897
0.902569 1.0459425 0.942422 1.0151528 1.0833881 0.9403807 0.9569175 1.0008792
0.9880904 0.9465808 0.960869 1.0033865 0.8036965 1.0080726 1.0796 1.0526835
0.9326027 0.93848306 1.0240705 1.0451338 0.86011964 0.9233937 1.0379611 1.0083251
0.94477797 0.9660952 0.8886841 0.9742447 0.9482624 0.9719022 1.0557667 0.93106025
00000000: a948 8c3f d315 6d3f 661d 793f e38b 893f
00000010: d44a 833f 9fee 883f 4c29 693f 821e 803f
00000020: c597 703f 2a43 8b3f 65e2 823f e276 8b3f
00000030: f253 713f f9f1 6c3f 51ee 6b3f d24f 743f
00000040: 61b5 8b3f 7fa5 853f e02a 7a3f 2728 873f
00000050: cda7 823f f709 893f 9fec 823f 4340 683f
00000060: f7a2 6d3f ab89 893f e440 873f 01f5 763f
00000070: 4927 863f d63b 743f 9dc6 833f 9a94 753f
00000080: f420 883f b226 773f 2146 783f d7a7 763f
00000090: a685 813f b853 5a3f 9df4 803f 0999 863f
000000a0: 9e61 783f 29d9 763f c7d0 803f 6351 833f
000000b0: a932 803f 3078 793f aaf1 703f 4a99 8b3f
000000c0: 3c63 6c3f 4996 703f 3023 813f 4a0b 813f
000000d0: 9043 823f c22a 723f af6a 7b3f f776 673f
000000e0: 499d 773f 69dd 843f 3244 743f d422 713f
000000f0: c51e 803f 348d 7c3f 0c1a 6b3f 5740 873f
00000100: 2dfe 853f 47cc 823f 8c50 6f3f aafe 743f
00000110: 442d 863f 820f 763f 3a7d 713f 8685 8b3f
00000120: b559 833f 62b8 8c3f 1f6a 873f 2ada 833f
00000130: 2945 863f ee99 643f f6e6 7a3f 08af 7d3f
00000140: 295d 703f bdb5 6c3f 9697 8a3f 9a9d 693f
00000150: 37b9 833f 9584 893f 0cfd 693f 77e8 8c3f
00000160: baa5 713f 1edb 833f 01ab 6f3f 8985 873f
00000170: f768 793f 1d8a 7f3f 5c8c 793f 656c 743f
00000180: c30e 673f 72e1 853f 9142 713f 87f0 813f
00000190: 76ac 8a3f cabc 703f 8cf8 743f cf1c 803f
000001a0: 7ef3 7c3f 1f53 723f 83fb 753f f86e 803f
000001b0: 0ebf 4d3f 8608 813f 5530 8a3f 55be 863f
000001c0: 0dbf 6e3f 6d40 703f be14 833f f2c6 853f
000001d0: cd30 5c3f 8863 6c3f e9db 843f cc10 813f
000001e0: f8dc 713f 0452 773f cd80 633f 1a68 793f
000001f0: 53c1 723f 95ce 783f 5d23 873f f759 6e3f
