mlruns/761854136110779325/60ca8dda9a7a472e8a2c65a7254040d7/artifacts/shallow_nn_pytorch.pth (torch, 43929 bytes, 6 tensors)

fc1.weight f4 [128, 8]
00000000: 200e fc3c 26b8 41bc c78c 51bd 7adf a5bf
00000010: 4c33 2f3f 8358 bc3c 20bc b7bd 5193 b9be
00000020: 8f65 07be 7b0e 213e 99a9 66bc 3f6e a83e
00000030: c8f1 a63e 9261 3d3e 658d 69bf c8e2 803e
00000040: 4492 01bd 7fa2 373b 52c1 5f3d 5d5f 303f
00000050: a5a0 c4bf 66e8 8cbe e8af 92be 01d5 1cbe
00000060: 24e3 7cbc 860b 873e 8bbf 813b 6ae0 663e
00000070: 16fe 1ebe fe46 b6bf 3269 36be 3f1a 15be
00000080: f85c 8f3e 8497 febd da2c 5bbe 43c2 583d
00000090: 195c 3e3e 77ea 8ebf 449a b0be a9db 563e
000000a0: 8e32 053e 2257 903e f2c4 70be 2aef ffbd
000000b0: a58a 913e 6728 9fbf dc5d 313e 2ddc b0be
000000c0: 45b9 1dbf 00ad 53b7 8c51 d73d c1b5 623e
000000d0: 9546 6e3e fac2 42bc a00d debe f524 2e3e
000000e0: 775f dabc c723 3a3d 7458 66be 3ba7 44bf
000000f0: f64e 233f 9d96 68bf 9e8c f0be f847 0bbf
00000100: 00df babc 3aea e9bb 2597 80bb 243c cd3e
00000110: 1388 bebe fa59 d7bf e669 b3bd aa93 31be
00000120: 4575 cfbd a9c8 283d 5e53 03bf d6e8 793e
00000130: 5ad7 21be 3960 6abe dc0c 0a3e 8a06 0ebd
00000140: 2bbc 893c 2d32 20be 6ac7 c4bd 49ab 50be
00000150: d11d 3ebe fee2 b3bf 9608 b0bd c0c8 093e
00000160: 72a0 1e3c 966b 23bc 41d3 02bd ae30 ed3e
00000170: a1b9 2cbf 4432 c8bf 5d4d 983e 420a 7ebe
00000180: a3bf e43c 3379 2e3f d6a4 4b3b 7dec 6dbe
00000190: 4c1c 68bd 6ddf 773b db16 133e 1e20 acba
000001a0: 07b7 2cbc 56a9 02bc 8182 c2ba 8162 f23e
000001b0: 3132 5ebf 9b40 cdbf 59e8 923e d3fe 1bbe
000001c0: a8f6 a63e e5b3 17bd 33e1 65be eb15 d4be
000001d0: 3b62 893e d41c a8bf 2e5e 1b3e 9693 0f3e
000001e0: 6c91 38bf c368 8fbb 3b03 63be cff5 50bd
000001f0: da11 b43e 9880 be3c 0983 41be d6f6 d5bd
00000200: 4002 e03c 7dfd 20bf 7f97 b83e ce3a 3f3e
00000210: a350 b4be 6ba5 ae3d 2927 823e 2d87 033e
00000220: 79e3 103d 41ad ea3d 80a7 083e 7390 fc3e
00000230: 77b7 46bf b1cf 3c3e d6d9 55bf c04a cbbe
00000240: 158e 483e 8edb dabe 4237 493e b6eb 4dbe
00000250: ecd7 fc3e a0e2 71be 80e7 97be 1d57 653e
00000260: a2ff 9abe 62f7 d63e f81f c6bc 56e8 933d
00000270: 02f4 babe 1181 333a 829c 0b3f 8c8d 1d3e
00000280: 8a72 fb3b d783 0e3d 4f60 903d 97d8 1ebe
00000290: d452 333b ee63 85bf bbf3 8abe 92ea fc3d
000002a0: 9215 9ebc 4e3b 3fbc d30d 63bd 8027 7cbf
000002b0: c2da c7be 7415 d3be 0e11 f0be 78d4 2dbf
000002c0: ac76 0abd ef83 b33b 9c27 2d3e 6170 193f
000002d0: 4159 4dbf 3504 7ebf ac13 18be 4aed a1be
000002e0: 9e55 bdbe 17ba d43e 0c89 cf3d de81 e03c
000002f0: e18c 903c 3448 be3d 1c88 203d 55b1 26bd
00000300: 6fc6 e93d 7795 db3c f745 87bb 1a92 75bf
00000310: 5c24 38be 285e fbbe 20b7 7f3e 3e90 3ebf
00000320: f898 0abf 1ee5 123b 16f2 533d c677 bebd
00000330: b351 9b3e 264a 7bbe 4c05 c4be ce0b 293e
00000340: d1ed 8c3e 8f51 a43e b9cc cabe 94ce a83e
00000350: 29a1 963e ecf9 debd db57 d8be ea5c 243e
00000360: 582b 3bbf c6e8 6b3d 47ec 4abe 0477 a0be
00000370: 954d 823d 6371 153e 9b16 c93e f4f0 17be
00000380: 0e2e b8be 8a54 a7be 453c 92be 1558 dfbd
00000390: e4b0 aabe f4b8 033d f766 9e3e ba57 883e
000003a0: 205f bcbd eb69 b3bc e77d febd a384 70bf
000003b0: db9d 72be 6fae dfbc a701 bebe c3d4 dfbe
000003c0: 941b 8a3e 1954 243f 2728 eb3d 50fc 523e
000003d0: a816 23be cd02 97be 8179 fc3c fe22 b83d
000003e0: d508 a53d b7a8 51bc 84f7 b4bc 36b8 06bf
000003f0: 2c03 803c 0c5f f0be 3d4d 013f 4f7c fe3d
0.030768454 -0.01182369 -0.051159646 -1.2958825 0.6843765 0.022991424 -0.08971429 -0.36245206
-0.13222335 0.1572818 -0.014078521 0.3289661 0.3260634 0.18494251 -0.91231376 0.2517302
-0.03163363 0.002802044 0.054627724 0.6889551 -1.5361525 -0.27521056 -0.2864983 -0.1531563
-0.015435014 0.2637598 0.0039596013 0.22546545 -0.15526614 -1.4240415 -0.17813566 -0.14560793
0.28000617 -0.12431243 -0.21403828 0.052919637 0.1858982 -1.1165303 -0.34492695 0.20982231
0.13007566 0.28191477 -0.23512629 -0.12496789 0.2842609 -1.2434205 0.17320961 -0.3454298
-0.61610824 -1.261686e-05 0.10513601 0.22139646 0.23269112 -0.011887306 -0.4336977 0.17006285
-0.02665685 0.045444276 -0.2249468 -0.76817673 0.6379236 -0.9085482 -0.46982282 -0.5440669
-0.022811413 -0.0071385177 -0.003924268 0.40084946 -0.3721319 -1.6824334 -0.08760433 -0.17341486
-0.10129789 0.04120699 -0.51299083 0.24405226 -0.15804806 -0.22888269 0.13481468 -0.034674205
0.016813358 -0.1564414 -0.09608348 -0.2037784 -0.18566062 -1.4053648 -0.08595388 0.13455486
0.009681808 -0.009974381 -0.03193975 0.46326202 -0.6747075 -1.564034 0.29746523 -0.248086
0.02792341 0.68153685 0.0031073592 -0.23234744 -0.05666761 0.003782238 0.14364187 -0.001313213
-0.010541684 -0.007974943 -0.0014839919 0.47340778 -0.86795336 -1.6035341 0.28692892 -0.15233926
0.3261006 -0.037036795 -0.22449188 -0.41422972 0.26832756 -1.3133798 0.15172645 0.14021143
-0.72096896 -0.0043765022 -0.22169201 -0.05101567 0.3516987 0.023254678 -0.18897642 -0.10447471
0.027344823 -0.6288679 0.36053082 0.18674776 -0.3521777 0.08527645 0.25420502 0.12844534
0.035373185 0.11458827 0.13345146 0.49328956 -0.77623695 0.18438603 -0.83535516 -0.39705467
0.1958545 -0.42745632 0.19649985 -0.20109448 0.49383485 -0.23621607 -0.29668808 0.22396512
-0.30273157 0.41985613 -0.024185166 0.07222049 -0.36514288 0.00068475405 0.54535687 0.15386027
0.007673566 0.0347937 0.070496194 -0.1551231 0.0027362602 -1.0421121 -0.27139077 0.12349428
-0.019297395 -0.011671854 -0.055433106 -0.9849777 -0.39034086 -0.41227305 -0.46888012 -0.67902327
-0.03380458 0.005478374 0.16909641 0.599371 -0.80214316 -0.9922517 -0.14851254 -0.3162635
-0.36979383 0.41548225 0.101335615 0.027405676 0.017645301 0.092911154 0.039192304 -0.04069646
0.11414801 0.026804669 -0.0041282135 -0.9592606 -0.1798262 -0.49095273 0.249722 -0.74438846
-0.5413966 0.0022414397 0.051744543 -0.09300189 0.3033577 -0.24540004 -0.3828529 0.1650841
0.2752519 0.32093474 -0.39609316 0.32970107 0.2941983 -0.108875126 -0.42254528 0.16051069
-0.7311301 0.057595037 -0.19816695 -0.31340802 0.06362454 0.14594035 0.3927506 -0.1483801
-0.35972637 -0.32681686 -0.28561607 -0.10905472 -0.33338082 0.032158807 0.3093793 0.2662943
-0.09197831 -0.021901092 -0.12426358 -0.9395239 -0.2369303 -0.027304856 -0.37110636 -0.43717012
0.26974165 0.6419082 0.11482268 0.20604062 -0.15926611 -0.29494324 0.030819656 0.08991049
0.08058325 -0.012796572 -0.02209068 -0.52624834 0.015626512 -0.46947515 0.5050848 0.12426054

fc1.bias f4 [128]
00000000: 4a0a 7bbe ed1e 66be 93f5 b8be fd62 09bf
00000010: a37c 6fbe b538 adbe 60d1 03bf f65b 94be
00000020: 195e dfbe f3be 9dbc a40b d4be a9f7 bcbe
00000030: 33ee 87bc 9cf2 d7be 96ad b3be cbe2 eabe
00000040: 4b23 40bf 7933 a5be b324 1dbf 25ca c2be
00000050: 58c9 3ebe c2cd 24bf a587 f4be c8b1 74be
00000060: a781 febe 0197 febd 1672 02bf a789 14bf
00000070: 9159 f6be e4f0 dbbe e0a9 20bf 5116 26bd
00000080: 9432 c4bd 0bb9 15bd 1a44 c2bc ff36 d1be
00000090: 4f94 adbe 4f3c 8abe 343a 46bf d3c4 55bd
000000a0: 04e4 14be b0be acbd 4534 c2be e5e7 113e
000000b0: c31d 7abd 2986 033e d71c c4be 5e84 8abc
000000c0: cd57 97be ae04 f7be 8a6d d1be 6f01 f9bd
000000d0: 2dfb 48be f467 11be 2073 19bf f690 12bf
000000e0: 43ba 26bf 9557 32bd a833 86be eddb a9be
000000f0: f930 f0be 304c ccbe 8d96 cabe 23b8 33be
00000100: e730 54bf 9117 2cbf e234 f0bd 69ee abbe
00000110: 137b 82be ab34 f2be cddf 163d 6238 5dbf
00000120: d5de c8bc 327a f5bd 7bbe 88be 23df 173e
00000130: 4e08 6cbd 63e5 df3c 3af8 5abe 1dc1 4abf
00000140: 8c27 32bf e0a5 04bf e827 a2be b2ba 51be
00000150: c536 5dbd c9d5 83be ef6d 32bc f079 7dbe
00000160: d698 aabe 9176 57be af8a 8dbe 7d60 7cbe
00000170: e4e5 8f3d a54f c53d 51e5 0dbf 5c4c c8bd
00000180: e2b0 91be 8bd6 b73d 5083 0cbf bcb6 3fbf
00000190: c787 e1be 28c1 1cbf 9294 8fbe 48b3 4bbe
000001a0: e73e 2dbe 4a34 a4be 635b 853d f2ce 07be
000001b0: d938 d8be bb55 043e 5279 37bf ef90 79be
000001c0: 5875 0ebe ca8a e7be d897 2dbd f36b 18bf
000001d0: b824 8cbe d292 b9be f9d2 dfbe e267 b3be
000001e0: 08d6 34bf a807 62be 4418 c3be 45f0 b2be
000001f0: 23be d8be 8815 e4be c757 1abf a3e5 94be
-0.24515644 -0.22472735 -0.36124858 -0.5366667 -0.23387389 -0.33832327 -0.51491356 -0.2897641
-0.43626478 -0.01925609 -0.4141513 -0.369077 -0.016593074 -0.42177284 -0.35093373 -0.45876154
-0.7505385 -0.32265833 -0.61384124 -0.3804485 -0.18631494 -0.6437646 -0.4775974 -0.23895943
-0.49708292 -0.124311455 -0.5095533 -0.5802254 -0.4811521 -0.42957222 -0.6275921 -0.040548626
-0.095799595 -0.036553424 -0.023714114 -0.4086227 -0.33902213 -0.26999137 -0.7743256 -0.05218966
-0.14540106 -0.08434808 -0.37930503 0.14248617 -0.06106354 0.12844147 -0.38303253 -0.01690882
-0.29559174 -0.48245758 -0.40903884 -0.121584766 -0.19627066 -0.14199811 -0.5994129 -0.5725244
-0.6512796 -0.043540556 -0.26211286 -0.33175603 -0.46912363 -0.39901876 -0.39567986 -0.17550711
-0.8288712 -0.6722346 -0.117288366 -0.3358033 -0.25484523 -0.47305807 0.036834527 -0.8641416
-0.024520317 -0.119861975 -0.26707825 0.14831214 -0.057625107 0.02733106 -0.21383753 -0.7920092
-0.69591594 -0.51815605 -0.3167107 -0.20481375 -0.05400731 -0.25749043 -0.010890468 -0.24753547
-0.3331973 -0.21041323 -0.2764487 -0.24646182 0.0702627 0.096343316 -0.55428034 -0.097801894
-0.28455263 0.08976468 -0.54887867 -0.74888206 -0.44048902 -0.61232233 -0.28043038 -0.19892609
-0.16918527 -0.32071143 0.06511571 -0.13262537 -0.4223087 0.12923329 -0.71669495 -0.24371694
-0.1391195 -0.45223075 -0.042381138 -0.5953972 -0.27371764 -0.36244828 -0.43715647 -0.35040194
-0.70639086 -0.22073233 -0.3810445 -0.34948936 -0.42332563 -0.44547677 -0.6029019 -0.2908145

fc2.weight f4 [64, 128]
00000000: 2af7 a5be 03ce 0f3d 0f9c 83be 5c73 50be
00000010: 38c0 cdbc d035 69bd 2e68 7abe b644 16be
00000020: 4e5d 2a3e 77d7 d1bc 199e 673e 1f68 fcbc
00000030: ce4d 44bd 55b0 dc3c da1e 673c f53d a53e
00000040: 0557 eebd 0bb9 e5bb a94b 00be 092c 163e
00000050: 73b7 033e 9f3d 2b3e 398b 0abe cc7f 1fbe
00000060: 6743 b23e f672 2bbe 2d80 d1bd 3a5d 103e
00000070: 41c8 213e c89d e6be 1197 363e 2d37 8c3e
00000080: c47a 6abf c92a 25be 8daf 0f3d 792f fe3d
00000090: 71b2 423d 8829 bc3b 5c17 b53d 5def 95be
000000a0: 27bc 74be 0a6b 39be b461 3abf c297 943d
000000b0: 3a93 1d3d 427e 24bd d496 01bf f527 263e
000000c0: 4d03 4a3e 6b4b 3e3e 0627 4cbf 3b10 91bd
000000d0: 5c38 09be aa2c 4cbf 2648 10bf 62ae 36bd
000000e0: 164f edbc 5c2b e9bc c721 fa3c db32 ba3d
000000f0: eaa2 b9be e832 513e 1995 5cbe e792 2dbd
00000100: bb45 7fbe 94fe bcbe c3bc 15bf 2269 1bbf
00000110: c7bf 963e e666 26bf 363b 513c be23 d43d
00000120: b76d 643e e0ec febb 4d5d e93d b2b4 94bd
00000130: ff33 35bd 1467 2a3d a9d0 2a3d 281b 9d3e
00000140: 31c8 813d 9ca8 3c3e 7738 ebbd 7bcb 2e3e
00000150: ffd5 803d 9ffa 00be 7d6f 0ebc f139 d23c
00000160: e2ce 303d b0ef 923d 98cd adbe 80e1 0abf
00000170: 4731 653d 9c61 f6bc b10e 3c3d ba2e 0cbd
00000180: b702 48bd eeb8 babb 44d5 55bd 8425 863e
00000190: acba 35bf 35d6 e43b 81f6 0d3e 8605 3c3d
000001a0: 29f9 e8be e5e1 013e da5a debd fe87 dd3c
000001b0: 6f5b 5cbf ca37 d73d f53a 813e 245c dd3c
000001c0: a64a 163e 3e07 ff3c bfda b33c b871 2ebc
000001d0: e8eb 0f3e f2cc 243e 5b0d a5bc e623 ca3d
000001e0: 8530 f63e 853c 95be e04b 0cbe fb30 543e
000001f0: bfaf 223e 3e82 103c 9bbd d63c 1878 213e
00000200: 9713 aabe eb51 be3d 7f0a 413e 3494 ddbe
00000210: 7bda bebe 2780 2bbe 4582 4d3d 5b69 433e
00000220: c6df 0ec0 8352 6bbe 451b b4bd 134b 8fbf
00000230: 3a4f b63d 9af2 c8bf 0c68 2dbf f988 a63c
00000240: 42d6 91bd b81d 7e3e 554a 83bd 67a6 cc3d
00000250: 68c0 9abe 03ba d63e 197f 24be a96f d73c
00000260: eaac 003e 8897 553c a019 98bd e6f3 913c
00000270: a1b2 13be b89b 323e 0660 b33d 11b0 a5be
00000280: cae8 f9bb 6cf9 bb3d 2f5c 1bbe b25d 28bd
00000290: e05f 77bf 33c5 2ebe 113f b0be 7953 983c
000002a0: 2545 ca3d d89d c43c 9997 293e 1e08 ba3d
000002b0: f547 7b3d 77c4 ac3c 28ad 443e f3b0 f13c
000002c0: 2da5 c6bf ca70 febd 0047 ac3d 41d6 a4be
000002d0: 3b51 a8be 7fd6 3c3d 0fe7 13be 0598 b6bc
000002e0: c742 f5bc 323c 403d 28a8 4ebd 50e4 7a3d
000002f0: 1c4e 073e 3798 18be 180c 8b3d 3fc3 4abf
00000300: 38b1 15bf fff7 063d 488a 8b3d a116 a43d
00000310: 3507 abbe cfca 373e 1509 c3bd c181 9e3c
00000320: 7bcd 853d bdc8 85be d3c8 643d 3761 333d
00000330: b7d9 b93d 8ad9 3c3e 2e95 8e3d 25e2 cebe
00000340: a4ca bfbf be3d bfbe a25e c6bf 7abb 123e
00000350: 83f8 49be ca1f 01bf c663 9bbf 284a 313e
00000360: 2703 96be ef22 113d c00c 083e 78cf 70bd
00000370: f4d6 9c3d f8a8 3ebe f97f 6e3d 9f25 263e
00000380: 1ac9 35bf 3424 c33d d17c 14bf 707d b0be
00000390: fa3c 003e 2a51 f8bd e487 3cbe 1d3a acbe
000003a0: b6ff b23d 6421 c63c ae75 a13d 8bb4 323e
000003b0: eeca 013e ea5b eb3c a2f8 10be e9ae f53d
000003c0: 6151 dbbe 5dff 963d 4caf 553d 6371 be3d
000003d0: 41f6 083f 3b27 bc3c f7c2 43bd cb58 bbbd
000003e0: 997d f8be b4a0 23be 6d2c 803d 90cd f6bf
000003f0: 5518 1dbe 26e8 e13e cb1b efbd d585 96bd
-0.32415134 0.035108577 -0.25705 -0.20356506 -0.025116071 -0.056936085 -0.24453804 -0.14674649
0.16637155 -0.025615437 0.22618903 -0.030811368 -0.047925763 0.02693955 0.014106477 0.32273832
-0.116376914 -0.007010584 -0.12528862 0.14665236 0.12862949 0.16722725 -0.13529672 -0.15576094
0.3481705 -0.16743073 -0.10229526 0.14098063 0.15799047 -0.45042253 0.17831065 0.27385846
-0.91593575 -0.16129602 0.035079528 0.124113984 0.047533456 0.0057422556 0.08842346 -0.29284182
-0.238999 -0.18107238 -0.72805333 0.07255508 0.038470484 -0.04015947 -0.5062077 0.1622618
0.19727822 0.18583457 -0.79747045 -0.07083174 -0.13400406 -0.7975565 -0.5636009 -0.0445999
-0.028968375 -0.028463058 0.030533684 0.09091731 -0.36257106 0.20429575 -0.21541251 -0.042376425
-0.24928944 -0.36912978 -0.5849115 -0.60707295 0.2944319 -0.6500076 0.012770465 0.1035838
0.22307478 -0.0077797025 0.11394749 -0.072610274 -0.04423904 0.04160221 0.0417029 0.3068478
0.063370116 0.18423694 -0.11485379 0.17069809 0.062908165 -0.12595604 -0.008693573 0.025662394
0.04316605 0.07174623 -0.33945918 -0.54250336 0.055955198 -0.03007584 0.04591245 -0.03422425
-0.048830714 -0.005698315 -0.05220534 0.26200497 -0.70987964 0.0069835433 0.13863565 0.045903705
-0.45502594 0.12683828 -0.10857172 0.027042385 -0.86077017 0.10508688 0.25240293 0.027021475
0.14676914 0.031131383 0.021954892 -0.01064723 0.14054835 0.16093805 -0.02014797 0.09870128
0.48083892 -0.29147735 -0.13700819 0.2072181 0.15887354 0.008820115 0.026213458 0.15768468
-0.3321807 0.09292968 0.1885166 -0.43277133 -0.37276062 -0.16748105 0.050173063 0.19083159
-2.232408 -0.22980694 -0.08794264 -1.1194786 0.0890183 -1.5699036 -0.6773689 0.020328986
-0.071209446 0.24816024 -0.06410662 0.09992676 -0.3022492 0.4193879 -0.16064109 0.02629836
0.12565961 0.013036616 -0.074267626 0.017816495 -0.1442361 0.17442214 0.087585494 -0.3236089
-0.0076266276 0.09178433 -0.15171884 -0.04110498 -0.9663067 -0.17067413 -0.34423116 0.01859449
0.098764695 0.024001047 0.16561736 0.090835795 0.06134792 0.021089775 0.19206679 0.029503321
-1.5519158 -0.124238566 0.0841198 -0.32194713 -0.32874474 0.046102997 -0.1444361 -0.022289285
-0.029939068 0.046932407 -0.050453335 0.061252892 0.1321339 -0.14901815 0.06789416 -0.7920417
-0.5847354 0.03295135 0.068134844 0.080121286 -0.33403936 0.17948459 -0.09523217 0.01934898
0.06533333 -0.26129714 0.055855583 0.043793883 0.09074729 0.1844236 0.069620475 -0.4040691
-1.4983716 -0.37351793 -1.549763 0.14329329 -0.19723706 -0.5043913 -1.2139823 0.17313445
-0.2929928 0.035433706 0.13286114 -0.058791608 0.076581866 -0.18619144 0.058227513 0.16225289
-0.7100998 0.095283896 -0.58002955 -0.344707 0.1252326 -0.12124856 -0.18411213 -0.33638087
0.08740179 0.024185844 0.07883774 0.17451684 0.12675068 0.028730351 -0.14157346 0.11996252
-0.42835525 0.073729254 0.05216913 0.092989706 0.53500754 0.022967925 -0.047793355 -0.09147795
-0.48533323 -0.15979272 0.062584735 -1.9281483 -0.15341313 0.44122428 -0.11675223 -0.07349745

fc2.bias f4 [64]
00000000: 3c08 633e ab09 223e 0d69 e43e 0a7e 993e
00000010: 77db 0b3e 4aee 4b3e 0ea1 6c3e 4f28 e33d
00000020: 488f 6b3e a40a bc3d 114a 723e 3a75 603e
00000030: 21a9 39bf a966 9b3e 1272 363e b20e 35bd
00000040: aed8 853e e310 2dbd f5c5 db3e f2cd ed3e
00000050: e83e 9a3d e533 123e be76 c93d 4073 c0bd
00000060: 5ac7 ab3d c65f 5abe 3118 28bd f8e0 a13e
00000070: 4306 3c3e 0797 fc3d 0d1b 3dbd bfa8 cc3d
00000080: 31cc 223e 99a2 2d3e 4384 163f 24b1 053f
00000090: 135f 853e 5c11 c73e 0b6b 4f3e e736 1bbd
000000a0: 3edd 093c aed1 863e 5065 11be 9754 883e
000000b0: 293e fc3e 22d7 c23e b121 18be 430b be3e
000000c0: 88c9 f63e fdbf 0ebe c0ff 2f3e 4d20 e13e
000000d0: d4ef 63bd ff28 043f b1de 2e3d 8335 9a3d
000000e0: 4ede 1d3e 9fed fb3e 5415 a73e f152 c43e
000000f0: 5f6f 613d bc8a 623e c800 c53b 65b7 50bd
0.2217111 0.15824 0.44611397 0.29978973 0.13657938 0.19915119 0.23108312 0.11091673
0.23003876 0.09181717 0.23661067 0.21919718 -0.72523695 0.3035176 0.17816952 -0.044203468
0.26141876 -0.042252433 0.42924467 0.46446186 0.0753153 0.14277609 0.098371014 -0.09396982
0.08387633 -0.21325597 -0.041038696 0.3161695 0.18361764 0.12333494 -0.046168376 0.09993123
0.15898205 0.16956557 0.58795565 0.5222342 0.26049098 0.38880432 0.20255677 -0.037894156
0.008414565 0.26331848 -0.14198804 0.26627037 0.49266174 0.38054758 -0.14856602 0.37117967
0.4820063 -0.13940425 0.17187405 0.43969956 -0.05564864 0.51625055 0.042692844 0.07529738
0.15416834 0.49204728 0.3263346 0.3834453 0.055037852 0.22123235 0.006012056 -0.05095615

fc3.weight f4 [12, 64]
00000000: 85fe f43d de75 a73d 5b26 aebd 6b46 f93d
00000010: f60a 1e3e bc8b b03d 7694 083e 340d 97bd
00000020: 7e69 123e 7a3c 00be 2ee9 863d f5a4 2e3c
00000030: 8bb1 99be 06c2 8abe 61fe c43d f28a c63c
00000040: 9add 0ebc 9962 bfbc 0230 8b3e f0a2 99bd
00000050: a35a bc3d bff7 af3d d6a1 a6bd 88e1 7bbc
00000060: 05f2 d9bd 9657 b23e 97cd b03e c092 d0be
00000070: ae42 adbe 36fa 8b3d 03e0 95bd ca56 68be
00000080: 557d 573e 8873 a13e e926 3e3e 04a7 3ebe
00000090: f12d b7bd 5f5a 07bf 85c1 633d 277f 173e
000000a0: 68c9 25bf 709f 04bc 18be 873d 7182 d73c
000000b0: 8746 5f3e 40bd 4a3e d5fd 5a3e 52b0 253e
000000c0: 6931 713e 427d 9cbd 7404 68be ad14 99be
000000d0: f178 68bd d663 843e a6d6 613d a785 febd
000000e0: e855 91be 7a8e c3bd 3ba8 3b3e f397 e43e
000000f0: 42de 3a3e 968d 533c 27ca cabe 8ce0 233d
00000100: 5a2b 76be ff66 133e 477f 863e 66f3 62bf
00000110: 7166 2e3e 3236 40bc fba3 0abf 7c26 85bc
00000120: d2ce e6bd 0628 f4bd e15f 58be b3f9 cf3e
00000130: 944b c1be 5a4b f23e 1947 8ebe 0353 473d
00000140: 5856 adbd 322a 27bf a122 8f3e a134 803c
00000150: 1ebc 123d 9314 b7be df34 4bbf de4a 9abe
00000160: 9014 93be a3e1 923d efb9 623e 09c7 9a3e
00000170: 23b9 d0be 5afa 88be 6a58 1e3e 8403 d0be
00000180: cb46 b43e 1358 3cbe 2084 82bd e46e 983d
00000190: ad93 e1be 6f91 75be 47d9 723f d81e c43d
000001a0: f5e0 7e3e 81e2 1b3f 24b9 c5bd ed1d 2abc
000001b0: c33c 153e db1a 92be 7fea f53d 31ef bd3d
000001c0: 7bab d53d 2d6a fabd a8b0 6b3b 7918 e3be
000001d0: a993 893c 27c4 883e 039f b9bd 007a 153c
000001e0: a8d5 a0be b1c1 7bbf ace3 90be 06cc 813e
000001f0: 916c 3e3e 9552 f3bd ecd9 56bd 9b4c 743d
00000200: 8a2f e13d a2a5 cdba 939a d9be eaf2 8c3c
00000210: c7b6 d23c 638d 8dbd 3550 c53c 4004 cdbe
00000220: 7432 35bd 19c2 b8bf 9be1 64bf ebdb 04bf
00000230: 1ff2 85bf 60bc 613e 95c5 2dbe 2880 363d
00000240: 384a 52be 4753 a2be 6984 a73e 35d8 643e
00000250: 8934 23be c0a5 b4bb 9f38 1d3d 22a6 c13d
00000260: ed66 a23e 96ed e5be a85b 5ebd e79d 413e
00000270: 3997 81bf 2d81 d63d 1635 32bf 7b4e 90be
00000280: 01a7 16bf 616c 9a3d 31f8 463e 401e 1fbf
00000290: f67e 5c3d d20a 413e be14 083e 0ce7 fabe
000002a0: be2b ba3e fdc4 1d3f 89a8 94be 7ca6 2ebf
000002b0: eb19 833e 5922 873e 5c4a 84be b0ec ed3d
000002c0: 54e8 613c a315 b2bd 49e0 c1be 6846 78bd
000002d0: 1bfa 99bc 3cb1 ab3e 4fee 22bf 1fd3 18bf
000002e0: 8688 703d 6438 513e db00 293e f339 8dbf
000002f0: b3c0 60be 6bad 6f3e 0a35 0ebf ed3c 51bd
00000300: 606b c03d e8d6 413e fea8 0d3e d6e7 433c
00000310: 6578 763e 3549 083e ada8 bfbd 2601 c83b
00000320: a4d8 9abc 684c bbbe 61c2 50bf 5307 993e
00000330: 1387 153d 2cf2 e53e 5fa8 76bf 1001 4cbd
00000340: 3b6e 643c 290f f3be 381f 2c3f d692 323e
00000350: c6a8 263e fe8a f43d 2482 b23e 707e d0be
00000360: cea6 0fbf 0d10 263c dc6c 3fbe 6486 553d
00000370: 6b42 833f bd29 f73c 108a 583e 8ee5 2cbf
00000380: d2b6 553e 1c9a 5dbd 78b9 5bbf 35c3 25bf
00000390: a0fe a4be 2a56 b43d 68f2 993d f72b 093e
000003a0: db19 a73d c53e 4abd 0c09 7ebc 4b03 0e3e
000003b0: 5c9b 09bf f003 963e c47e 9a3d d98e 753e
000003c0: 3dc8 0ebf 01c3 8dbd 355e 1f3e 29ec fa3c
000003d0: f839 bdbc f63b 1abe b564 893e 2616 81be
000003e0: 8ec5 edbd 8364 dabe b0c3 3cbe 8092 a1be
000003f0: 273f ac3e 5f42 6c3d 80b9 973e ea1c 8d3e
0.11962608 0.08176778 -0.085034095 0.12171634 0.15433869 0.08620402 0.13337883 -0.07375565
0.14298055 -0.1252307 0.06587444 0.010659446 -0.30018267 -0.27101153 0.096188314 0.024236176
-0.008719826 -0.023362445 0.27185065 -0.07501781 0.09196975 0.08592176 -0.081363365 -0.015373595
-0.10641865 0.34832448 0.34531853 -0.4073696 -0.33839935 0.06834833 -0.073181175 -0.22689357
0.21043904 0.31533456 0.1856953 -0.18618399 -0.089443095 -0.5287227 0.055604476 0.14794599
-0.64760447 -0.0080946535 0.066280544 0.026307316 0.21804248 0.19798756 0.21385892 0.16180542
0.23554005 -0.076410785 -0.22657949 -0.29898587 -0.056755964 0.2585742 0.055136345 -0.12427836
-0.28385854 -0.095486596 0.18325894 0.44647178 0.18248847 0.012912175 -0.39607355 0.040009066
-0.24039975 0.14394759 0.2626898 -0.88652647 0.17031266 -0.011731671 -0.54156464 -0.016253702
-0.112699166 -0.11921696 -0.21130325 0.40620193 -0.37752974 0.47323114 -0.27788618 0.04866315
-0.084637344 -0.6529876 0.27956107 0.015650095 0.035823934 -0.35757884 -0.7937755 -0.30135244
-0.28726625 0.07171943 0.2214124 0.30229977 -0.40766248 -0.26753503 0.15463415 -0.40627682
0.3521026 -0.18392973 -0.06372857 0.07443026 -0.4405798 -0.2398126 0.9486279 0.095761955
0.24890502 0.6089249 -0.096544534 -0.010383111 0.1457396 -0.28536114 0.12007617 0.09274138
0.10433098 -0.12227283 0.003596345 -0.4435461 0.016794043 0.26712152 -0.09063532 0.009123325
-0.31413007 -0.98342425 -0.282987 0.2535097 0.18596102 -0.11880986 -0.05245392 0.05964337
0.109953955 -0.0015689621 -0.42500743 0.017205674 0.02572192 -0.06911733 0.024086097 -0.40042305
-0.04423757 -1.4434234 -0.89406747 -0.5189807 -1.0464514 0.22044516 -0.16969903 0.044555813
-0.20536125 -0.3170416 0.32718208 0.22348101 -0.1593801 -0.005512923 0.038384076 0.094555154
0.3171915 -0.44907826 -0.05428663 0.18907891 -1.0124274 0.10473857 -0.6961225 -0.28184876
-0.5884858 0.07540203 0.19430615 -0.6215553 0.053832017 0.18851784 0.13289163 -0.490044
0.36361498 0.61628705 -0.29034832 -0.68222785 0.2560571 0.26393393 -0.25837982 0.1161741
0.0137883015 -0.08695533 -0.37866428 -0.06061402 -0.018796017 0.33533657 -0.6364488 -0.59697145
0.05872395 0.20431668 0.16504233 -1.103331 -0.21948509 0.23405997 -0.5554968 -0.051083494
0.0939548 0.18929636 0.13833997 0.011957129 0.24069364 0.13309176 -0.09358344 0.0061036525
-0.01890213 -0.3658173 -0.815466 0.298884 0.03650577 0.44911325 -0.96350664 -0.0498057
0.013942297 -0.47472504 0.67235136 0.17438826 0.1627532 0.11940573 0.34864914 -0.40721464
-0.561139 0.010135663 -0.1869387 0.052130118 1.0254644 0.03017127 0.21146417 -0.6753777
0.20870522 -0.05410205 -0.8582988 -0.6475099 -0.32225513 0.08805497 0.075169384 0.13395678
0.081592284 -0.049376268 -0.015505087 0.13868444 -0.53752685 0.2929988 0.0754371 0.23980273
-0.5577429 -0.0692196 0.15563281 0.030630188 -0.02309893 -0.15061936 0.26834646 -0.2521221
-0.11609946 -0.4265481 -0.18434024 -0.31557083 0.3364193 0.057680484 0.29633713 0.27561122

fc3.bias f4 [12]
00000000: e48c 133f 8e16 c2bd 0dce c6be 7248 4ebc
00000010: 3d72 f5bd 84cb 8bbe 4796 443c 1c58 233d
00000020: 48c0 033d 907a fbbe 357a a83e 9631 b7be
0.5763686 -0.09476958 -0.3882908 -0.0125905145 -0.1198468 -0.27303708 0.01199872 0.03987895
0.032165796 -0.49116945 0.32905737 -0.3578002
