deep_nn_pytorch.pth (torch, 199248 bytes, 22 tensors)

fc1.weight f4 [256, 8]
000000 08 4b 90 3d b0 57 f7 3e 8a 57 1a be 1d 49 df 3d
       0.07045561 0.48309088 -0.15072456 0.10902617
000010 58 e7 c6 3e b0 19 01 bf d7 3f e4 bd aa ad a0 be
       0.38848376 -0.5042982 -0.11144989 -0.31382495
000020 49 cd 91 bd bc eb 7f 3e b7 09 b2 bd 4e 48 b3 3e
       -0.07119233 0.2499227 -0.08693259 0.35016102
000030 93 c7 d3 3d a0 b9 8e 3e b5 12 fa 3d 43 b1 ab be
       0.103408 0.27875996 0.12210599 -0.33533677
000040 24 c8 f1 3d f5 a0 86 3d ec 5f fe 3d fd e3 a3 3d
       0.11805752 0.06573669 0.124206394 0.0800247
000050 b1 d2 ce 3e 81 2d 2e 3e 76 5a e4 bd e0 8a 88 be
       0.4039512 0.17009546 -0.111500666 -0.26668453
000060 db 1f b7 3e df 8a eb bc 20 57 10 be 07 32 2c 3e
       0.3576649 -0.028752742 -0.14095736 0.16815959
000070 79 fa 9b 3d e9 84 2f be c9 4d cc be 98 ce 2e 3e
       0.07616133 -0.17140545 -0.39903095 0.17070997
000080 d9 93 5a be ea 7b d5 bd 84 6c b4 3e 59 96 93 3e
       -0.21345462 -0.10424025 0.3523904 0.28825644
000090 b9 bf e9 3d c6 6a 13 3e c8 16 38 bd 6c 51 bd be
       0.11413521 0.143962 -0.0449436 -0.36976182
0000a0 32 41 13 be 73 fb 37 be ed 2d d8 3d eb 91 2d 3e
       -0.14380339 -0.17967014 0.10555635 0.16950195
0000b0 a7 2d 49 be 18 6a e8 3c fd 6b 3d 3e b6 7c 1c 3e
       -0.19646321 0.028370902 0.18498226 0.15281948
0000c0 31 42 12 bc 46 c2 65 bb 77 37 cd 3c 8a 26 86 be
       -0.008926914 -0.0035058423 0.025050862 -0.26201278
0000d0 aa e0 d3 3d 11 b7 2c bf 1d b9 d8 3d b3 da 78 be
       0.10345586 -0.6746684 0.105821826 -0.24302177
0000e0 e7 0e 0c bf 0d 9b b2 3d 62 75 d1 bd 1c be b5 3c
       -0.5471024 0.0872098 -0.10227467 0.022185378
0000f0 07 17 22 3d b2 57 ec bc 0a 8e 10 3d da 50 8c 3c
       0.03957274 -0.02885041 0.03529171 0.017128397
000100 18 d5 aa 3d ef 7b f6 bd b0 6c fb be db c8 92 3e
       0.08341426 -0.12035357 -0.4910636 0.28668866
000110 1d 24 62 be 73 9c 65 be 34 b5 05 be 61 83 69 be
       -0.22084089 -0.22422962 -0.13057405 -0.22804023
000120 d4 f8 19 bf ab f9 ac bb e6 c7 2e be dd 9a 18 bd
       -0.60145307 -0.005278786 -0.17068443 -0.037257064
000130 d7 bd 8c 3e ae ea 2e 3b 88 c1 a1 be 4b 7a e2 3d
       0.27488586 0.0026690173 -0.31592965 0.11058482
000140 31 36 15 bc 8d 5d f8 bb e6 05 21 3d fd 10 8e bc
       -0.0091071585 -0.0075795115 0.039312266 -0.017342085
000150 65 21 b0 3d 84 94 59 bf c0 44 fe bd f9 13 1b 3e
       0.086001195 -0.8499224 -0.12415457 0.15144338
000160 a4 29 75 3a 97 ee d0 be 28 e3 a8 3b 08 72 c0 3d
       0.0009352213 -0.4080703 0.0051540323 0.0939675
000170 5f c0 02 3e 9d 16 ec 3c d8 76 a5 be 41 24 61 3e
       0.12768696 0.028819377 -0.32317233 0.21986486
000180 1a f4 23 bb ec 1f dc 38 5d 6f 07 bd c7 1e e0 be
       -0.0025017322 0.000104963634 -0.03306519 -0.4377348
000190 55 53 fc bc 8d 7f 0e 3e 79 a3 8b be 5e ba f5 be
       -0.030801455 0.13915844 -0.27273157 -0.4799375
0001a0 a5 a2 80 bb 78 2d fd bc 79 d3 bb 3e 32 ba 08 3e
       -0.0039256387 -0.03090547 0.36684778 0.13352278
0001b0 9c 76 b9 be 13 9f 10 3b 64 8c 6b be 3b 3c cb bc
       -0.36223304 0.0022067472 -0.23002774 -0.024808994
0001c0 36 45 b4 be e1 4f 56 3c 70 38 5f be 36 ef d0 bd
       -0.35209054 0.013080568 -0.21798873 -0.10201876
0001d0 9d 74 22 3e d8 a5 01 3d 35 08 00 be 25 fe 4b 3e
       0.15864797 0.0316523 -0.1250313 0.19921167
0001e0 48 73 a6 be c5 35 ad bd fa 32 8f 3d 0d 06 8d 3c
       -0.32509828 -0.08457521 0.06992145 0.0172148
0001f0 fb 00 91 3e 82 6f e6 be a6 49 06 3c b2 79 56 be
       0.2832106 -0.4500695 0.00819627 -0.2094486
000200 c7 33 cf bd 41 e5 2c 3e e5 96 49 3e 0b 22 96 3e
       -0.101172976 0.16884328 0.19686468 0.29322848
000210 88 b1 6f be e5 26 20 3e b5 9c 63 bc 9e 80 81 be
       -0.23407567 0.15639837 -0.013892342 -0.2529344
000220 8a de cf 3d bf 9c 88 3d e8 3c a3 be c0 69 34 3e
       0.10149868 0.06670522 -0.31882405 0.17618465
000230 25 17 1e be 16 ee 1b 3d 96 18 05 3e fb 05 ff bc
       -0.15438516 0.038068853 0.1299766 -0.031130781
000240 0c 4e 3f 3c ad 8e 74 3c 4e a1 39 3d e8 cf 06 bf
       0.011676323 0.014926595 0.045319848 -0.5266099
000250 02 ee d9 3d 4c 76 1a bf b5 d6 40 3d 3e 13 b7 bd
       0.106410995 -0.60336757 0.04707976 -0.08939217
000260 c0 76 06 3e 18 e8 35 3e 5a e3 32 3e 4b 19 e9 bd
       0.13131237 0.17764318 0.1746954 -0.113817774
000270 3e 4a 9c be 4b 6c 85 3d 37 b2 47 be a5 d4 10 3d
       -0.30525392 0.06514796 -0.19501577 0.035359044
000280 bc 42 e6 3c 8a af d7 3c c7 74 49 be ca 83 19 bf
       0.028107993 0.02632882 -0.19673453 -0.5996672
000290 b0 f9 56 bd 4a e6 16 be c2 ce f7 bd 12 70 d6 be
       -0.052484214 -0.14736286 -0.12099983 -0.41882378
0002a0 87 0e 43 3c f0 f3 27 3d ed f1 91 3b 38 f2 d5 3c
       0.011905319 0.04100412 0.0044538886 0.026116475
0002b0 ad 07 de 3e 65 02 ab 3c bc d3 ac be 8d 97 45 be
       0.4336523 0.020875165 -0.3375529 -0.19296093
0002c0 88 38 f0 3c dc fe 82 3e 47 27 6e be f2 ff 20 3e
       0.029323831 0.25585067 -0.2325717 0.15722635
0002d0 38 c9 9c 3e 72 2c ea 3d 2e 61 64 3e 35 b4 42 be
       0.30622268 0.114342585 0.22302696 -0.19014056
0002e0 61 49 8c be 60 39 85 b7 55 c2 af 3e 80 cd 50 bd
       -0.27399734 -1.5881553e-05 0.3432795 -0.05097723
0002f0 21 e3 1c bd 4a 3b c4 3d 95 6d 3a 3d 9f 5b a3 3d
       -0.038302545 0.09581621 0.04551466 0.0797646
000300 b2 89 37 be 0f 2b 77 be 69 fe c1 3e c6 00 f3 bd
       -0.1792362 -0.2413752 0.37889412 -0.11865382
000310 7b 2c 34 3e e0 73 ba be 37 70 67 3d 6f 2a 5f 3e
       0.17595093 -0.3641653 0.0565035 0.21793531
000320 88 10 50 3c f8 4f 0d 3d 96 d6 f9 3d 5f 5e 12 bd
       0.012699254 0.034500092 0.12199132 -0.03573453
000330 0f 4e ab be 7d c2 96 3d 77 03 0a bf 07 67 20 3e
       -0.3345799 0.073613144 -0.53911537 0.15664302
000340 4a cb 71 bc a5 63 8e 3e a0 15 2b be 2d 37 0a be
       -0.014757941 0.27810398 -0.16707468 -0.1349761
000350 b0 73 ef be 58 84 69 3e 8b 0a b1 be 15 3a 1d be
       -0.4676795 0.22804391 -0.34578356 -0.15354188
000360 93 eb f2 bb f0 e3 40 3c 58 63 83 bd 0f 07 fb be
       -0.0074133365 0.011773095 -0.06415433 -0.49028823
000370 4f ed fd 3e 9e 0f eb be a5 c1 16 be 38 33 b0 be
       0.49595115 -0.45910352 -0.14722307 -0.34414077
000380 88 f4 56 bb ac ad c6 3b 06 d7 56 bc e0 87 ed 3d
       -0.003279956 0.006063184 -0.013112789 0.11598182
000390 26 71 28 be e7 46 6e bf 21 ac 2f 3e f7 73 38 be
       -0.16449413 -0.9307694 0.17155506 -0.18012987
0003a0 57 2f 92 3e 3b a0 2b 3e a5 52 15 bd 62 bb 5c 3e
       0.28551742 0.16760342 -0.03645577 0.21555856
0003b0 2e 2a 78 3e 38 26 66 3e 98 8c ca be 81 7c e3 bd
       0.2423484 0.22475517 -0.3956039 -0.111077316
0003c0 fc 1b 2a bf bd c7 fb bb dc 45 1c bd 0e 20 9c 3d
       -0.6644895 -0.007683723 -0.03815256 0.076233014
0003d0 0f 5e 98 be d2 da af 3d 0a 88 98 3d f6 a1 18 3e
       -0.2975926 0.085866585 0.074478224 0.14905533
0003e0 7c 19 0d 3f df d7 5c be cf ba 27 be 33 d5 45 3d
       0.5511701 -0.21566723 -0.16379856 0.048299026
0003f0 6b 42 fd 3d ab bb de 3d a4 2c 54 bd ae 68 19 3e
       0.12366184 0.108756386 -0.051800385 0.14981338

fc1.bias f4 [256]
000000 99 3d dd 3c 49 58 2a 3b d3 aa 89 3e 58 a6 2e 3e
       0.027006911 0.0025992563 0.2688814 0.17055643
000010 47 9d e0 bc 34 eb a9 3e 44 8d d2 3d b5 b6 0d be
       -0.027418746 0.33187258 0.102808505 -0.13839228
000020 2a 1c d3 bd f2 f2 86 3c 0c f8 ab bd 0f d2 c6 bc
       -0.10308106 0.016473267 -0.083969206 -0.024270086
000030 95 fe cd 3d e2 02 01 3e 85 7f a9 3e 7f aa 8c be
       0.10058323 0.12598756 0.33105102 -0.27473828
000040 a5 85 6a 3e 68 28 43 be f6 1a b7 be 79 16 88 3e
       0.22902544 -0.19058383 -0.35762757 0.26579645
000050 e6 f0 10 be c9 e7 37 3e 76 47 8b 3e 84 3a 01 bd
       -0.14154395 0.17959513 0.27202958 -0.031549945
000060 8e 3e 8f 3e 61 9c a0 3e fa f1 aa 3e 91 6b 50 be
       0.27977413 0.31369308 0.33387738 -0.20353533
000070 df 7e 0c 3e 54 73 1f 3d ad 0b 25 3d 17 7d 83 3d
       0.13720272 0.038928345 0.040294338 0.06420343
000080 13 cb a4 3e b7 91 65 3d 7d df ab be 08 d8 28 3d
       0.32186183 0.056047168 -0.33568946 0.04122165
000090 bf bd 27 3d 9c fd be 3d 7a d7 7c bb 0a b0 26 be
       0.04095244 0.09325716 -0.0038580582 -0.16278091
0000a0 c2 74 e8 bd 96 57 aa be 02 af ea bc 02 70 76 be
       -0.11350395 -0.33269948 -0.028647903 -0.24066165
0000b0 c3 15 41 be 07 7e 8c be 01 45 2c be 64 4e 75 bd
       -0.18855958 -0.274399 -0.16823198 -0.059889212
0000c0 f9 74 7f 3e ce d4 e8 bc d1 22 64 be 26 2d 9c be
       0.24946965 -0.028421786 -0.22278906 -0.30503196
0000d0 d2 6b 81 be a6 04 82 be 4c b6 2d be 01 6d c5 3d
       -0.25277573 -0.2539417 -0.16964072 0.096399315
0000e0 80 6e 9c 3d c8 31 d9 3b f9 cc 6a 3e 67 8b 2d be
       0.07638264 0.006628249 0.22929753 -0.16947709
0000f0 6a 37 41 bd d0 27 b0 bd 02 76 8c 3d 83 be 6c be
       -0.047171988 -0.08601344 0.06858446 -0.2311955
000100 5e 1a 24 3e da f5 b3 be 5d 6a 83 3e d5 9c 94 be
       0.16025683 -0.35148507 0.25667086 -0.29025903
000110 3f 14 de 3d 67 42 54 3e 2b 80 91 be 7b 6d c9 bc
       0.108437054 0.20728455 -0.28418097 -0.024588337
000120 27 f2 94 be b0 d8 90 be 07 e1 82 bc 27 dc 98 3d
       -0.29090998 -0.2829032 -0.015976442 0.07463866
000130 61 63 c8 bd 47 cf 61 3e da 02 81 3e e5 7a a0 be
       -0.0978458 0.22051726 0.25197488 -0.3134376
000140 56 ef 8e 3e 7d 3c 85 3e 44 e6 8f 3e 9b 6a 8c bd
       0.27916974 0.2602271 0.28105366 -0.06856271
000150 d8 a7 43 3e ff a2 03 3e f4 53 9b 3e 1c c5 93 3d
       0.19106996 0.12855147 0.3033749 0.0721533
000160 fe 1f 3a be 72 97 3b 3e 9d fb 53 3e 5f 2e 0e 3e
       -0.18176267 0.1831949 0.20701452 0.13884877
000170 a3 eb d2 3d 6f 33 3b 3e de 38 5f 3e 16 f3 8f bd
       0.102988504 0.18281339 0.21799037 -0.07028787
000180 24 fd 0b be 6e d1 cd bd 4b f0 8c 3e 92 c4 f8 bc
       -0.13670784 -0.10049711 0.2752708 -0.03036717
000190 e4 75 a8 be e2 ad aa bd 28 fc 45 3e ad 84 88 3e
       -0.32902443 -0.08333947 0.19334471 0.26663724
0001a0 d3 1e 3a 3e cf 25 93 3e 14 43 68 3e 5c ba a4 be
       0.18175821 0.28739783 0.22681838 -0.3217343
0001b0 f2 fd 43 3e b5 09 ab 3e 95 ad 92 3c c3 8d 81 bd
       0.19139841 0.33405843 0.017905036 -0.06325867
0001c0 b2 89 04 3e 64 bb ec bd de 74 63 3e 53 14 5c be
       0.12943152 -0.115591794 0.2221255 -0.21492128
0001d0 09 66 25 be 2e 06 45 3e 11 49 90 3e 59 63 4a be
       -0.16152205 0.19240639 0.28180745 -0.1976446
0001e0 e5 e2 80 be 9f 86 a4 3d e6 44 cf bd c0 d5 4c be
       -0.25173107 0.080334894 -0.10120563 -0.20003414
0001f0 36 a3 8f 3e f1 98 4a be 9b 4e 83 be d9 31 1e 3e
       0.28054208 -0.19784905 -0.2564591 0.15448703
000200 cf 5c e2 bd 28 eb 03 be 7a 2f 10 3d b9 db 4e be
       -0.11052858 -0.12882674 0.035201527 -0.20201005
000210 90 fe 6d be 9c ca 44 be 5f 44 99 3e dd 1f 41 3e
       -0.23241639 -0.19217914 0.29934976 0.18859811
000220 4b 58 3e be 2d 12 ab bd 24 47 c7 bc 9e ae 72 bb
       -0.18588369 -0.08353076 -0.024325915 -0.003703035
000230 52 dd 22 3d f2 84 32 be d5 8a 8d 3d f0 d7 a7 be
       0.03976185 -0.17433527 0.06911246 -0.32781935
000240 77 79 c1 be 5b 51 fa bc 5f a0 8c be 33 8a a6 be
       -0.37787983 -0.030556371 -0.27466103 -0.32527313
000250 bc 74 89 bd aa a3 f0 bd 7f 4e 2b 3e 8f 86 c2 bc
       -0.067117184 -0.117499664 0.16729163 -0.023745803
000260 72 43 18 be 46 9c 7b 3e ba 92 44 3a 56 6d 58 bb
       -0.14869478 0.24571332 0.00074986706 -0.0033024154
000270 1d 93 35 be 62 36 a4 3e f1 70 91 3e e0 9b 3a 3e
       -0.177319 0.3207274 0.2840648 0.18223524
000280 6c 04 ab bd cc 2b 8a be 9f 89 46 3e e8 01 3a 3e
       -0.08350453 -0.2698654 0.19388436 0.1816479
000290 3d 15 42 be df b6 94 be ad a6 1c be f1 2b 99 be
       -0.18953414 -0.2904577 -0.15297957 -0.29916337
0002a0 10 d2 94 3e c0 12 31 3e 9b ac a0 3e 40 3d 2f be
       0.29066515 0.17292309 0.31381688 -0.17113209
0002b0 74 93 84 bd 15 51 60 bd e1 99 be 3d 23 5e 79 3d
       -0.06473437 -0.054764826 0.09306694 0.06088079
0002c0 e1 06 69 3e 7f e5 a9 3e 46 54 21 bd 54 04 9a 3b
       0.2275653 0.33182904 -0.03938701 0.004700223
0002d0 4e 40 2e 3e 36 49 8b be f3 8b 4f 3e 4f c6 fe 3d
       0.17016718 -0.27204293 0.2026823 0.12440168
0002e0 48 ce 71 3e 25 3c 82 3e d3 54 85 be a4 bf 82 be
       0.23613846 0.25436512 -0.26041278 -0.25536835
0002f0 b2 a1 8c be 13 02 c9 bd 9a 64 44 3b bb 3f 87 bd
       -0.27467114 -0.09814849 0.002996719 -0.066039525
000300 aa e2 77 3d ac 42 f4 bc 93 dd b9 bd 4d 64 98 be
       0.060518898 -0.029816948 -0.09075465 -0.29764023
000310 6f 51 2f 3e 5c 6d ae 3e 38 e6 21 3e c7 fb be bd
       0.17120908 0.3406781 0.15810478 -0.093253665
000320 94 78 55 3e 14 2f 45 3e a8 19 47 3e df 5e 23 be
       0.20846778 0.1925624 0.19443381 -0.15954159
000330 0a f8 81 3e ef bb 79 3b 88 3e 0b 3e 74 e7 7d be
       0.2538455 0.0038106402 0.13598073 -0.24795324
000340 27 33 f7 3d 64 36 b4 be 03 00 b4 3e ae 79 bb bc
       0.120703034 -0.35197747 0.3515626 -0.02288517
000350 ba 1f ac 3e 3f 40 a4 3d 23 33 6b be 96 a7 fb 3d
       0.33617955 0.080200665 -0.22968726 0.12287824
000360 a8 93 74 be d0 a6 4c 3e 0b e1 a1 be 64 4c 33 3e
       -0.23884451 0.19985509 -0.31617007 0.1750961
000370 22 21 40 3e f2 89 85 be 9b ed fc b9 bd ab 1a bc
       0.18762639 -0.26081806 -0.00048242215 -0.00944036
000380 8c bb 68 3e 9f 8c fc 3d 6f 8c 93 be ff a5 9e be
       0.22727793 0.12331509 -0.2881808 -0.3098602
000390 b7 b2 e1 bd cd ee 2d be a5 1c e7 3d 4d b6 29 be
       -0.11020415 -0.16985627 0.112847604 -0.16573448
0003a0 86 8a 50 be c7 d4 36 be e1 b2 32 3d 94 63 d9 bd
       -0.20365342 -0.17854606 0.043627623 -0.10614696
0003b0 05 04 73 be 8b ed 8f be 32 d3 83 3e 40 d6 40 3c
       -0.23732002 -0.28110918 0.25747067 0.011769831
0003c0 98 32 8b 3e 01 95 c4 3d 02 19 8e bc db 4d 44 bd
       0.27187037 0.09598733 -0.017345909 -0.04792581
0003d0 42 39 c5 bd 1f c7 fe bd b3 65 30 3e c0 71 11 be
       -0.09630062 -0.12440323 0.17226295 -0.14203548
0003e0 84 ab 46 3e 96 f0 59 be 65 a9 cc 3d b2 5f ac 3e
       0.19401366 -0.21283183 0.09993247 0.3366676
0003f0 8e e0 16 be f7 c7 e2 3d 91 a6 b7 3c 05 23 77 be
       -0.14734098 0.110732965 0.022418292 -0.24134453

bn1.weight f4 [256]
000000 a6 98 6c 3f a9 99 47 3f 59 98 4b 3f d7 d3 62 3f
       0.92420423 0.7796884 0.7952934 0.8860449
000010 f8 7f 6a 3f b3 01 54 3f b5 b6 8f 3f 3a fc 65 3f
       0.91601515 0.8281509 1.1227633 0.8983799
000020 db 80 76 3f 91 a6 6f 3f e7 ca a6 3f 31 f4 61 3f
       0.9629037 0.93613535 1.3030671 0.8826323
000030 f3 d6 95 3f cf 22 82 3f 47 ab 60 3f dd be 69 3f
       1.1706222 1.0166873 0.8776135 0.9130686
000040 f9 0b 6b 3f d1 2a 50 3f 42 31 8c 3f 8f 1d 5c 3f
       0.91815144 0.8131533 1.0952532 0.859826
000050 af 96 84 3f ee 65 84 3f 0c ca 4d 3f 88 7e 63 3f
       1.0358485 1.0343606 0.80386424 0.88864946
000060 73 52 6b 3f d9 ff 69 3f 76 c8 4f 3f ea 64 8a 3f
       0.9192268 0.9140602 0.81165254 1.0812047
000070 37 5a ad 3f cd 72 4b 3f 9c e9 6d 3f 5a 3f 57 3f
       1.3543156 0.7947205 0.92934585 0.8408104
000080 57 e6 84 3f ec f8 82 3f 8d 14 76 3f 45 a7 60 3f
       1.0382794 1.0232215 0.9612511 0.87755233
000090 ee 78 85 3f 0f d4 9b 3f 09 93 72 3f 6d 35 64 3f
       1.042753 1.217409 0.9475561 0.8914402
0000a0 9c 26 6d 3f e4 3b 7d 3f 3d 9c 72 3f 51 ae 5b 3f
       0.9263704 0.9891951 0.9476965 0.8581286
0000b0 f2 1a 65 3f b7 82 55 3f 6e 37 4c 3f c7 8b 83 3f
       0.8949424 0.8340258 0.7977208 1.0277032
0000c0 02 64 55 3f 29 8f 6e 3f f2 49 5c 3f 02 50 5d 3f
       0.83355725 0.93187195 0.8605033 0.8645021
0000d0 33 fa 56 3f d4 1d 75 3f 39 c8 5c 3f 91 35 82 3f
       0.83975524 0.9574864 0.86243016 1.0172597
0000e0 52 bc 72 3f 56 aa 61 3f be 9d b0 3f 41 94 65 3f
       0.94818604 0.88150537 1.3798139 0.8967934
0000f0 3a e7 94 3f 99 e0 53 3f ff 0c 5e 3f b5 3c 5b 3f
       1.1633065 0.82764584 0.8673858 0.85639507
000100 8f 50 39 3f 80 f9 76 3f 4c da 73 3f 75 a1 78 3f
       0.7238855 0.96474457 0.9525497 0.97121364
000110 57 cf 70 3f cb 1a 81 3f f8 df 55 3f 32 a4 7a 3f
       0.94066375 1.0086302 0.83544874 0.9790679
000120 a1 cb 6b 3f a1 cf 4b 3f 3b 4a 66 3f ca e2 63 3f
       0.9210759 0.7961369 0.89957017 0.8901793
000130 63 a9 92 3f 48 6d 58 3f f8 b8 4c 3f 15 de 53 3f
       1.1457943 0.8454175 0.7996974 0.82760745
000140 9d 2b 80 3f cd 25 4e 3f 9d 9f 5b 3f fd e4 5e 3f
       1.001331 0.8052643 0.85790426 0.8706816
000150 f4 6f 98 3f 27 78 93 3f b9 9c 79 3f 64 5b 62 3f
       1.1909165 1.1521043 0.97504765 0.884207
000160 2f 75 66 3f d0 82 8b 3f 1d da 83 3f 51 49 6f 3f
       0.9002256 1.0899296 1.0300938 0.93471247
000170 7a af 84 3f ae 3a 55 3f 95 2e 80 3f 82 ee 78 3f
       1.0366051 0.83292663 1.0014216 0.97238934
000180 95 28 8c 3f 27 0f 71 3f 29 a9 7e 3f ec 7b 6a 3f
       1.0949885 0.94163746 0.9947687 0.9159534
000190 0f 06 87 3f 27 e9 7c 3f 57 cd 86 3f 66 2e 8d 3f
       1.0548724 0.9879326 1.0531415 1.1029785
0001a0 d6 da 7b 3f b1 bc 32 3f 67 96 7e 3f 12 c8 80 3f
       0.9838079 0.6981917 0.99448246 1.0061057
0001b0 c8 39 75 3f b1 26 6a 3f 79 b0 89 3f 78 1f 77 3f
       0.9579129 0.9146529 1.075698 0.9653239
0001c0 4e b4 5f 3f 02 a8 4f 3f 3a 69 71 3f 64 ab 74 3f
       0.873845 0.81115735 0.9430119 0.9557402
0001d0 61 22 5c 3f fe 34 97 3f 54 20 6a 3f 7a a6 54 3f
       0.8598996 1.1813047 0.9145558 0.83066523
0001e0 41 e1 60 3f 0e ea 71 3f b7 1c 91 3f 87 fb 93 3f
       0.8784371 0.94497764 1.1336888 1.1561135
0001f0 26 46 6a 3f f3 13 57 3f c8 14 81 3f 66 f7 8e 3f
       0.9151329 0.84014815 1.0084467 1.116925
000200 e5 80 74 3f 49 61 66 3f 04 39 ac 3f 8e a8 5b 3f
       0.9550918 0.89992195 1.34549 0.8580407
000210 42 18 79 3f 26 68 6f 3f 93 24 6c 3f dc 1d 77 3f
       0.9730264 0.9351829 0.9224331 0.96529937
000220 73 64 55 3f 80 a2 6c 3f 79 dd 77 3f db 83 67 3f
       0.833564 0.92435455 0.96822315 0.9043557
000230 87 95 8c 3f de 5d 86 3f df 57 6a 3f 21 5b 73 3f
       1.0983132 1.0497396 0.9154033 0.95060927
000240 d0 0b 9d 3f b7 ec 5c 3f 84 d5 89 3f 6a 12 56 3f
       1.226923 0.862987 1.0768285 0.8362185
000250 44 d2 90 3f 2e a2 61 3f 40 0f 88 3f 79 ac 6e 3f
       1.1314168 0.8813809 1.0629654 0.9323192
000260 7f a8 62 3f 38 13 85 3f 9b 71 77 3f 76 cb 5e 3f
       0.88538355 1.039649 0.96657723 0.87029207
000270 40 2c a2 3f 29 70 7a 3f 76 b8 65 3f a6 0c 79 3f
       1.2669754 0.9782739 0.8973459 0.97284925
000280 f1 2f 9a 3f 10 c9 56 3f e7 89 87 3f e4 01 6b 3f
       1.204588 0.8390055 1.058896 0.9179976
000290 00 0d a5 3f e7 b5 7f 3f 5f b9 62 3f 8b da 53 3f
       1.2894592 0.99886936 0.88564104 0.82755345
0002a0 4e c3 79 3f 10 26 5f 3f 2a 51 4a 3f b9 a4 82 3f
       0.97563636 0.87167454 0.79030097 1.0206519
0002b0 81 c1 a7 3f 1d ee 74 3f 4f a0 54 3f 8e 76 60 3f
       1.3105928 0.9567583 0.8305711 0.876809
0002c0 37 cb 76 3f 26 df 96 3f b2 54 7c 3f 19 12 9a 3f
       0.9640383 1.178685 0.98566735 1.2036773
0002d0 b8 9b a4 3f 1c 35 7c 3f a8 66 64 3f 43 68 7a 3f
       1.2860022 0.9851854 0.8921914 0.9781534
0002e0 fb 5a 65 3f 58 1b 5c 3f f8 9e a8 3f 41 62 77 3f
       0.8959195 0.85979223 1.3173513 0.966343
0002f0 ac e0 89 3f 01 33 93 3f fb 33 5d 3f 28 c7 7b 3f
       1.077169 1.149994 0.8640744 0.98350763
000300 d8 cf 51 3f 82 73 76 3f 2c f2 6a 3f d9 74 82 3f
       0.8195777 0.9627 0.91775775 1.0191909
000310 6c 18 73 3f 02 14 90 3f c7 3c 62 3f 4f ad 64 3f
       0.9495914 1.1256106 0.8837399 0.8932695
000320 e6 87 78 3f 0f 6a 66 3f c1 a0 5a 3f 11 49 39 3f
       0.97082365 0.9000558 0.8540154 0.72377115
000330 7f 87 3d 3f ad d4 60 3f 80 bd 90 3f ab 5a 80 3f
       0.74034876 0.8782452 1.1307831 1.002767
000340 8d 9a 5e 3f 7b ca 6a 3f 01 b6 6e 3f 65 e6 76 3f
       0.86954576 0.9171521 0.93246466 0.96445304
000350 2c 7f 89 3f ea 78 85 3f 54 16 60 3f 50 0c 51 3f
       1.0741935 1.0427525 0.8753407 0.8165941
000360 f0 bc 68 3f a7 57 8d 3f 88 f6 7a 3f f2 df 81 3f
       0.90913296 1.1042374 0.98032427 1.0146468
000370 92 7d 7b 3f 34 eb 6b 3f 21 06 6b 3f ca b1 9b 3f
       0.9823848 0.92155766 0.91806227 1.2163632
000380 e0 80 5a 3f 84 6f 6e 3f 49 00 8e 3f 4b e1 99 3f
       0.853529 0.9313891 1.1093837 1.2021879
000390 fb 0c 5d 3f b1 a8 7e 3f e5 74 62 3f b0 01 6e 3f
       0.8634793 0.9947615 0.88459617 0.92971325
0003a0 34 41 56 3f fd 5e 80 3f 3f 4b 98 3f f2 c5 67 3f
       0.8369324 1.0028988 1.1897963 0.90536416
0003b0 0a 46 70 3f 74 b7 a3 3f c5 b6 94 3f 6e 08 65 3f
       0.9385687 1.279036 1.1618277 0.8946599
0003c0 eb c0 85 3f 9c 19 6b 3f 33 fb a8 3f 6f 48 69 3f
       1.0449499 0.9183595 1.320166 0.9112615
0003d0 1c ec 75 3f c6 40 71 3f 9d 82 81 3f 66 60 55 3f
       0.960634 0.9423946 1.0117985 0.8335022
0003e0 a4 17 7a 3f 20 e0 52 3f d1 bd 82 3f b5 b8 6a 3f
       0.9769232 0.8237324 1.0214177 0.9168809
0003f0 bf bb 7c 3f 58 e7 5d 3f 91 54 91 3f 3a d0 5e 3f
       0.9872398 0.8668113 1.1353933 0.8703648

bn1.bias f4 [256]
000000 ec 1f 51 be 61 75 a7 bd b5 60 12 bd aa d4 25 be
       -0.20422333 -0.08176685 -0.03573676 -0.16194406
000010 69 73 a0 bd 64 f1 09 be 6d d1 3d be 6b 7f cf be
       -0.07834513 -0.1347099 -0.18536921 -0.405269
000020 f0 f9 39 be a2 96 ad be ed 61 39 be e5 5a bd bd
       -0.1816175 -0.33903986 -0.18103762 -0.092458524
000030 bc 38 97 be c9 d6 e8 bd 79 59 1b be e7 42 20 be
       -0.29535472 -0.11369092 -0.1517085 -0.15650521
000040 c6 3f 0b be 8b 8b 47 be 31 d5 2f be c1 7f 12 be
       -0.13598546 -0.19486825 -0.1717117 -0.14306547
000050 7d fb f5 bd e4 27 97 bd c8 2a c0 bd 34 ff 87 be
       -0.12010858 -0.073806554 -0.0938316 -0.26561892
000060 75 b2 05 be cb ac fc bd 0a 8e a2 bd 66 51 ed bd
       -0.13056357 -0.12337645 -0.07937248 -0.11587791
000070 02 25 8b be ff 8e 5d be 17 d2 b6 be db 81 83 be
       -0.27176672 -0.2163658 -0.3570716 -0.2568501
000080 e3 58 19 be 62 7a 77 bd 7a 80 6c be af 22 76 be
       -0.14975314 -0.060419448 -0.23095885 -0.24036668
000090 d2 51 78 3d ff 1a 85 bc cc 4e 5e be 3f 1e 50 be
       0.060624905 -0.016248224 -0.21709746 -0.20324038
0000a0 98 ff 88 be d6 af 31 be cc 23 33 be 5d 76 48 3c
       -0.26757503 -0.17352232 -0.17494124 0.012235251
0000b0 d8 1b 3e be df 2e 98 be d7 bc e2 bd a8 9f ac 3d
       -0.18565309 -0.2972326 -0.110711746 0.084288895
0000c0 f7 7d 55 bd 86 67 13 be a4 fa 7b be b1 16 1a 3d
       -0.052122083 -0.1439496 -0.2460733 0.037619296
0000d0 d2 0d 07 be 07 3a 55 be 16 d8 87 be db 5a 77 bd
       -0.13188866 -0.20822917 -0.26532048 -0.06038938
0000e0 45 8d 41 be 38 b4 29 be 55 f0 5f be 35 56 63 bc
       -0.18901546 -0.16572654 -0.21869023 -0.013875534
0000f0 53 f9 1d be 70 7b b3 bd bf 59 51 be 9b 1f 50 be
       -0.15427141 -0.08763778 -0.20444392 -0.20324557
000100 32 ac f6 3d e4 3d f5 bd 55 03 99 bd 76 ff 4d be
       0.120445624 -0.11974695 -0.07471339 -0.20116982
000110 d9 27 14 be 9d f4 60 be 01 1e 1f be 4b 01 be bd
       -0.14468326 -0.21968313 -0.1553879 -0.0927759
000120 54 30 ca be 20 5c 59 be 4b 0d 16 be 15 9b 75 be
       -0.39489996 -0.21226549 -0.14653508 -0.2398494
000130 3f d1 4f be 23 59 57 be 17 d5 f6 bd 2e 96 5f be
       -0.20294665 -0.21030097 -0.120523624 -0.21834633
000140 10 d3 e4 3c 3e d6 ba 3d 1c b5 42 3d 8f 3a d7 3d
       0.027932674 0.09122895 0.047536 0.10509216
000150 27 0d 93 be f7 89 44 be 26 42 08 be 66 98 1a be
       -0.28720972 -0.19193254 -0.13306484 -0.15097198
000160 e3 5b 64 be 96 3d ab bd 52 bd fd bd 6b f3 7f bd
       -0.22300677 -0.08361356 -0.123896256 -0.062488
000170 5e 64 7b bc f6 99 77 bb 70 5a d8 bc 93 c4 0a be
       -0.015343754 -0.0037780977 -0.026410311 -0.1355155
000180 08 b5 a4 be ab a3 29 be ed a6 7d be 22 22 cf bc
       -0.32169366 -0.1656634 -0.24770708 -0.02528483
000190 df 5f 15 be ec 26 ff bd 90 e6 7b 3d a5 68 50 be
       -0.14587353 -0.12458596 0.06149918 -0.20352419
0001a0 b9 6a 0a be 7e 68 33 be 06 9b 36 be bd 5c 6f be
       -0.13517274 -0.1752033 -0.17832574 -0.2337522
0001b0 23 7f c1 bd 32 1f 2c be 40 72 1e be 31 f2 51 be
       -0.094480775 -0.16808775 -0.1547327 -0.20502545
0001c0 50 bc d0 bd d9 c9 a2 bd 3c 39 43 bd f6 dd d3 bd
       -0.10192168 -0.07948656 -0.047662005 -0.1034507
0001d0 c6 09 4d be e4 27 5f be 10 dd 57 be b3 30 3c bd
       -0.2002326 -0.21792561 -0.21080422 -0.04594488
0001e0 f3 2c 1d be 15 59 b7 bd 94 6c 63 be a2 31 6c be
       -0.15349178 -0.08952538 -0.22209388 -0.23065808
0001f0 f1 91 ec bd bc e2 b4 bd b1 77 26 bd a8 47 52 be
       -0.115512736 -0.08832309 -0.04064149 -0.20535147
000200 92 f7 83 bd ec 2d 25 bd 4b e7 78 be 2b 4a 6e be
       -0.06443705 -0.040326998 -0.24306981 -0.2327048
000210 33 d4 09 be c5 58 69 be 7a 1c ff bd d6 02 d6 3d
       -0.13459854 -0.22787769 -0.12456603 0.1044976
000220 7b bc ae be 97 d2 11 be 6b 6e bb bc 79 a4 20 be
       -0.34128174 -0.1424049 -0.0228798 -0.15687741
000230 90 cb 2e be e6 9c 3c be c2 2e 49 be af dc 91 be
       -0.1706984 -0.18419227 -0.19646743 -0.2848868
000240 5c 49 0e be f2 b7 2d be ca 1d f6 bd 41 5b 1f 3d
       -0.13895172 -0.16964701 -0.120174006 0.038905386
000250 ad 46 87 be f0 76 66 be b9 d7 33 be 54 07 9c bd
       -0.2642111 -0.22506309 -0.1756276 -0.07618585
000260 c1 bf 86 be 5c 7d 24 be 40 01 2a be 33 f1 66 be
       -0.26318172 -0.16063446 -0.1660204 -0.22552948
000270 91 92 53 be 77 c0 a9 3c d8 16 80 3e 6f 2f 9c bd
       -0.2066138 0.020721657 0.25017428 -0.07626235
000280 c0 92 43 be 6b 38 0d be 37 52 33 bd 38 47 02 be
       -0.1909895 -0.13791053 -0.043779578 -0.1272248
000290 96 79 62 be a2 24 ef bd 29 66 28 be cf 08 76 bd
       -0.22116694 -0.11676909 -0.16445221 -0.060066994
0002a0 3a eb 5c bd db 10 86 be bb b8 ad bd 35 07 56 be
       -0.053935267 -0.26184735 -0.084825 -0.20901187
0002b0 45 39 55 be 7c 98 65 be 3c 71 2f be dd 78 37 be
       -0.20822628 -0.2242145 -0.17133039 -0.179172
0002c0 87 13 14 be 62 5a 43 be 7f bb d8 bd 64 76 22 be
       -0.14460574 -0.19077447 -0.10582637 -0.15865475
0002d0 d3 21 20 be 4e c2 62 be 15 17 d8 bd ca d2 4b bd
       -0.15637903 -0.22144434 -0.105512775 -0.04976157
0002e0 76 87 9d be b3 7a 67 be b0 57 8e be 1b 52 4e bd
       -0.3076741 -0.226054 -0.27801275 -0.05037127
0002f0 71 58 1c bd 2b 1e 4e be 97 56 4f be db 14 00 be
       -0.03817028 -0.20128696 -0.20247875 -0.12507956
000300 16 dc 39 be 9c 7f 32 be d3 4e 82 be 60 d8 f7 bd
       -0.18150362 -0.17431492 -0.25450763 -0.12101817
000310 29 3e 47 be 25 f6 38 be d2 f8 e2 bd 71 c2 c4 be
       -0.19457306 -0.18062647 -0.11082615 -0.38429597
000320 9a c5 86 be 1e b5 5f bd f1 c2 2a bd bd a5 87 be
       -0.26322633 -0.054616086 -0.041689817 -0.26493636
000330 96 10 a9 bd 6d 2d 48 be 60 fb 82 be 12 e8 2a bd
       -0.08255117 -0.19548579 -0.2558241 -0.041725226
000340 a9 f8 94 be 0b 3d 49 be fb ca 94 be 71 2f ec bd
       -0.29095963 -0.19652192 -0.29061112 -0.11532486
000350 be 94 5b be 44 15 fb bd 37 9c 0d be a0 d8 aa bd
       -0.2144346 -0.122599155 -0.13829122 -0.08342099
000360 f2 99 cd bc 9f 3d 42 be 89 f6 12 bd 00 c9 d2 be
       -0.02509782 -0.18968819 -0.035879645 -0.41168976
000370 08 6f de bd f5 67 d0 bd 7e 2f 52 be 02 b7 57 be
       -0.10861021 -0.10176078 -0.2052593 -0.21065906
000380 3a 0a c7 bd 0c 11 27 bd 24 92 54 be 05 ee 5f be
       -0.097187474 -0.04078774 -0.20758873 -0.21868141
000390 3b 81 9f 3d e6 de 4c be 1e 38 43 be 61 7b 66 bd
       0.07788321 -0.20006904 -0.19064376 -0.056270007
0003a0 88 99 68 be 3c 10 ff bd 89 04 46 be b4 30 23 be
       -0.22714818 -0.12454268 -0.19337668 -0.15936548
0003b0 e4 2c b7 bd 7b a7 46 be 4a 40 45 be 4a 57 68 bd
       -0.08944109 -0.19399826 -0.19262806 -0.05672387
0003c0 0d 50 09 be d9 9a 53 be 94 1f 75 be 4d 73 12 be
       -0.13409443 -0.20664538 -0.23937827 -0.14301796
0003d0 9a 1e f5 bd 41 0e ab be 9f 17 48 be da 39 79 be
       -0.119687274 -0.33409312 -0.1954026 -0.24338475
0003e0 ef 9a bd bd 98 0e 22 be b2 f2 9b bd af 6b 4d be
       -0.09258067 -0.1582588 -0.0761465 -0.2006061
0003f0 2e 5b 9f bd 50 98 85 bd fb ae 38 be 61 6a 85 be
       -0.07781063 -0.06523192 -0.180355 -0.26057723

bn1.running_mean f4 [256]
000000 77 43 08 3d da 5c 18 bd 83 4c 8f 3e d4 a9 3d 3e
       0.033267464 -0.037197925 0.2798806 0.18521816
000010 b7 f2 8d bc 2f 80 a3 3e b0 39 1e 3e b6 53 37 be
       -0.01732765 0.31933734 0.15451694 -0.17903027
000020 bb 5a eb bd 36 f1 b3 bc 66 84 35 bd 4a 9c 5b bc
       -0.11491915 -0.021965604 -0.044315718 -0.013403961
000030 b4 97 0c 3e 6c 02 1c 3e c3 89 97 3e dc 6d 83 be
       0.13729745 0.15235299 0.2959729 -0.25669754
000040 96 f1 5f 3e 52 14 61 be 2b 55 99 be 1b fa 90 3e
       0.21869501 -0.21980408 -0.2994779 0.28315815
000050 6a cb cb bd 3e 37 43 3e d2 a6 71 3e fc 64 f9 bc
       -0.099509075 0.19064042 0.23598793 -0.03044366
000060 4e 1e a2 3e 6a a9 a7 3e ab 13 a5 3e 0d 73 18 be
       0.31663746 0.3274644 0.32241568 -0.14887638
000070 d6 df 35 3e 92 f9 18 3d 1b 37 39 bc ed 81 a3 3d
       0.17761168 0.037347384 -0.011304642 0.07983766
000080 92 45 be 3e 22 ad 07 3e a7 75 b6 be f6 02 28 3d
       0.37162453 0.13249639 -0.35636637 0.04101845
000090 a6 cd 82 3d 98 bb a8 3d d4 1b 14 3d 14 78 14 be
       0.063868806 0.08238906 0.03615935 -0.14498931
0000a0 dc 6d a2 bd 48 d0 a8 be 29 be ed bc e6 a4 8a be
       -0.0793111 -0.32971406 -0.02902134 -0.27078933
0000b0 de 44 32 be 7a a4 8c be a8 da 3b be 5a e7 a0 bd
       -0.17409083 -0.27469236 -0.1834513 -0.07856627
0000c0 27 ce 5a 3e 24 da 9a bd bb 83 8c be 18 55 98 be
       0.21367703 -0.07561138 -0.27444252 -0.2975242
0000d0 48 14 88 be 41 8c 82 be 86 13 0a be ef ac e2 3d
       -0.26577973 -0.2549763 -0.1348401 0.11068141
0000e0 f4 ea ee 3d 3f 59 bd 3c 12 ca 82 3e 58 b8 50 be
       0.116659075 0.023113845 0.25544792 -0.20382822
0000f0 3d 5d 7c bc 7d 76 53 bd 04 ba 63 3d ca 97 8a be
       -0.015403089 -0.05162667 0.05559732 -0.2706893
000100 55 c7 15 3e 97 d7 a2 be 8e f1 8c 3e ef a8 a0 be
       0.1462682 -0.31805107 0.27528042 -0.31378886
000110 fd a4 0b 3e 22 28 64 3e 44 76 94 be aa 97 9d bc
       0.13637157 0.22280934 -0.2899648 -0.019237358
000120 cb 8d af be 2b 10 99 be c4 75 3e bd 0f 04 0c 3e
       -0.34287867 -0.29895148 -0.04649903 0.13673423
000130 f6 82 4a bd bb cd 23 3e 59 8c 84 3e 64 2b c4 be
       -0.0494413 0.15996449 0.25888327 -0.38314354
000140 f1 b8 90 3e 2b da 8a 3e 22 95 8b 3e df e1 81 bd
       0.282661 0.27119574 0.27262217 -0.063419096
000150 12 38 62 3e d0 de 1a 3e f2 5c a0 3e 0c 73 85 3d
       0.22091702 0.15124059 0.31320912 0.06516084
000160 a0 30 40 be f2 fe 62 3e 6b b3 69 3e cb 6d 17 3e
       -0.18768549 0.22167566 0.22822349 0.14787976
000170 d0 99 d4 3d 41 b1 14 3e e3 c7 5e 3e 26 10 54 bd
       0.103809 0.14520742 0.21755938 -0.051773213
000180 64 c8 a5 bd b6 30 14 be 30 12 a0 3e b0 0d 46 bd
       -0.08094862 -0.14471707 0.31263876 -0.048352897
000190 14 2e 99 be d7 e1 97 bd 81 69 38 3e 94 85 93 3e
       -0.29917967 -0.074161224 0.18008997 0.2881285
0001a0 4c ee 64 3e b8 e4 8f 3e 44 55 81 3e 7c dc 97 be
       0.22356528 0.28104186 0.25260365 -0.29660404
0001b0 db a0 7e 3e c6 56 9e 3e 5b 9c 91 3d 58 76 f9 ba
       0.24866049 0.30925578 0.071099006 -0.0019032462
0001c0 5b cf 0f 3e 62 0e 1a be 5c a8 54 3e 51 7a 15 be
       0.14043944 -0.15044549 0.20767349 -0.14597441
0001d0 01 8a 1f be f2 54 79 3e 8c 6f 84 3e cc 74 4a be
       -0.15579988 0.2434881 0.25866354 -0.19771117
0001e0 bf bc 78 be 78 f3 96 3d 70 bb d2 bd 8e 6a 11 be
       -0.24290751 0.07370657 -0.10289657 -0.14200804
0001f0 a4 a6 8f 3e 86 87 3e be 50 de 86 be a7 3a 45 3e
       0.28056824 -0.18606386 -0.26341486 0.19260655
000200 fa fd aa bd 17 95 d1 bd 20 a9 9b 3d 9c fe 32 be
       -0.083492234 -0.10233515 0.076006174 -0.17479938
000210 33 17 30 be 4d 7c 3b be e8 a8 99 3e d5 b5 3c 3e
       -0.1719635 -0.18309136 0.30011678 0.18428738
000220 fd 7f 5e be 18 00 9e bd c4 68 a0 bc 12 9d e7 bb
       -0.21728511 -0.07714862 -0.019581206 -0.007068285
000230 84 4d b0 3d d9 7b e8 bd 94 82 8d 3d b0 4e a4 be
       0.08608535 -0.11351747 0.069096714 -0.32091284
000240 47 fe ad be 76 5b e3 bc b5 9a 71 be 07 ba a1 be
       -0.3398306 -0.027753573 -0.23594172 -0.3158724
000250 31 2b 48 bd 73 4e c6 bd 3b 17 66 3e b5 99 df bc
       -0.048869316 -0.09682932 0.22469799 -0.027294973
000260 03 3a ca bd 7c d8 78 3e 28 f0 b0 3c 52 a2 78 bd
       -0.09874346 0.24301332 0.02159889 -0.060701676
000270 4e 3c 0a be 9d a2 a3 3e 9c 55 8c 3e d7 b7 49 3e
       -0.13499567 0.31960002 0.27409065 0.19699036
000280 fd 8a 49 bd a5 c4 85 be 8b 54 54 3e 1b 6e 3a 3e
       -0.049204815 -0.2612659 0.20735376 0.18206064
000290 a6 b6 07 be 03 d2 86 be f3 52 c2 bd fa fd 84 be
       -0.13253269 -0.263321 -0.094884776 -0.2597502
0002a0 e6 bc 9f 3e 61 3f 65 3e 5c ec 8f 3e 26 7c 02 be
       0.31198806 0.22387458 0.28110015 -0.12742671
0002b0 87 e7 2d bd 58 4f 3e bd dd d2 46 3d 1e b9 a4 3d
       -0.04245713 -0.046462387 0.04854094 0.08043121
0002c0 f0 21 6a 3e 38 94 c1 3e d5 61 ca 3c 94 36 3d 3d
       0.22864509 0.37808394 0.024704853 0.046194628
0002d0 03 21 29 3e dc cf 58 be 7b 39 54 3e e8 13 fe 3d
       0.16516499 -0.21173042 0.20725052 0.124061406
0002e0 dd 95 82 3e 78 ee 8f 3e b4 bc 77 be cd 78 76 be
       0.25504962 0.28111625 -0.24193078 -0.2406952
0002f0 e4 59 80 be 4a 8a 8c bd b4 26 07 bd 15 d9 1e bd
       -0.2506858 -0.06862314 -0.032995895 -0.038781244
000300 c8 71 f3 3c ce 13 78 bc aa d8 f8 bd 75 d9 8f be
       0.029717341 -0.015141441 -0.121507004 -0.28095594
000310 53 65 5f 3e 13 79 ca 3e 50 e2 1f 3e 2c c4 1b be
       0.21815996 0.39545497 0.15613675 -0.15211552
000320 f3 1e 6b 3e b7 39 52 3e 4c 9b 45 3e d5 ef 0e be
       0.22961025 0.20529829 0.19297522 -0.13958676
000330 2f 72 46 3e 06 1a 61 3c 61 15 32 3e 29 e9 64 be
       0.19379495 0.013739115 0.17390968 -0.22354569
000340 95 26 18 3e d3 c4 b4 be b3 61 bf 3e d6 73 32 3c
       0.14858468 -0.35306415 0.37379226 0.010891875
000350 fd ac c6 3e 16 09 25 3e ac a5 6e be 13 4a d1 3d
       0.38803855 0.16116747 -0.23305386 0.10219207
000360 9e 10 60 be ce 1f 68 3e a2 ad a5 be 23 ac 04 3e
       -0.21881339 0.22668383 -0.32359034 0.1295629
000370 e9 61 48 3e 7a 4a 86 be 80 a4 41 3d fc 3e 24 3d
       0.195686 -0.26228696 0.04727602 0.04009913
000380 be 05 47 3e 4e 4d dd 3d 24 f5 6a be 12 a9 87 be
       0.19435784 0.1080576 -0.22945076 -0.26496178
000390 bb 90 f9 bd c9 12 2e be 66 bf ef 3d 80 af 45 be
       -0.12185808 -0.16999353 0.11706428 -0.19305229
0003a0 98 66 2d be 7b c2 f9 bd df ec b2 3d f9 63 e0 bd
       -0.16933668 -0.12195297 0.08736586 -0.10956568
0003b0 d6 d3 3f be ec 5f 8c be 56 7f 91 3e df 0c 93 bc
       -0.18733153 -0.27416933 0.28417462 -0.017950473
0003c0 8d 8d a2 3e 62 df d3 3d 34 14 f4 3c 30 19 11 bc
       0.3174862 0.10345341 0.02979479 -0.008856103
0003d0 26 a9 6c bd 7e 15 30 be f0 a7 3b 3e e0 02 31 be
       -0.0577785 -0.17195699 0.18325782 -0.17286253
0003e0 5a 71 81 3e 73 99 81 be f7 46 f0 3d 20 f7 ab 3e
       0.25281793 -0.25312385 0.117322855 0.3358698
0003f0 9a 32 0d be f2 7a ee 3d 95 4f a9 3d 12 45 8a be
       -0.13788834 0.11644544 0.08267132 -0.2700582

bn1.running_var f4 [256]
000000 6b 1a e5 3e d6 ce 31 3e 7c cf bd 3d 2b d4 7a 3e
       0.44746718 0.17364058 0.0926809 0.24494998
000010 67 eb 09 3e af 8a e4 3d 55 5c 05 3f e0 a3 ae 3e
       0.13468705 0.11159264 0.5209401 0.34109402
000020 38 73 b5 3e 7b c3 04 3f 50 eb e7 3e 22 b5 86 3e
       0.35439467 0.5186078 0.45296717 0.26310068
000030 df a4 0b 3f 20 47 89 3e b2 6d 77 3e 3e e9 7a 3e
       0.5454845 0.26812077 0.24162939 0.24503037
000040 0f a7 dd 3d 72 cd e8 3d c3 f7 01 3f 0e 02 66 3e
       0.108228795 0.113673106 0.5076868 0.22461721
000050 b7 a6 2f 3f 3d af c3 3d c8 8e 89 3e fb c4 1a 3e
       0.6861376 0.095549084 0.26866746 0.15114205
000060 24 21 8d 3e 0c 61 aa 3e d1 28 13 3f c6 5b ce 3e
       0.27564347 0.33277166 0.57484156 0.40304393
000070 7f a6 3f 3f bf 28 7a 3e 02 64 01 3f 90 89 d9 3e
       0.7486343 0.24429606 0.50543225 0.42487764
000080 3a 48 d5 3f 33 a7 a1 3f be 5f a9 3e e0 ac 2d 3e
       1.6662667 1.262915 0.33080858 0.16960478
000090 7d 8f aa 3d 5d 77 1b 3e b4 53 b5 3e e4 ef 45 3e
       0.083281495 0.15182252 0.35415423 0.19329792
0000a0 ab 49 51 3e 0a 10 8f 3e 85 1e df 3d f1 e3 6a 3e
       0.20438258 0.27941924 0.10894493 0.22938515
0000b0 2a d5 fc 3d 95 0b 36 3e bc a7 84 3e 43 43 34 3d
       0.12345345 0.17777856 0.2590922 0.04400946
0000c0 f8 a6 d6 3e 8c 8c c4 3e 2e a1 0b 3f c5 ba 31 3e
       0.41924262 0.3838848 0.54542816 0.17356403
0000d0 34 4d b6 3e 17 1f 8f 3e 7a 23 bf 3e cb cc 6b 3e
       0.35605776 0.27953407 0.37331754 0.23027341
0000e0 a2 77 c0 3e 5c 53 68 3e 31 d1 95 3d 6d a9 59 3e
       0.37591273 0.22688049 0.07315291 0.21256037
0000f0 51 4f 29 3f be 85 92 3e c4 73 01 3e 96 20 dd 3e
       0.6613665 0.28617662 0.12641817 0.43188924
000100 9a 27 d9 3e 9f 07 5e 3e cc 2b 18 3e 4e 8d 7a 3e
       0.42413026 0.21682595 0.14860457 0.24467966
000110 77 85 7c 3e ba ba a8 3e f3 05 4b 3e 43 b0 27 3e
       0.24660288 0.3295496 0.19826488 0.16375832
000120 e5 9e 1e 3f 1e e1 80 3e 8a 90 a5 3e 20 d4 e2 3e
       0.61961204 0.2517175 0.32336837 0.44302464
000130 c3 d0 a6 3e d5 f8 b4 3e b8 65 0b 3e d9 4a 09 3f
       0.32581148 0.35346094 0.13613021 0.53629833
000140 fa 0c 1d 3e e9 70 6d 3e 96 3b 81 3e 81 21 96 3e
       0.15336981 0.23187603 0.25240773 0.29322436
000150 39 e8 aa 3e 01 92 1a 3f cb de 85 3e 2c 78 1c 3e
       0.33380297 0.60379034 0.2614654 0.15280217
000160 e3 d7 4e 3e dc d9 8d 3e ce 10 ab 3e 00 7d 38 3e
       0.20199542 0.27705276 0.33411258 0.18016434
000170 f9 1d e0 3d 32 3e 82 3e 65 5d 43 3e 48 e5 e5 3e
       0.10943217 0.25438076 0.19078596 0.4490149
000180 9b d1 42 3f c2 08 d9 3e 26 34 02 3e be b9 8c 3e
       0.7610108 0.42389494 0.12715206 0.2748546
000190 4b 72 29 3f 03 7a 0b 3e e2 12 29 3e ec 1a fb 3e
       0.6619002 0.13620763 0.1651111 0.49043977
0001a0 21 1f aa 3e 75 35 c8 3e f2 1d 87 3e e1 4e a2 3e
       0.33226874 0.39103284 0.26390034 0.31700805
0001b0 da b0 bc 3f 03 be aa 3e e4 d9 97 3f c1 46 9a 3f
       1.4741471 0.33348092 1.186337 1.2052842
0001c0 d5 38 34 3e 17 a0 66 3e 6f 67 13 3e cf 5d 50 3f
       0.17599805 0.22522007 0.14394926 0.8139314
0001d0 0f 1b 55 3e 8e f8 f4 3e e0 10 58 3e 91 58 98 3e
       0.20811103 0.47845882 0.21100187 0.2975507
0001e0 45 94 92 3e 5b f2 4f 3e 65 be eb 3d d4 dc 73 3f
       0.28628746 0.20307295 0.11510924 0.9525883
0001f0 2e 18 72 3e d3 be d9 3d 53 a6 0a 3e 6b e7 23 3f
       0.23642036 0.106321 0.1354001 0.6402499
000200 73 fb fa 3d b6 c2 75 3e 89 27 ef 3e de d7 69 3e
       0.122549914 0.24000058 0.4670985 0.22836253
000210 fa 76 07 40 2d 73 57 3e f8 19 6c 3e b4 3f 36 3e
       2.1166368 0.2104003 0.23056781 0.17797738
000220 2f c6 3f 3e 14 13 8c 3e 30 96 14 3e de 7b 37 3e
       0.18727945 0.27358305 0.14510417 0.17918345
000230 6e 07 5e 3f 59 3c 04 40 f5 0d 82 3e c7 56 21 3e
       0.86730087 2.0661833 0.25401273 0.15755759
000240 db f9 d5 3e 2d d8 d0 3e 9a f2 2e 3f c6 ff 34 3e
       0.41792187 0.4078993 0.6833893 0.17675695
000250 71 f1 68 3e 7c ae 38 3e 6b c7 f1 3e e6 d7 7d 3e
       0.22748353 0.1803531 0.47222456 0.2478939
000260 30 e3 ea 3e 61 4a c8 3d 23 4a 7d 3e da 64 a5 3e
       0.45876455 0.09779812 0.24735312 0.32303506
000270 8a ef 29 3f e6 68 90 3e a8 b3 16 3e 9f 3d 34 3e
       0.6638113 0.2820503 0.14716971 0.17601632
000280 d2 c5 fd 3e 1a 5d 89 3e 34 e8 f9 3e 9f 78 81 3e
       0.49564987 0.26828843 0.4880997 0.2528734
000290 3b 45 31 3f 9f a2 e6 3e a3 3c 81 3f 48 d9 85 3e
       0.6924626 0.45045945 1.009663 0.26142335
0002a0 ad 88 a1 3e f5 ca c6 3e 73 4b 6c 3e 48 ce 14 3e
       0.31549588 0.3882672 0.23075657 0.14531815
0002b0 7c 3c 6d 3d f1 2e 3d 3e 7b 98 a4 3e 54 76 45 3e
       0.05791901 0.18474938 0.32147583 0.1928342
0002c0 17 61 a1 3e 02 cd 37 3f a8 4e 67 3f a7 b4 f5 3e
       0.31519386 0.7179719 0.90354395 0.4798939
0002d0 e9 7d 0d 3e 46 73 1c 3f 9a 6b 57 3e c1 54 58 3e
       0.13817562 0.61113393 0.2103714 0.21126081
0002e0 f1 03 84 3e 83 23 17 3f a5 1a a7 3e 3b 37 0a 3f
       0.25784257 0.5903856 0.32637516 0.53990525
0002f0 11 af 9c 3d 5c 39 ed 3d 67 75 b3 3e 7a d3 25 3e
       0.07650579 0.11583206 0.35050508 0.16193953
000300 25 c6 e6 3e a0 dc c5 3e 0a a9 b7 3e 60 91 36 3e
       0.45073047 0.38644886 0.35871154 0.17828894
000310 68 19 e7 3e 90 3b b5 3f f5 c1 e2 3e 70 ea c2 3e
       0.4513657 1.4158802 0.44288602 0.38069487
000320 51 9c 78 3e 98 49 44 3e af 70 91 3e d6 44 00 3f
       0.2427838 0.19168699 0.28406283 0.50105035
000330 e4 d0 0e 3f 28 1f 02 3e 1c f1 05 3f a2 a2 8f 3e
       0.5578749 0.12707198 0.5232103 0.28053766
000340 ef 62 87 3e c3 a5 e7 3e 16 5f 6c 3e 0c 5d 13 3e
       0.26442668 0.45243654 0.23083147 0.14390963
000350 7d 5d e0 3e 51 00 02 40 d6 6b f7 3d 16 ae 12 3e
       0.43821326 2.0312693 0.12081115 0.14324221
000360 31 a9 bc 3e b8 dd 0b 3e c0 42 60 3e ff 8e e6 3e
       0.36847833 0.13658798 0.21900463 0.45030972
000370 f1 ca 37 3e 8c e8 98 3e cc d4 94 3e 76 c3 2c 3f
       0.1794851 0.2986492 0.290686 0.6748575
000380 37 21 31 3e 01 75 a9 3e fc 65 34 3f a7 87 5c 3e
       0.17297827 0.3309708 0.70468116 0.21536122
000390 4c 85 5b 3e 43 0a 2e 3e 6f 12 4e 3e c5 f8 77 3e
       0.21437567 0.16996102 0.2012422 0.24215992
0003a0 4a 0b 56 3e c7 e1 9e 3f f1 57 03 3f 16 ec d9 3d
       0.20902744 1.2412652 0.5130606 0.10640733
0003b0 7e be ca 3e 67 a6 9b 3e 26 94 4d 3e 94 e5 7d 3e
       0.3959846 0.30400392 0.20076045 0.24794608
0003c0 3e 52 f9 3e dd d7 9c 3e b1 44 31 3f 6a 94 88 3e
       0.48695558 0.3063344 0.6924544 0.2667573
0003d0 7f c8 27 3f 66 c1 db 3e 02 dd 18 3e 86 ff 05 3f
       0.6554031 0.4292099 0.14928058 0.5234302
0003e0 2c 16 77 3f e5 85 bb 3e 47 8c ad 3d 79 67 8d 3e
       0.96518207 0.3662559 0.084740214 0.27618006
0003f0 35 6d 9e 3e 89 45 84 3e d5 30 99 3f bf c6 88 3e
       0.30942693 0.258343 1.1968027 0.2671413

fc2.weight f4 [128, 256]
000000 7c 78 fb bd dd 15 82 bd a6 e5 bb 3c 7f d7 49 bb
       -0.1227884 -0.06351826 0.022936653 -0.0030798612
000010 35 2e 81 3d 41 4f 5b 3d 82 70 62 bc 96 c3 81 bc
       0.063076414 0.05354238 -0.013820769 -0.015840333
000020 be d4 4c bc 4d 98 c6 bd 11 62 76 be 9a 51 f6 bc
       -0.012501894 -0.09697018 -0.24060847 -0.030068208
000030 21 30 a8 3d ec 24 fe 3a b6 ab a0 3c 2c 0d be bd
       0.08212305 0.0019389666 0.019613128 -0.09279856
000040 71 07 de 3d ed 02 44 bd 80 c7 c5 bd 0f c6 62 bb
       0.10841263 -0.047854353 -0.09657192 -0.0034602915
000050 e3 f7 07 bc 0a 02 1b be 96 1f 5f 3c e1 bb 74 3d
       -0.008298847 -0.15137497 0.0136183705 0.059749488
000060 a9 c8 7a bd 0a a9 9e 3d f5 6e 38 bd 66 0b a0 bd
       -0.06122652 0.077470854 -0.045027692 -0.07814674
000070 9d 4e e4 be 77 10 07 bc e6 b7 81 bd a9 cd 92 bb
       -0.44591227 -0.008243672 -0.06333904 -0.004480083
000080 70 b9 cf 3d 3e be fb bc b5 a0 10 bd 93 92 84 bb
       0.10142791 -0.030730363 -0.035309512 -0.0040457933
000090 4d 7e a1 bd 18 5e d4 3c 61 cb 45 bd b1 7f 3a bd
       -0.07885418 0.025923774 -0.04828966 -0.045531932
0000a0 d8 f0 57 bd 83 9b 5f bd 6e 0b e1 3b a4 5e a2 bd
       -0.05271992 -0.054591667 0.0068678176 -0.079282075
0000b0 bb 5f 9a bd d2 e0 81 bb d2 76 23 bc d8 d6 09 bd
       -0.075377904 -0.0039635682 -0.009977059 -0.033652157
0000c0 54 18 b1 bb f2 26 63 bd 5c 3e 47 3d 7c 01 43 be
       -0.0054045115 -0.055457063 0.048643455 -0.19043535
0000d0 e2 a7 8a 3d 35 8e 44 3a 4d 1f 87 3d 03 86 98 3d
       0.06770302 0.0007497997 0.06597767 0.07447436
0000e0 58 d2 1e be d3 19 30 bd 5b 94 61 bd d2 a3 24 3c
       -0.15509927 -0.042993378 -0.055073123 0.010048823
0000f0 10 75 bb bd 4c 6f a2 bd 38 00 1a 3c 90 20 5c bd
       -0.09153187 -0.079313844 0.009399466 -0.05374199
000100 7e 47 15 3b ea c8 a2 3c 21 7c 08 bd bf 1b 2e bb
       0.0022778208 0.019871194 -0.033321504 -0.002656683
000110 0a a9 38 3c 43 32 14 be 6c 3d d2 bd bf f8 be 3c
       0.011270771 -0.14472298 -0.102656215 0.02331197
000120 a4 9d 42 3d db e2 63 bc 68 d7 9c bd 55 37 32 bd
       0.04751362 -0.013909067 -0.07658273 -0.0435098
000130 e7 21 55 bc 35 c9 9d 3d dd a9 fb bd 4d a3 0d 3c
       -0.013008571 0.07704393 -0.12288258 0.008644891
000140 36 c8 26 3d 25 9e c9 3c a6 93 17 bd 4c 78 06 be
       0.04071828 0.024611542 -0.037006043 -0.13131827
000150 2d 9e 5b 3e 6c 39 06 be 8a 63 1d bd 15 bb b5 bc
       0.21447058 -0.13107842 -0.038425006 -0.022183934
000160 16 0b 42 bd 96 db bf bd 3f 1a 9b 3d ca e9 5f ba
       -0.047373854 -0.093680546 0.075733654 -0.0008541612
000170 09 bb f7 bd 26 c3 13 3d 57 b5 52 3d d9 e2 05 bd
       -0.12096221 0.03607478 0.05144247 -0.032687042
000180 7c 47 f1 3d 27 94 ec 3a 67 d7 a8 bd 57 48 60 bd
       0.11781213 0.0018049524 -0.0824421 -0.05475649
000190 80 97 5d bd 27 62 26 bd 23 4a 63 bc 21 cc 73 be
       -0.05409956 -0.04062095 -0.013872656 -0.23808338
0001a0 83 b8 1d be f1 15 41 bd 4f 1d 81 bd c7 d8 a0 bd
       -0.15402417 -0.047140066 -0.06304418 -0.07853847
0001b0 54 f6 7c bc 61 4d 74 3c 1a 32 1a 3d 21 f0 82 3d
       -0.015439589 0.014911027 0.037645437 0.06393457
0001c0 86 a2 a4 bb a8 16 ac bc 6b 6a 4d bd ed 05 da bd
       -0.005024257 -0.021006897 -0.050150316 -0.106456615
0001d0 54 e0 03 bd 1e 68 6e be 4b ae 05 be 71 b3 40 bc
       -0.032196358 -0.23281905 -0.13054769 -0.011761532
0001e0 a9 22 19 bc 7e 63 74 3d a8 71 41 be cb 3e d2 3d
       -0.0093466425 0.059665196 -0.18891013 0.10265883
0001f0 e4 9e 32 bc 69 d3 83 bc 7c 83 42 bc dc 71 94 3d
       -0.01090214 -0.01609202 -0.011872169 0.072482795
000200 34 55 22 be be 1b 30 bd 08 b3 4e be d7 d7 c9 bc
       -0.15852815 -0.042995207 -0.20185483 -0.024639053
000210 20 95 54 3d 61 cb d1 bd 5b 36 3b 3d 31 eb 0c 3d
       0.05190003 -0.102438696 0.045706134 0.034403984
000220 e3 92 49 3d 4f 87 87 bd be a2 66 3d 09 7f f6 3c
       0.049212348 -0.06617605 0.056307547 0.030089872
000230 24 2a 4f bd fc 71 af bc 79 d7 89 bc ed 1e 27 3d
       -0.050577298 -0.021416657 -0.016826378 0.040800977
000240 4a fb 8d be ef 4a b1 bd c8 63 05 be 04 54 0b be
       -0.2773078 -0.086568706 -0.13026345 -0.13606268
000250 2c bb 98 bd 8d 07 d2 bc 97 15 25 3c 83 03 bf 3d
       -0.07457575 -0.025638366 0.010075948 0.09326842
000260 81 50 66 bd ad 51 b7 3d be 4c 0d 3e 1a b8 da 3c
       -0.05622912 0.08951125 0.13798806 0.026699115
000270 c2 89 ac be 62 65 3f 3c 8a 86 92 3c 8c 46 41 bd
       -0.3369885 0.011681886 0.017886419 -0.04718642
000280 9c f8 7b be 70 32 1d bd 7e e7 f6 bb 23 72 58 bc
       -0.24606556 -0.03837818 -0.0075349202 -0.013210806
000290 5c b0 71 be 34 1b d3 bd 5b 07 be bd 61 c2 81 bd
       -0.23602432 -0.10307923 -0.09278747 -0.06335903
0002a0 5b 73 52 3c 3b 15 61 bd 51 9f 0f bd 63 df 7d 3c
       0.012844886 -0.054951888 -0.035064045 0.015495154
0002b0 d2 a3 b9 bd 5b 45 0f bd 4a 06 2b 3d 79 35 a8 3c
       -0.09064449 -0.034978252 0.041754045 0.02053331
0002c0 56 af 6f bc 6f 54 81 be 1d 85 05 bd 87 e0 80 be
       -0.014629206 -0.2525973 -0.03259765 -0.251713
0002d0 d1 7b 80 3d 93 e8 b6 3d 0d 12 50 3d e7 62 15 be
       0.06273616 0.08931079 0.050798465 -0.1458851
0002e0 7a 9b 1f 3d 11 c2 da 3c 30 13 8b be da a2 24 bc
       0.038966633 0.026703866 -0.27163076 -0.010048592
0002f0 28 a5 5f bd ea 2b 47 3d 85 64 e6 3c 66 b7 24 be
       -0.054600865 0.048625864 0.028124103 -0.16085586
000300 8c 98 25 3d 56 a8 1b bd df b6 c1 3c 65 58 49 bc
       0.040428683 -0.038002335 0.02364677 -0.012289141
000310 1a ed 10 3d d5 e7 f2 3d a2 23 5e bd 32 e9 0c bd
       0.035382368 0.11860625 -0.0542332 -0.03440208
000320 13 94 2a 3d 4e 94 98 bc ff 1a 2b bd 44 55 0a be
       0.04164512 -0.018625405 -0.041773792 -0.13509089
000330 a0 aa 29 bd 1a 2b f2 3c 1a 96 ee 3d e4 42 6e be
       -0.041422486 0.029561568 0.11649723 -0.23267704
000340 d6 e1 a7 bd 25 6a a2 bd bb fc 67 bd 19 06 86 bd
       -0.08197372 -0.07930402 -0.056637507 -0.06544132
000350 76 40 9a 3d de f0 6c 3d 10 b6 4f bd 62 67 41 3c
       0.07531826 0.057846896 -0.050710738 0.011804434
000360 26 f5 ed bd ea 55 21 3d df b9 a4 bc fc f0 45 bd
       -0.11619024 0.039388575 -0.020108161 -0.048325524
000370 88 50 f9 bb 98 b1 7c 3c 43 f8 9b 3c 9f 80 90 bd
       -0.007608477 0.015423201 0.019039279 -0.070557825
000380 61 40 97 3d b1 97 e0 3c 68 21 89 3d ff 86 eb 3a
       0.07385326 0.027416082 0.06695825 0.0017969309
000390 01 96 e3 3a 99 d1 b8 bc 16 f5 37 bc 2b ae 3b bd
       0.001736343 -0.022560881 -0.011227867 -0.045820396
0003a0 7d 44 17 3c 9e 24 fc 3c b3 3e dd bd 6a b0 2b bd
       0.0092326375 0.03077918 -0.108029746 -0.04191629
0003b0 bf 94 56 3d fb e6 1b be 47 07 08 bc 4b 19 20 bd
       0.05238795 -0.15224831 -0.008302516 -0.03908662
0003c0 ca 7d 61 be 33 ba 95 bd 28 29 71 be 20 b7 76 bb
       -0.22020641 -0.07310905 -0.23550856 -0.0037645772
0003d0 50 be 56 3d e1 b6 a5 3c 7d a0 02 bc ae 41 b5 bd
       0.05242759 0.020228805 -0.007972834 -0.08850418
0003e0 4f 7a 07 3d 38 e8 84 bd ae 06 92 bb d9 c4 62 3c
       0.033075627 -0.06489605 -0.0044563627 0.013840877
0003f0 5e cf 80 bc 14 9e cb 39 90 77 ed bd 7f 24 9c bd
       -0.01572388 0.00038836955 -0.1159507 -0.076241486
