deep_nn_pytorch.pth (torch, 199248 bytes, 22 tensors)

fc1.weight f4 [256, 8]
0	0x3e1aa2b8	0.15101135
1	0xbeeffbf1	-0.46871904
2	0x3d78e4b0	0.06076497
3	0x3d9230be	0.07138203
4	0x3e66774b	0.22506444
5	0x3e1580eb	0.1459996
6	0x3e2ac38b	0.16676156
7	0xbea584a2	-0.32327753
8	0x3ea67e8e	0.3251843
9	0xbe29753e	-0.1654863
10	0x3e019e6a	0.12658086
11	0x3db00de8	0.085964024
12	0xbf1e67ea	-0.6187731
13	0x3e401a73	0.1876009
14	0xbed214c8	-0.4103148
15	0xbe4aca18	-0.19803655
16	0xbf02291c	-0.5084398
17	0xbe2e2df2	-0.17009714
18	0xbde7ab25	-0.1131194
19	0x3e49062e	0.19631264
20	0xbdaea0c5	-0.08526758
21	0x3e028573	0.1274622
22	0x3eace288	0.3376658
23	0xbdead841	-0.114670284
24	0x3ce3b940	0.027798295
25	0xbcd59bf9	-0.02607535
26	0xbe8fc3d0	-0.2807908
27	0xbe2df682	-0.16988567
28	0x3df34ff8	0.11880487
29	0xbf1f9e48	-0.62350893
30	0xbd8d8e87	-0.069119506
31	0xbcf56f39	-0.029960262
32	0x3e6d45b8	0.23171127
33	0x3d967dff	0.073482506
34	0xbec990ab	-0.39368185
35	0xbe16216d	-0.14661188
36	0xbe2852be	-0.16437814
37	0x3e890ff9	0.2677
38	0x3d6a8587	0.057256248
39	0xbd814af5	-0.06313125
40	0xbe5482a2	-0.20752957
41	0xbd01c4f7	-0.03168198
42	0x3ee1e2fc	0.44118488
43	0xbd1248b5	-0.03571387
44	0xbe0e119c	-0.13873905
45	0xbe56dee9	-0.20983471
46	0xbcb47690	-0.022029191
47	0x3ea0c84d	0.31402817
48	0x3d89266c	0.066967815
49	0xbc8b4db0	-0.017004818
50	0x3ea5165f	0.3224363
51	0x3db8e818	0.09028643
52	0xbeebad1d	-0.46030512
53	0x3e86f800	0.26361084
54	0x3d410291	0.04712159
55	0x3e903857	0.28167984
56	0x3e801362	0.25014788
57	0x3e30d111	0.17267253
58	0xbdca5211	-0.09878934
59	0x3e9816c9	0.29704884
60	0xbe8ce6e0	-0.27519894
61	0x3e802a63	0.25032339
62	0xbdd5681e	-0.104202494
63	0x3cff8580	0.031191587
64	0xbd8376b1	-0.06419123
65	0x3ebe662e	0.37187332
66	0x3e36d9dd	0.17856546
67	0x3e0d09a0	0.13773203
68	0x3d84bec2	0.06481697
69	0x3e7ab79e	0.24484107
70	0x3d2f3fa0	0.042785287
71	0xbd226492	-0.039646693
72	0xbcd9096f	-0.026493756
73	0xbe52980b	-0.20565812
74	0x3edcdd1c	0.43137443
75	0x3e23c423	0.15992789
76	0xbe524612	-0.20534542
77	0xbd0a56c1	-0.03377414
78	0x3e41ae57	0.18914162
79	0xbe086447	-0.13319503
80	0xbe6fb45e	-0.23408648
81	0x3c82b41b	0.015955022
82	0x3e74c04f	0.23901485
83	0xbdccb317	-0.09995096
84	0x3e8c04db	0.27347454
85	0xbecde2fb	-0.40212235
86	0x3ce0c33f	0.02743685
87	0x3e19f4dc	0.15034813
88	0xbba3d457	-0.004999678
89	0x3cab5592	0.020914827
90	0x3c641381	0.013920666
91	0x3e48b237	0.19599234
92	0x3dd172bf	0.10226964
93	0xbf83c709	-1.0295116
94	0x3d694259	0.05694804
95	0xbeb464c6	-0.35233134
96	0xbcbbda93	-0.022931373
97	0x3b635dd4	0.0034693377
98	0x3c097ad9	0.008391106
99	0xbc85790b	-0.01629307
100	0xbe7fcc24	-0.24980217
101	0xbf70ec45	-0.9411052
102	0xbc19417e	-0.009353993
103	0x3e5c5ac4	0.21519
104	0x3ec1068c	0.37700307
105	0x3e05fa85	0.13083847
106	0xbe943c8c	-0.28952444
107	0xbcadaf14	-0.021201648
108	0x3e6f47c1	0.23367216
109	0xbd4b73b4	-0.04967089
110	0x3e9e1fde	0.30883688
111	0xbcb6028d	-0.022218013
112	0xbe7c7375	-0.24653418
113	0x3de45bc6	0.11150317
114	0xbe641f34	-0.22277528
115	0xbeae0d4b	-0.33994517
116	0x3ec7609f	0.38940904
117	0x3dcd4c23	0.100242876
118	0x3e47aceb	0.19499557
119	0xbeb67dac	-0.35642755
120	0x3bfcab3b	0.007710842
121	0x3eb8553e	0.36002535
122	0xbe034a9a	-0.12821427
123	0x3db4d14c	0.08828983
124	0xbbdcab79	-0.0067343083
125	0xbea76e10	-0.3270116
126	0x3daec009	0.085327215
127	0xbdac49a2	-0.08412482
128	0xbd4cf2d3	-0.050036263
129	0x3e905b7e	0.28194803
130	0xbe0092af	-0.12555955
131	0x3ea6e25f	0.32594582
132	0x3e8a1785	0.2697107
133	0x3e9aa536	0.3020417
134	0x3c43ec82	0.011958243
135	0xbde5323c	-0.11191222
136	0xbe244a59	-0.16043986
137	0x3eaf505e	0.34241003
138	0x3ed3124c	0.41224897
139	0xbe62665d	-0.22109361
140	0xbe0f2809	-0.13980116
141	0x3dfad480	0.122475624
142	0x3b315ccb	0.0027063366
143	0x3ea9cd60	0.331645
144	0xbdd07012	-0.10177626
145	0x3d8965ab	0.06708845
146	0x3e8c11df	0.27357385
147	0x3ebb0be0	0.36532497
148	0xbec6a8fe	-0.38800806
149	0x3e155b2d	0.14585562
150	0x3dc692bb	0.09695955
151	0xbe40d813	-0.18832426
152	0xbd1c8489	-0.038212333
153	0xbb57e5da	-0.0032943399
154	0xbcdd26bf	-0.026996015
155	0x3eeaf66f	0.4589114
156	0xbe7a5369	-0.24445881
157	0xbf187a17	-0.59561294
158	0xbd95122a	-0.07278855
159	0x3d384bda	0.044994213
160	0x3cdbda72	0.026837561
161	0x3cdacb48	0.02670826
162	0xbc6fcc21	-0.0146360705
163	0xbf4967ee	-0.7867421
164	0xbe0be402	-0.13661197
165	0x3d4d52da	0.05012784
166	0xbef2e0d0	-0.47437143
167	0xbec3a2a2	-0.38210016
168	0x3d8c72fc	0.06857869
169	0x3c8ca7c8	0.017169848
170	0x3ddeb37f	0.1087408
171	0x3e8cc88b	0.27496752
172	0xbebd5c22	-0.36984354
173	0x3e3ab6f2	0.1823385
174	0xbd25697e	-0.04038381
175	0x3dd2d52a	0.10294564
176	0xbdd8779e	-0.1056969
177	0x3db40fa7	0.08792048
178	0x3eb68178	0.35645652
179	0xbe18b593	-0.14913015
180	0x3c9b47a8	0.018955067
181	0x3e60617a	0.21912184
182	0xbeb24d78	-0.3482473
183	0x3d1911de	0.037370555
184	0x3dda1847	0.10649162
185	0xbcac6122	-0.02104241
186	0x3cb0053a	0.021486867
187	0xbed47e8c	-0.41502798
188	0x3d81e516	0.06342523
189	0xbead18b7	-0.33807918
190	0x3ead6307	0.33864614
191	0xbe81119f	-0.25208756
192	0xbe85b46e	-0.2611422
193	0x3e2e86c8	0.17043602
194	0x3eaade1f	0.3337259
195	0xbe3bcddf	-0.18340252
196	0xbe2ae689	-0.16689505
197	0x3e7b15b2	0.24519995
198	0x3ec16533	0.3777252
199	0xbd89f568	-0.06736261
200	0xbdc3e1e8	-0.095645726
201	0xbd33f73d	-0.043936957
202	0x3e86af01	0.26305392
203	0xbe1552ca	-0.14582363
204	0x3e460ee2	0.19341615
205	0x3dd4d080	0.10391331
206	0xbdd739cb	-0.1050907
207	0xbe485955	-0.19565327
208	0x3dafb083	0.08578589
209	0x3e28c302	0.1648064
210	0x3e204b72	0.1565378
211	0x3e7660f1	0.24060418
212	0xbe566a9f	-0.2093911
213	0xbee3ad47	-0.44468138
214	0xbe984f9b	-0.29748234
215	0xbd97a112	-0.074037686
216	0xbc61f4a5	-0.013791238
217	0xbcd3d88c	-0.025860094
218	0xbdc6ad3d	-0.09701011
219	0x3de24387	0.11048036
220	0xbef58522	-0.47953135
221	0x3dd00ce9	0.101587124
222	0xbf349dcd	-0.70553285
223	0xbf0fffb9	-0.56249577
224	0xbcc16c16	-0.02361111
225	0xbde72c16	-0.112877056
226	0xbed6c08e	-0.41943783
227	0xbe8afcb1	-0.27145913
228	0x3e739ffe	0.23791501
229	0x3dc342c3	0.09534218
230	0x3dd06d52	0.10177101
231	0x3d5a033e	0.05322575
232	0x3d82d52c	0.063883156
233	0xbd1dc296	-0.03851565
234	0xbddfc439	-0.109260984
235	0xbede4c69	-0.4341767
236	0x3e6f0c26	0.23344478
237	0xbd255405	-0.04036333
238	0x3cc88e8a	0.02448203
239	0x3e6751ac	0.22589749
240	0xbf063570	-0.5242529
241	0xbc28cbac	-0.010302465
242	0xbe20710b	-0.15668122
243	0xbe06d004	-0.13165289
244	0x3da88917	0.08229273
245	0x3c5eea45	0.013605659
246	0x3dcd8b3e	0.10036324
247	0xbd10d3ad	-0.03535812
248	0x3d77d518	0.060505956
249	0xbe94ae81	-0.29039386
250	0x3d7c9996	0.06166991
251	0x3d315cf5	0.04330154
252	0xbdcf1ff0	-0.101135135
253	0x3eb0480f	0.34429976
254	0x3cf87cfb	0.030333033
255	0x3de91dd1	0.1138264

fc1.bias f4 [256]
0	0xbea73b59	-0.32662466
1	0x3d6451f1	0.055742208
2	0xbe66c540	-0.22536182
3	0x3de96e73	0.1139802
4	0x3e1c717b	0.15277664
5	0x3e7b9941	0.2457018
6	0xbe8581b5	-0.2607552
7	0xbe3e7bd4	-0.18601924
8	0x3e4cbb28	0.1999327
9	0xbe351ae8	-0.17686045
10	0xbeadef41	-0.339716
11	0xbe50e761	-0.20400764
12	0xbe021eca	-0.12707058
13	0x3e3fef90	0.1874373
14	0xbd9f45d2	-0.07776989
15	0xbe58e00c	-0.21179217
16	0xbe8d7740	-0.27630043
17	0x3e4cb4fa	0.19990912
18	0x3e032ed2	0.1281083
19	0xbdc32ff5	-0.095306315
20	0x3e1f82e7	0.15577279
21	0xbe72b4b2	-0.23701742
22	0xbcdebd55	-0.02718989
23	0x3e3ffc71	0.18748643
24	0xbcae1fa2	-0.021255318
25	0x3d211ff2	0.039337106
26	0xbe720232	-0.2363365
27	0x3e6e81f4	0.2329176
28	0xbe2cb90f	-0.16867469
29	0x3e8fb301	0.28066257
30	0x3e9811b7	0.29701015
31	0x3e516f91	0.20452715
32	0xbe614370	-0.21998382
33	0x3e9470da	0.2899235
34	0xbe053869	-0.130098
35	0x3e531f15	0.20617326
36	0x3e8ad9d0	0.27119303
37	0xbda8fa4e	-0.08250867
38	0xbeb10977	-0.34577534
39	0xbd86c13b	-0.065798245
40	0x3ddeaa2b	0.10872301
41	0x3e5541e3	0.20825915
42	0xbcbdf64c	-0.023188733
43	0xbe8307e6	-0.25591964
44	0x3e135620	0.14388323
45	0x3c9c1393	0.019052302
46	0xbe3be5ce	-0.18349382
47	0x3e8d3d75	0.2758595
48	0xbe11e53d	-0.14247604
49	0x3e7b9f4e	0.24572489
50	0x3d8cece4	0.06881121
51	0x3ea68d87	0.32529852
52	0xbeac1572	-0.3361011
53	0x3d3a0f7d	0.045424927
54	0x3ea9aee4	0.33141243
55	0xbe378597	-0.17922054
56	0x3e96afb8	0.29430938
57	0xbda2e28d	-0.079533674
58	0xbe6cf039	-0.23138513
59	0xbd6cc5ff	-0.05780601
60	0xbd4cbcdb	-0.049984794
61	0x3e582201	0.21106721
62	0xbe0cbacd	-0.13743134
63	0x3db2df79	0.0873403
64	0xbe8e2de0	-0.27769375
65	0x3dadf2f9	0.08493609
66	0xbe7654be	-0.24055764
67	0x3e2afe6a	0.16698614
68	0x3e206294	0.15662605
69	0xbdad4694	-0.08460727
70	0xbea9882a	-0.33111697
71	0xbd4a2bb3	-0.04935808
72	0x3e4934a7	0.19648992
73	0xbce43dc0	-0.027861476
74	0x3d5ab11b	0.053391557
75	0xbe9822b0	-0.29713964
76	0x3e31ea48	0.17374527
77	0x3d06e7ee	0.03293603
78	0x3dc2c7b8	0.095107496
79	0xbe8380e5	-0.25684276
80	0xbd46737e	-0.048449986
81	0xbc0f4658	-0.008744799
82	0xbd9535c4	-0.072856456
83	0xbe0d4067	-0.13794099
84	0x3d8d3d6c	0.06896481
85	0x3eaab7ad	0.33343259
86	0xbcf732ac	-0.03017553
87	0xbea27868	-0.31732488
88	0xbd8d713d	-0.06906364
89	0x3dfa044a	0.12207849
90	0x3e5e9f27	0.217404
91	0x3da29993	0.07939448
92	0xbda4a1f0	-0.080386996
93	0xbda98ae1	-0.08278442
94	0xbc5fa58f	-0.013650312
95	0x3ea41868	0.3204987
96	0x3e494879	0.19656552
97	0x3e4265a2	0.18984082
98	0x3e9f09fd	0.31062308
99	0x3e33c4f8	0.17555606
100	0xbd3b2ffd	-0.045700062
101	0x3ea997b1	0.33123544
102	0x3d412aa9	0.047159825
103	0xbd840115	-0.06445519
104	0xbe550f88	-0.20806706
105	0xbe0a8946	-0.13528928
106	0xbe22545d	-0.15852495
107	0x3d9e2d94	0.07723537
108	0x3def7b11	0.11693395
109	0xbcc291dc	-0.023751192
110	0x3e021033	0.12701492
111	0x3e3fad4a	0.18718448
112	0xbea83b1a	-0.3285759
113	0x3d011b92	0.031520434
114	0x3e93618b	0.28785357
115	0xbdf8f67b	-0.121563874
116	0x3e603416	0.21894869
117	0xbe85517d	-0.26038733
118	0xbe1598ec	-0.14609116
119	0xbdd7593f	-0.10515069
120	0x3c297d26	0.010344779
121	0x3db37fbe	0.08764599
122	0x3e805488	0.25064492
123	0x3c7ea40c	0.0155420415
124	0xbea878de	-0.32904714
125	0x3cacfbcb	0.021116158
126	0xbe9ccc5b	-0.3062466
127	0x3e181096	0.14850077
128	0xbdcf62c9	-0.10126264
129	0x3e2a480d	0.16629048
130	0xbe5cb054	-0.21551639
131	0xbc5637b0	-0.0130748
132	0x3e8eddc5	0.27903572
133	0x3eb1ccea	0.3472665
134	0xbe27fe90	-0.16405702
135	0x3e9ec4ea	0.31009609
136	0x3e86b90f	0.26313064
137	0xbd469ccd	-0.04848938
138	0xbea608f6	-0.32428712
139	0xbd7746f6	-0.060370408
140	0xbe6871f2	-0.22699717
141	0xbdf4846e	-0.119393215
142	0x3ebc1963	0.3673812
143	0xbe22cd3f	-0.15898608
144	0xbd5ed34b	-0.054400723
145	0x3dbd526d	0.09244237
146	0x3e59b4fa	0.21260443
147	0xbe9c2022	-0.30493265
148	0xbc289e90	-0.0102917105
149	0x3dcaf2be	0.09909581
150	0xbe4f2a1c	-0.20230907
151	0xbe66963c	-0.22518247
152	0xbc97f24f	-0.018548159
153	0x3e4549c3	0.19266419
154	0x3e1e838d	0.1547987
155	0xbc9958cd	-0.018719101
156	0x3e5269ef	0.20548223
157	0xbea2ef4e	-0.318232
158	0xbe68af8f	-0.2272322
159	0x3decdaaf	0.11565148
160	0xbdf42d0b	-0.11922654
161	0xbe0fc347	-0.14039336
162	0x3e496ef6	0.19671234
163	0xbd965ef2	-0.07342328
164	0xbe2bffef	-0.1679685
165	0xbd5c7bc3	-0.053828966
166	0x3eb287d3	0.3486925
167	0xbe18bf7b	-0.14916794
168	0x3e07361b	0.13204233
169	0xbdbd6182	-0.09247114
170	0xbd92019e	-0.07129215
171	0x3dd68bd9	0.104758926
172	0x3e929909	0.28632382
173	0x3e977b31	0.29586175
174	0x3e9f4535	0.31107488
175	0xbea926e4	-0.33037484
176	0xbe8e66d5	-0.2781283
177	0xbea83b05	-0.32857528
178	0x3e92f6c1	0.28703883
179	0xbdadcdcd	-0.08486519
180	0x3dc09bfe	0.09404753
181	0xbe001cd9	-0.12511005
182	0x3e2ca81b	0.16861002
183	0xbe0fe5df	-0.14052533
184	0x3c8a5df8	0.01689051
185	0x3c367832	0.011137055
186	0x3e2eeba8	0.17082083
187	0xbea87ba6	-0.32906836
188	0xbe91defc	-0.28490436
189	0xbe265c21	-0.16246082
190	0x3e842658	0.25810504
191	0xbe35ef1c	-0.17766994
192	0x3e9e9c2f	0.30978534
193	0xbe35beea	-0.17748609
194	0x3e06d7d9	0.13168277
195	0xbda3fdc2	-0.08007385
196	0xbe1210a7	-0.14264165
197	0xbe0f1955	-0.13974507
198	0xbdab7bf8	-0.083732545
199	0x3db9fe46	0.09081702
200	0xbcdb5109	-0.026772039
201	0xbdbaf654	-0.091290146
202	0xbe08abf0	-0.13346839
203	0x3c8d505a	0.017250229
204	0xbea63d03	-0.32468423
205	0x3e860ebd	0.2618312
206	0xbe603f04	-0.21899039
207	0xbddf0a8c	-0.108906835
208	0xbd3e1161	-0.046403293
209	0xbce7aadf	-0.02827972
210	0x3e4eb481	0.20186044
211	0xbd79577e	-0.060874455
212	0x3e84f54b	0.25968394
213	0x3e8a1b09	0.2697375
214	0xbba68fa9	-0.0050830436
215	0xbea35abf	-0.3190517
216	0x3e71d5d6	0.23616728
217	0xbe59aec9	-0.21258081
218	0xbde17a92	-0.110097066
219	0x3e5afda3	0.21385817
220	0x3da43106	0.08017163
221	0x3e54d0db	0.20782797
222	0x3d2cb34c	0.04216318
223	0xbea33554	-0.31876624
224	0x3dc7eec4	0.09762338
225	0xbe676966	-0.225988
226	0xbdaac3ca	-0.08338125
227	0x3e1aef2e	0.15130302
228	0x3dad2c19	0.084556766
229	0x3e826997	0.25471184
230	0x3e0a80b7	0.13525663
231	0xbdbb6051	-0.0914923
232	0xbe727ae4	-0.23679692
233	0x3e725a6f	0.2366731
234	0xbd3822f8	-0.044955224
235	0x3da31999	0.07963867
236	0x3e54e06b	0.20788734
237	0x3e42d7b2	0.19027594
238	0x3e535c63	0.20640711
239	0xbe4a6b69	-0.19767536
240	0x3e89438c	0.26809347
241	0x3eadc01f	0.3393564
242	0xbe4be8f1	-0.19913079
243	0x3e8a9377	0.27065632
244	0xbea09dd8	-0.31370425
245	0xbe5bc3ea	-0.21461454
246	0xbe3475cb	-0.1762306
247	0xbdf043f6	-0.117317125
248	0xbd4497fa	-0.0479965
249	0x3c1c450b	0.0095379455
250	0xbc9d0f8b	-0.01917245
251	0xbea65950	-0.32490015
252	0xbda4351e	-0.08017944
253	0xbd59a9cf	-0.053140458
254	0x3cfcd696	0.030864041
255	0xbe9542c3	-0.29152498

bn1.weight f4 [256]
0	0x3f6dbb77	0.92864174
1	0x3f60dbe4	0.87835526
2	0x3f4cd859	0.8001762
3	0x3f7cbf96	0.98729837
4	0x3f51ed06	0.82002294
5	0x3f76619d	0.96242696
6	0x3f7023b7	0.93804497
7	0x3f5275fa	0.8221127
8	0x3f59bbc1	0.85052115
9	0x3f701575	0.9378274
10	0x3f66591e	0.8997973
11	0x3fa695d4	1.3014474
12	0x3fa88eb4	1.316855
13	0x3f57301d	0.8405779
14	0x3f6c771f	0.92369264
15	0x3f7135cb	0.94222707
16	0x3f4edab3	0.8080246
17	0x3f70a33b	0.9399907
18	0x3f77a70e	0.9673928
19	0x3f9888a6	1.1916702
20	0x3f899acc	1.0750365
21	0x3f66257a	0.89900935
22	0x3f5fede1	0.8747235
23	0x3f88a741	1.0676042
24	0x3f68bcab	0.90912884
25	0x3f70be14	0.94040036
26	0x3f739183	0.9514391
27	0x3f8d6397	1.1046017
28	0x3f588a24	0.84585786
29	0x3f7d6690	0.9898462
30	0x3f6c1129	0.92213684
31	0x3f4ba0c0	0.7954216
32	0x3f44446c	0.76666903
33	0x3f6b5383	0.91924304
34	0x3f7f98b8	0.99842405
35	0x3f5ec3dd	0.87017614
36	0x3f6a666c	0.91562533
37	0x3f86e41e	1.0538366
38	0x3f713a43	0.94229525
39	0x3f7e2fe9	0.99291855
40	0x3f629ea5	0.8852332
41	0x3f4a00ac	0.78907275
42	0x3f4f93f7	0.8108515
43	0x3f4c523d	0.79812986
44	0x3f54cfd5	0.83129627
45	0x3f5dc484	0.86627984
46	0x3f5f2e7d	0.8718031
47	0x3f48fed4	0.78513837
48	0x3f4fa6a8	0.8111367
49	0x3f693d47	0.91109127
50	0x3f5f285e	0.8717097
51	0x3f54ca04	0.8312075
52	0x3f574fa2	0.84105885
53	0x3f686f39	0.9079471
54	0x3f647053	0.89233893
55	0x3f86a771	1.0519849
56	0x3f9e41ae	1.2363794
57	0x3f4e5694	0.8060086
58	0x3f4d96d1	0.8030825
59	0x3f74d259	0.95633465
60	0x3f78fba8	0.97258997
61	0x3faa253b	1.3292612
62	0x3f5ad449	0.8548017
63	0x3f8a25e4	1.0792813
64	0x3fa62ab5	1.2981783
65	0x3f7f763d	0.9978979
66	0x3f699f67	0.91258854
67	0x3f65b27f	0.8972549
68	0x3f82bb50	1.0213413
69	0x3f531889	0.8245931
70	0x3f790140	0.9726753
71	0x3f9c43af	1.2208155
72	0x3f4dcbc3	0.8038904
73	0x3f6e6ebe	0.9313773
74	0x3f50a6fb	0.8150479
75	0x3f9b4df5	1.2133166
76	0x3f69d02f	0.9133329
77	0x3f5c4a5c	0.86050963
78	0x3f61aa6c	0.8815067
79	0x3f703c5b	0.93842095
80	0x3f5f25bf	0.8716697
81	0x3f5f3f82	0.8720628
82	0x3f608f68	0.8771882
83	0x3f825649	1.0182582
84	0x3f5f1e99	0.87156063
85	0x3f8dbf20	1.1073952
86	0x3f7dfe49	0.99216133
87	0x3f7a7291	0.97831064
88	0x3f6a2d50	0.9147539
89	0x3f8679b8	1.0505896
90	0x3f614ef9	0.8801113
91	0x3f68aac2	0.90885556
92	0x3f9182bf	1.1368026
93	0x3f8560eb	1.0420202
94	0x3f783539	0.9695621
95	0x3f8f38b9	1.1189185
96	0x3f649d5e	0.89302623
97	0x3f62e676	0.88632905
98	0x3f60fbc8	0.8788419
99	0x3f9473dc	1.1597857
100	0x3f5f40f0	0.8720846
101	0x3f92a57f	1.1456755
102	0x3f989d98	1.1923094
103	0x3f9f8e88	1.2465372
104	0x3f7c6dd6	0.98605096
105	0x3f442109	0.7661291
106	0x3f586795	0.84533054
107	0x3f66567e	0.89975727
108	0x3f843818	1.0329618
109	0x3f67b502	0.9051057
110	0x3f618d33	0.8810608
111	0x3f95b361	1.1695367
112	0x3f676392	0.9038631
113	0x3f730c3c	0.94940543
114	0x3fa189ef	1.2620219
115	0x3f6e0dae	0.92989624
116	0x3f91bfcf	1.138666
117	0x3f62342e	0.8836087
118	0x3f67fdf6	0.9062189
119	0x3f6a4c07	0.9152226
120	0x3f5929f5	0.84829646
121	0x3f591432	0.8479644
122	0x3f6b0420	0.9180317
123	0x3f7cf1f5	0.988067
124	0x3f594f46	0.84886587
125	0x3f77b288	0.9675679
126	0x3f63085f	0.8868465
127	0x3f668ab4	0.90055394
128	0x3f5b1f93	0.85595053
129	0x3f551aed	0.8324421
130	0x3f8443f0	1.0333233
131	0x3f8cd17a	1.1001427
132	0x3f7e3bc7	0.99309963
133	0x3f824894	1.0178399
134	0x3f92867f	1.1447295
135	0x3f631b88	0.88713884
136	0x3f739f80	0.9516525
137	0x3f8df694	1.1090875
138	0x3f558ee1	0.8342114
139	0x3f804c79	1.0023338
140	0x3f46122e	0.7737149
141	0x3f75bc4d	0.9599045
142	0x3f9d0ed5	1.2270151
143	0x3f5a367e	0.852394
144	0x3f7c26ab	0.984965
145	0x3f6bfc85	0.9218219
146	0x3f7ede51	0.9955798
147	0x3f6573b4	0.89629674
148	0x3f65d0d0	0.8977175
149	0x3f711ca7	0.94184345
150	0x3f5a0611	0.85165507
151	0x3f5a994b	0.85390157
152	0x3f795d35	0.9740785
153	0x3f61bc4a	0.8817793
154	0x3f66f729	0.90220886
155	0x3f65762d	0.89633447
156	0x3fb2c6a5	1.3966872
157	0x3f902630	1.1261654
158	0x3f83fd0a	1.0311596
159	0x3f7324ad	0.9497784
160	0x3f67dc79	0.9057079
161	0x3f5c2132	0.8598815
162	0x3f5deb4b	0.86687154
163	0x3f975358	1.182231
164	0x3f799379	0.9749065
165	0x3f9ad71b	1.2096895
166	0x3f7b177c	0.9808271
167	0x3f82ef6d	1.0229317
168	0x3f580333	0.8437988
169	0x3f6971a7	0.91189045
170	0x3f731aff	0.9496307
171	0x3f993897	1.1970395
172	0x3f6e0ebe	0.92991245
173	0x3f71a2d9	0.9438911
174	0x3f5cdf31	0.86278063
175	0x3f994091	1.1972829
176	0x3fa55a2d	1.2918144
177	0x3f83b2f2	1.0288985
178	0x3f8fcbd4	1.1234078
179	0x3f8901b6	1.0703647
180	0x3f6fd233	0.93680114
181	0x3f661b8f	0.898858
182	0x3f743cfa	0.9540554
183	0x3f6f3009	0.9343267
184	0x3f6ccc58	0.92499304
185	0x3f6f920d	0.9358223
186	0x3f68ceda	0.9094063
187	0x3f6bc9b2	0.9210464
188	0x3f6d965b	0.9280755
189	0x3fb244f5	1.3927294
190	0x3f91120c	1.1333632
191	0x3f5b62a4	0.8569739
192	0x3fa049de	1.2522542
193	0x3f702eb1	0.93821245
194	0x3f9bcddd	1.21722
195	0x3f5dff70	0.8671789
196	0x3f797cb9	0.97455937
197	0x3f9aa83d	1.2082592
198	0x3f6462d9	0.8921333
199	0x3f5a0d55	0.85176593
200	0x3f7a95d1	0.9788485
201	0x3f7f5d12	0.9975139
202	0x3f8a33e2	1.0797083
203	0x3f7ff889	0.9998861
204	0x3f6ec183	0.93264025
205	0x3f5a79fa	0.8534237
206	0x3f648925	0.89271766
207	0x3f904682	1.1271517
208	0x3f9bfa32	1.2185729
209	0x3f7d0237	0.98831505
210	0x3f753f78	0.9579997
211	0x3f7cb094	0.98706937
212	0x3f562dee	0.83663833
213	0x3f8c1915	1.0945154
214	0x3f71a5d5	0.94393665
215	0x3f4b06e7	0.7930741
216	0x3f75735b	0.95879143
217	0x3f95faf3	1.1717209
218	0x3f70ae89	0.9401632
219	0x3f7632b0	0.96171093
220	0x3f5548ce	0.83314216
221	0x3f68e498	0.90973806
222	0x3f798cbe	0.9748038
223	0x3f8f5e60	1.1200676
224	0x3f63c5ca	0.8897368
225	0x3f86fcac	1.0545859
226	0x3f8bd526	1.0924423
227	0x3f750ef2	0.9572593
228	0x3f7af9bc	0.98037314
229	0x3f557c4d	0.8339279
230	0x3f641802	0.89099133
231	0x3f4d7ec1	0.80271536
232	0x3f5984e3	0.84968394
233	0x3f58a959	0.84633404
234	0x3f9ea371	1.2393628
235	0x3f57668a	0.8414084
236	0x3f7955e7	0.973967
237	0x3f7774aa	0.9666239
238	0x3f537104	0.82594323
239	0x3f5f2623	0.87167567
240	0x3f43b569	0.76448685
241	0x3f5a6254	0.85306287
242	0x3f8a4755	1.0803019
243	0x3f7d6d30	0.9899473
244	0x3f78bbc9	0.9716154
245	0x3f5faee4	0.87376237
246	0x3fb83ea2	1.4394114
247	0x3f496c08	0.7868047
248	0x3f76dd38	0.96431303
249	0x3f623769	0.883658
250	0x3f816241	1.010811
251	0x3f9cdb53	1.2254432
252	0x3f670870	0.9024725
253	0x3f518ede	0.81858623
254	0x3f51f896	0.8201994
255	0x3f52482d	0.8214138

bn1.bias f4 [256]
0	0xbeabb642	-0.3353749
1	0xbd73ee2f	-0.05955332
2	0xbe42da03	-0.19028477
3	0xbde41870	-0.111374736
4	0xbe0e783c	-0.13913053
5	0xbd8a0e0f	-0.06740963
6	0xbde5c39f	-0.112189524
7	0xbda0d5b5	-0.078532614
8	0xbe5e8d1d	-0.21733518
9	0xbe4a26fd	-0.19741435
10	0xbe22932c	-0.15876454
11	0xbe6b2c5f	-0.22966145
12	0xbe7a37fd	-0.2443542
13	0xbda374c5	-0.079812564
14	0xbe19c430	-0.15016246
15	0xbe7ed95c	-0.24887604
16	0xbe2d20b3	-0.16907005
17	0xbe8dcccc	-0.2769531
18	0xbdc0e249	-0.094181605
19	0xbe053409	-0.13008131
20	0xbe6ba588	-0.23012364
21	0x3c247b19	0.010039114
22	0xbe1a54a1	-0.15071346
23	0xbe6265d3	-0.22109155
24	0xbe5f8e54	-0.21831638
25	0xbe765d0a	-0.24058929
26	0xbe22be22	-0.15892842
27	0xbe00f8c8	-0.12594903
28	0x3ce64d52	0.028113041
29	0xbdd95d4e	-0.106134996
30	0xbe9bfd44	-0.30466664
31	0xbdf3d9ee	-0.11906801
32	0xbe613703	-0.21993642
33	0xbe23404c	-0.15942496
34	0xbda8bfc5	-0.08239702
35	0xbe0f9dad	-0.14024992
36	0xbe25cf8c	-0.16192454
37	0xbe05316d	-0.13007136
38	0xbe6a7b23	-0.22898535
39	0x3d548ea5	0.05189385
40	0xbeb3d5ff	-0.35124204
41	0xbe1c05f8	-0.15236652
42	0xbea7a643	-0.32744035
43	0xbc875de0	-0.016524255
44	0xbe5ffb27	-0.21873151
45	0xbe2383b3	-0.15968208
46	0xbd94a95c	-0.07258865
47	0xbdecc52b	-0.11561044
48	0xbdb750d7	-0.08950966
49	0xbe5f0f6a	-0.21783224
50	0xbdaa34b0	-0.083108306
51	0xbe3760d0	-0.17908025
52	0xbd68e197	-0.056855764
53	0xbdfbdf08	-0.12298399
54	0xbde0b421	-0.10971857
55	0xbe66348f	-0.22480987
56	0xbe132bbe	-0.14372155
57	0xbdd21950	-0.10258734
58	0xbe1ef3c4	-0.15522677
59	0xbe396cbc	-0.18107885
60	0xbde59929	-0.112108536
61	0xbe618db4	-0.22026712
62	0xbe8113df	-0.25210473
63	0xbdb5b7ce	-0.088729486
64	0xbe48efc9	-0.19622721
65	0x3d91e1b6	0.07123129
66	0xbe383e15	-0.17992432
67	0xbda13d21	-0.078729875
68	0xbe4f6be4	-0.20256001
69	0xbdeabdec	-0.11462006
70	0xbd78fffc	-0.060791
71	0xbe0d3dff	-0.13793181
72	0xbe143db4	-0.14476663
73	0xbe5549c3	-0.20828919
74	0xbe291d5e	-0.16515109
75	0xbe14a4d2	-0.14515999
76	0xbd943da7	-0.07238322
77	0xbe4535c4	-0.19258791
78	0x3ce3a5d3	0.027789032
79	0xbe218a85	-0.15775497
80	0xbe45dfd1	-0.1932366
81	0xbe276412	-0.16346768
82	0xbe9bfc2e	-0.30465835
83	0xbd55e8ee	-0.052224092
84	0xbeae2605	-0.34013382
85	0xbe2baac7	-0.16764365
86	0xbc1af954	-0.0094588585
87	0xbdcb8a37	-0.09938472
88	0xbe134c8b	-0.14384668
89	0xbe75fe7e	-0.24022862
90	0xbdcaf742	-0.09910442
91	0xbe1de800	-0.15420532
92	0xbe1928d4	-0.14956981
93	0xbe2ef529	-0.17085709
94	0xbe30160e	-0.17195913
95	0xbdef07bd	-0.11671398
96	0xbe78501d	-0.24249311
97	0xbe2957a0	-0.16537333
98	0xbe9a5a8b	-0.30147204
99	0xbe57c29e	-0.21070334
100	0xbe9bb98b	-0.30414996
101	0xbe0f2989	-0.13980688
102	0xbe34e118	-0.17663991
103	0xbde8ae55	-0.11361376
104	0xbe4604c6	-0.19337758
105	0xbdc96b32	-0.09834899
106	0xbdd931c2	-0.10605194
107	0xbdc11b39	-0.094290204
108	0xbeb4d089	-0.3531535
109	0xbcf100b1	-0.029419275
110	0xbcbbe5f5	-0.0229368
111	0xbe7d13c2	-0.24714568
112	0xbed3af03	-0.4134446
113	0xbe082926	-0.13296947
114	0xbe62472a	-0.2209746
115	0xbdeb726e	-0.11496435
116	0xbe141905	-0.14462669
117	0xbe681ecf	-0.22668003
118	0xbde51b68	-0.11186868
119	0xbe9b4307	-0.30324575
120	0xbe1d244c	-0.15345877
121	0xbe922d3a	-0.2855013
122	0xbe528a6e	-0.20560619
123	0xbe202eee	-0.15642902
124	0xbe6abf7e	-0.22924611
125	0xbdf5547d	-0.119790055
126	0xbe807e74	-0.25096476
127	0xbda65616	-0.08121888
128	0xbdafad80	-0.085780144
129	0xbcab72c6	-0.020928752
130	0xbe4a920b	-0.19782273
131	0xbe4e4f5c	-0.2014746
132	0xbe2dd176	-0.16974434
133	0xbbed7f5d	-0.007247849
134	0xbd2cb6ac	-0.042166397
135	0xbddb7e31	-0.107174285
136	0xbe6fd7ac	-0.23422116
137	0xbe0deef1	-0.1386068
138	0xbeb0bf50	-0.3452096
139	0xbe9899d7	-0.2980487
140	0xbe13152a	-0.14363542
141	0xbe504d18	-0.20341909
142	0xbe5883ab	-0.21143977
143	0xbe48b3a3	-0.19599776
144	0xbe1a1533	-0.1504715
145	0xbe6b0f4f	-0.22955059
146	0xbe262b9c	-0.16227573
147	0xbd59e474	-0.053196386
148	0xbc84efbb	-0.016227594
149	0xbdee158e	-0.11625205
150	0xbe74c598	-0.23903501
151	0xbde61fe1	-0.11236549
152	0xbe78b42d	-0.24287482
153	0xbd5a1fda	-0.053253032
154	0xbe923d09	-0.2856219
155	0xbe50d730	-0.20394588
156	0xbe725b69	-0.23667683
157	0xbe13ab9d	-0.14420934
158	0xbd8b144d	-0.067909814
159	0xbd8638b9	-0.06553788
160	0xbe03282d	-0.12808295
161	0xbe4d4f91	-0.20049883
162	0xbe104c3b	-0.1409158
163	0xbe42cbfd	-0.19023128
164	0xbe21f4ba	-0.15816012
165	0xbe3a30d5	-0.1818269
166	0xbdfe2681	-0.12409688
167	0xbe4818a9	-0.19540657
168	0xbe53b71b	-0.20675318
169	0xbe8ebc2e	-0.27877945
170	0xbe534236	-0.20630726
171	0xbe7c126a	-0.246164
172	0xbd792169	-0.060822878
173	0xbdfd5b39	-0.12370915
174	0xbe31cdfc	-0.17363733
175	0xbe517b06	-0.20457086
176	0xbe8f2136	-0.27955025
177	0xbe213b94	-0.15745384
178	0xbe42ee58	-0.19036233
179	0xbddb4af8	-0.107076585
180	0xbece623b	-0.4030932
181	0xbe837fd3	-0.2568346
182	0xbdee444f	-0.116341226
183	0xbe375808	-0.17904675
184	0xbe5eb9e3	-0.21750598
185	0xbe90fc5f	-0.28317544
186	0xbe3468f7	-0.17618166
187	0xbe317631	-0.17330243
188	0xbe2cf494	-0.16890174
189	0xbe8fd3d2	-0.28091294
190	0xbe111c32	-0.14170912
191	0xbe8e5962	-0.2780257
192	0xbe0c1f7b	-0.13683884
193	0xbe940a97	-0.2891433
194	0xbe39faf3	-0.18162136
195	0xbe521d5e	-0.20519015
196	0xbcd343fc	-0.025789253
197	0xbe609cce	-0.21934816
198	0xbe5d7a56	-0.21628699
199	0xbd15b73f	-0.03655171
200	0xbce3af94	-0.027793683
201	0xbc97f70c	-0.018550418
202	0xbe1721d4	-0.14758998
203	0xbe0b9bc4	-0.13633639
204	0xbe2918d1	-0.16513373
205	0xbdab2978	-0.08357519
206	0xbe1d1878	-0.15341365
207	0xbe425b4d	-0.18980141
208	0xbe5be51c	-0.21474117
209	0xbe868fe4	-0.26281655
210	0xbe4b30df	-0.19842862
211	0xbe1dd92c	-0.15414876
212	0xbe10ace4	-0.14128453
213	0xbe00eb77	-0.12589823
214	0xbd70df18	-0.05880651
215	0xbcddb45a	-0.027063537
216	0xbec8880c	-0.39166296
217	0xbe6d4792	-0.23171833
218	0xbe2ffa17	-0.17185245
219	0xbe05cc1f	-0.13066147
220	0xbea8f23b	-0.32997307
221	0xbe88f1b1	-0.26746896
222	0xbe0b39f3	-0.13596325
223	0xbe09d51a	-0.13460198
224	0xbeb8d888	-0.361027
225	0xbe2ca076	-0.16858086
226	0xbe53da44	-0.2068873
227	0xbd314346	-0.043277048
228	0x3c74270e	0.0149018895
229	0xbe2f24c7	-0.17103873
230	0xbe944785	-0.28960815
231	0xbe464b58	-0.19364679
232	0x3dbda659	0.09260244
233	0xbe16e574	-0.14735967
234	0xbe1ec3aa	-0.15504327
235	0x3c056edc	0.008144107
236	0xbd9ca969	-0.076495
237	0xbd9cf05c	-0.076630324
238	0xbdcc96ae	-0.09989677
239	0x3ed0ab79	0.40755823
240	0xbe270792	-0.16311482
241	0xbe9901e0	-0.29884243
242	0xbe8c3ff7	-0.2739255
243	0xbd5cc667	-0.05390015
244	0xbdadb019	-0.084808536
245	0xbe419c8c	-0.18907374
246	0xbe8d06f5	-0.2754437
247	0xbd3ae62a	-0.045629658
248	0xbe442ae7	-0.19156991
249	0xbe406aed	-0.18790789
250	0xbe6072c6	-0.21918783
251	0xbe6cab5a	-0.2311224
252	0xbe890baa	-0.2676671
253	0xbe47337f	-0.19453238
254	0x3bfdcf4a	0.007745658
255	0x3d9a4f5d	0.075346686

bn1.running_mean f4 [256]
0	0xbea49a32	-0.32148892
1	0x3d1855fb	0.037191372
2	0xbe522681	-0.205225
3	0x3da8e0ad	0.082459785
4	0x3e28467b	0.16433136
5	0x3e75c0bf	0.23999308
6	0xbe8025f4	-0.25028956
7	0xbe3ea643	-0.18618111
8	0x3e5c82c0	0.21534252
9	0xbe37aa9d	-0.17936178
10	0xbeb311db	-0.3497456
11	0xbe85928b	-0.26088366
12	0xbe3389df	-0.17533062
13	0x3e4280a0	0.18994379
14	0xbd677aa9	-0.056513462
15	0xbe67e6f5	-0.22646697
16	0xbe85791e	-0.26068968
17	0x3e5d6367	0.2161995
18	0x3e05242a	0.13002077
19	0xbe0b21a1	-0.13587047
20	0x3e19d192	0.15021351
21	0xbe71ed9c	-0.23625797
22	0xbcabc890	-0.02096966
23	0x3e3a0e4d	0.18169518
24	0x3c060337	0.008179477
25	0x3d392078	0.04519698
26	0xbe8cb419	-0.27481154
27	0x3e52eb07	0.20597468
28	0xbe1dc996	-0.1540893
29	0x3e93a3e0	0.28835964
30	0x3ea010cd	0.31262818
31	0x3e614af8	0.22001255
32	0xbe6931ee	-0.22772953
33	0x3e91d396	0.2848174
34	0xbe14e35a	-0.14539853
35	0x3e463513	0.19356184
36	0x3e91394e	0.28364033
37	0xbdfd1528	-0.12357551
38	0xbeac10ad	-0.33606473
39	0xbd41ecb6	-0.047344886
40	0x3e055312	0.1301997
41	0x3e57c424	0.21070915
42	0xbca57470	-0.020197123
43	0xbe666ae1	-0.22501709
44	0x3e2730b8	0.16327178
45	0x3c522982	0.012827279
46	0xbe22a4de	-0.15883204
47	0x3e925302	0.28578955
48	0xbe00049e	-0.12501761
49	0x3e817daa	0.25291187
50	0x3d8a5e0e	0.06756221
51	0x3ea79857	0.32733414
52	0xbea6bcf5	-0.32566038
53	0x3d5cc408	0.053897887
54	0x3eb4bde0	0.35301113
55	0xbe331a25	-0.17490442
56	0x3e8fbd53	0.2807413
57	0xbd8d8578	-0.06910223
58	0xbe6cf85e	-0.2314162
59	0xbda38e0b	-0.07986077
60	0xbdde9d9b	-0.108699046
61	0x3e629043	0.22125344
62	0xbde3e1c4	-0.11127046
63	0x3db94e7c	0.09048173
64	0xbea95a30	-0.3307662
65	0x3daa6849	0.08320672
66	0xbe7a9751	-0.24471785
67	0x3e369671	0.17830826
68	0x3e1b05f2	0.15138987
69	0xbdc7672c	-0.09736475
70	0xbeb3ea41	-0.3513966
71	0xbdb0e46f	-0.0863732
72	0x3e5361bb	0.2064275
73	0xbc9ecd0d	-0.019384885
74	0x3d6a4479	0.057194207
75	0xbe972185	-0.2951776
76	0x3e10be85	0.14135177
77	0x3d36a9d9	0.044595573
78	0x3de58eb8	0.11208862
79	0xbe901817	-0.2814338
80	0xbd167054	-0.03672822
81	0xbc89acc7	-0.01680602
82	0xbd5ce7be	-0.053931944
83	0xbe2c9be4	-0.16856343
84	0x3da2491d	0.079241015
85	0x3eb6ed47	0.35727903
86	0xbc5fba10	-0.013655201
87	0xbea6968f	-0.32536742
88	0xbd8fa36c	-0.07013592
89	0x3deaa0a4	0.11456421
90	0x3e508478	0.20363033
91	0x3d607718	0.054801077
92	0xbdea4fff	-0.11441039
93	0xbdc90591	-0.09815515
94	0xbd22c59a	-0.03973923
95	0x3e8d90c3	0.27649507
96	0x3e5814ab	0.21101634
97	0x3e30bc27	0.17259274
98	0x3ea6579f	0.32488725
99	0x3e25aeee	0.16180012
100	0xbd68778a	-0.056754626
101	0x3e92d31b	0.28676686
102	0x3a8e95c0	0.0010878369
103	0xbd92ffa4	-0.07177666
104	0xbe74f580	-0.23921776
105	0xbe05538e	-0.13020155
106	0xbe285f4f	-0.16442607
107	0x3db98842	0.09059192
108	0x3defb012	0.117035046
109	0xbcf51cda	-0.029920984
110	0x3def5db4	0.11687794
111	0x3e3813d2	0.17976311
112	0xbe9f230c	-0.31081426
113	0x3c80e70c	0.015735172
114	0x3e997183	0.29969415
115	0xbdf4f269	-0.119602986
116	0x3e2b1ac9	0.16709436
117	0xbe8325ba	-0.2561472
118	0xbe34a3ff	-0.17640685
119	0xbdd9e3a3	-0.106391214
120	0x3c631893	0.013860839
121	0x3db8e052	0.09027161
122	0x3e8d1daa	0.27561694
123	0x3c7bea4f	0.015375688
124	0xbea6112d	-0.3243498
125	0x3c07bc68	0.008284666
126	0xbe996fcd	-0.2996811
127	0x3e0d9696	0.13826975
128	0xbdaa1207	-0.0830422
129	0x3e35a9ce	0.17740557
130	0xbe6a4791	-0.22878863
131	0x3ae21740	0.0017249361
132	0x3e993cf1	0.29929307
133	0x3eb4724c	0.35243452
134	0xbe14e1a9	-0.14539208
135	0x3ea6d7b0	0.32586432
136	0x3e7953bb	0.24348347
137	0xbd1beaf9	-0.038065884
138	0xbead09e3	-0.33796605
139	0xbd847fb7	-0.06469672
140	0xbe5b5d63	-0.21422343
141	0xbe0062b7	-0.12537657
142	0x3ea1641a	0.31521684
143	0xbe1d5ece	-0.15368196
144	0xbdb1c044	-0.0867925
145	0x3d903b50	0.07042563
146	0x3e36c0cd	0.17846985
147	0xbea25752	-0.31707245
148	0xbcce71d8	-0.02520077
149	0x3ddb8d96	0.10720365
150	0xbe5271fc	-0.20551294
151	0xbe66e75a	-0.22549191
152	0xbc678b22	-0.014132293
153	0x3e439efe	0.1910362
154	0x3e2c7762	0.16842416
155	0xbcfa0689	-0.030520694
156	0x3e4da0f4	0.2008093
157	0xbeb88cf3	-0.36045036
158	0xbe63733f	-0.22211932
159	0x3e0bc26c	0.13648385
160	0xbe0c1064	-0.13678128
161	0xbe0117ea	-0.12606779
162	0x3e619685	0.22030075
163	0xbdf34438	-0.11878246
164	0xbe3ccef5	-0.18438323
165	0xbd22ad48	-0.039716035
166	0x3ea963fc	0.33084095
167	0xbe28c664	-0.1648193
168	0x3e00189f	0.12509392
169	0xbddf4b87	-0.109030776
170	0xbdbc014a	-0.09179933
171	0x3dbc9670	0.09208381
172	0x3e94f8d5	0.29096094
173	0x3e9e85d4	0.30961478
174	0x3e9d43ac	0.30715692
175	0xbebc8c43	-0.3682576
176	0xbe87ff34	-0.26561892
177	0xbeb4c12e	-0.35303634
178	0x3e76ed0e	0.24113867
179	0xbd99c754	-0.07508722
180	0x3dfacd52	0.12246193
181	0xbde6b182	-0.11264326
182	0x3e29f0b3	0.16595726
183	0xbe161327	-0.14655744
184	0xbc39955e	-0.011327116
185	0xbb3d12a0	-0.0028850213
186	0x3e0c8fab	0.1372668
187	0xbea412de	-0.32045645
188	0xbe856873	-0.2605625
189	0xbe5efed7	-0.21776901
190	0x3e7ce576	0.24696907
191	0xbe3d95a1	-0.1851411
192	0x3e94e4f0	0.29080915
193	0xbe429210	-0.19001031
194	0x3dc922fb	0.09821125
195	0xbd88db82	-0.06682493
196	0xbe29f957	-0.16599022
197	0xbe3f72bb	-0.1869611
198	0xbd8dfa34	-0.06932488
199	0x3dd7a5e4	0.10529688
200	0xbc80a9c1	-0.015705945
201	0xbdc2dd0d	-0.09514818
202	0xbe35248f	-0.17689727
203	0x3c2ef995	0.010679622
204	0xbe9c462d	-0.3052229
205	0x3e8eb4cb	0.2787231
206	0xbe5b556c	-0.21419305
207	0xbe034b53	-0.12821703
208	0xbd3695e1	-0.04457653
209	0xbcb40c86	-0.021978628
210	0x3e3df366	0.1854988
211	0xbd9d470d	-0.076795675
212	0x3e8662a4	0.26247132
213	0x3e6259c1	0.22104551
214	0x3bae255f	0.0053145136
215	0xbea93c5e	-0.3305387
216	0x3e7b9562	0.24568704
217	0xbe871466	-0.2638275
218	0xbde9482c	-0.11390719
219	0x3e3d6440	0.18495274
220	0x3d8d79d2	0.06908001
221	0x3e47220f	0.19446586
222	0x3ce788a6	0.028263401
223	0xbeb986d8	-0.3623569
224	0x3de56969	0.11201746
225	0xbe5bc3c6	-0.214614
226	0xbd946cff	-0.07247352
227	0x3e1f9f34	0.15588075
228	0x3db2e7bd	0.08735607
229	0x3e78a64e	0.2428219
230	0x3e1be6a6	0.15224704
231	0xbde877aa	-0.11350949
232	0xbe5a018b	-0.21289651
233	0x3e851011	0.2598882
234	0xbd9baf3d	-0.076017834
235	0x3dada7fe	0.084793076
236	0x3e4715b8	0.19441879
237	0x3e3bed6e	0.18352291
238	0x3e5b4d54	0.21416217
239	0xbe2f1f56	-0.17101797
240	0x3e81d2a4	0.2535602
241	0x3eb2da63	0.3493224
242	0xbe631367	-0.2217537
243	0x3e73b821	0.23800708
244	0xbea1005c	-0.31445587
245	0xbe457f5b	-0.19286864
246	0xbe71d983	-0.2361813
247	0xbdd35cf7	-0.10320466
248	0xbda7b5a4	-0.08188942
249	0x3c0c358c	0.008557688
250	0xbceb49d2	-0.028721724
251	0xbead05a9	-0.3379338
252	0xbddfb881	-0.10923863
253	0xbd213312	-0.039355345
254	0x3d11609a	0.035492517
255	0xbe9595d5	-0.29215875

bn1.running_var f4 [256]
0	0x3ea6dda0	0.3259096
1	0x3fbd1c6d	1.47743
2	0x3eeef54d	0.46671525
3	0x3f0338d4	0.5125859
4	0x3ea9e060	0.33178997
5	0x3e8abc2b	0.27096686
6	0x3e33d2cb	0.1756088
7	0x3e53c351	0.20679976
8	0x3e99ccca	0.30039054
9	0x3e8f6b97	0.28011772
10	0x3eb45e93	0.35228404
11	0x3fbf92be	1.4966657
12	0x3f8c3c44	1.0955892
13	0x3ef01f4d	0.4689888
14	0x3e529d38	0.20567787
15	0x3e817203	0.25282297
16	0x3f0b857f	0.54500574
17	0x3ead34e7	0.33829424
18	0x3e06b106	0.13153467
19	0x3edd4d3d	0.4322299
20	0x4020cdd8	2.5125637
21	0x3da3a05f	0.07989573
22	0x3e94c6db	0.29057965
23	0x3ec4ae25	0.38414112
24	0x3e8a4121	0.27002814
25	0x3dec7709	0.11546142
26	0x3f2ee65b	0.68320245
27	0x403309fb	2.7974842
28	0x3e9fc33f	0.31203648
29	0x3d7a69c9	0.06113604
30	0x3eb48aa6	0.3526203
31	0x3e84e35d	0.25954714
32	0x3e9a6589	0.3015559
33	0x3d95775a	0.07298155
34	0x4002e972	2.0454984
35	0x3e83d521	0.25748542
36	0x3e81e411	0.25369313
37	0x3f721667	0.94565433
38	0x3ee7b7a3	0.4525729
39	0x3e541a5f	0.20713185
40	0x3ee95316	0.45571202
41	0x3e5eaf74	0.21746618
42	0x3e5056bb	0.20345585
43	0x3f00032b	0.50004834
44	0x3e92653f	0.2859287
45	0x3eaee62a	0.34159976
46	0x3f60f63c	0.87875724
47	0x3e14ff03	0.14550404
48	0x3f713725	0.9422477
49	0x3edf72e7	0.4364235
50	0x3e030e8b	0.12798516
51	0x3ef3ee64	0.47642815
52	0x3ebad0d7	0.36487457
53	0x3ea80022	0.328126
54	0x3e1a1c32	0.15049818
55	0x3fae704f	1.3628024
56	0x3e926299	0.2859085
57	0x3ea573f4	0.32315028
58	0x3ec529c9	0.38508442
59	0x3eca7eba	0.3954981
60	0x40181c12	2.3767133
61	0x3de9b82e	0.114120826
62	0x3f2795d4	0.65462995
63	0x3f72aaac	0.94791675
64	0x3fa05b20	1.2527809
65	0x3dd9e42a	0.10639222
66	0x3ebc1c2d	0.36740246
67	0x3ef55afe	0.47920984
68	0x40305cbe	2.7556605
69	0x3e6d4852	0.2317212
70	0x3daa9c61	0.08330608
71	0x3e92f545	0.2870275
72	0x3e7cd0d1	0.24689032
73	0x3ea5e85b	0.32403836
74	0x3ecf8956	0.40534467
75	0x3d4a93c7	0.049457338
76	0x3ee74697	0.45171043
77	0x3e8bf103	0.27332315
78	0x3ebd8421	0.3701487
79	0x3fd4099c	1.6565433
80	0x3e548e0f	0.20757316
81	0x3ebd2312	0.3694082
82	0x3e71427e	0.23560521
83	0x403847c2	2.8793797
84	0x3f027d44	0.5097239
85	0x3f53f139	0.8278995
86	0x3e25e9ca	0.16202465
87	0x3f83830f	1.0274371
88	0x3df544ae	0.1197599
89	0x4064271d	3.5648873
90	0x3e75791b	0.2397198
91	0x3eacf648	0.33781648
92	0x3ec58de6	0.38584822
93	0x4030a1b6	2.75987
94	0x3edd84bf	0.4326534
95	0x3fb84bed	1.4398171
96	0x3ed2e896	0.41193074
97	0x3ebe68d1	0.37189344
98	0x3e718216	0.2358478
99	0x402e2b77	2.721403
100	0x3ee052d8	0.43813205
101	0x3f0963ba	0.53667796
102	0x3f8957cc	1.0729918
103	0x3d62ae08	0.05534175
104	0x3e83f3e9	0.25772026
105	0x3f31fea6	0.6952919
106	0x3efe1b71	0.4963031
107	0x3eced206	0.4039461
108	0x3e89b0fe	0.26892847
109	0x3e159668	0.14608157
110	0x3ec2458b	0.37943682
111	0x40069b1e	2.1032176
112	0x3e679d52	0.22618607
113	0x3dca49d2	0.09877361
114	0x3e9598fa	0.29218274
115	0x3e8bc22f	0.27296588
116	0x3fa3188d	1.2741867
117	0x3ec8a3f8	0.39187598
118	0x3f48297c	0.781883
119	0x3e5550cb	0.20831601
120	0x3dcdc58f	0.10047447
121	0x3e7ddd98	0.24791563
122	0x3eaab684	0.33342373
123	0x3e8059ec	0.25068605
124	0x3eca1469	0.39468697
125	0x3ebf1a72	0.37324864
126	0x3ef9c631	0.4878402
127	0x3e6d72c0	0.23188305
128	0x3ebad1b2	0.3648811
129	0x3f7857ae	0.9700879
130	0x3ee2f8f6	0.44330567
131	0x3f7b2d6d	0.9811619
132	0x3e448582	0.19191554
133	0x3e54e0cb	0.20788877
134	0x3dd0a30d	0.101873495
135	0x3eb51c66	0.3537323
136	0x3fbc030a	1.4688427
137	0x3efeefd2	0.49792343
138	0x3e9baf09	0.3040698
139	0x3e944ec9	0.28966358
140	0x3e8f50a1	0.27991202
141	0x3e08333e	0.13300797
142	0x3fc9dca1	1.5770456
143	0x3ed9f79a	0.42571718
144	0x3ed38a41	0.41316417
145	0x3f032bf3	0.51238936
146	0x40b17a83	5.546205
147	0x3e0642a2	0.13111356
148	0x3f034046	0.5126995
149	0x3f11f91d	0.5702074
150	0x3ebddef6	0.37084168
151	0x3f090277	0.53519386
152	0x3e25236d	0.16126795
153	0x3e932da7	0.28745767
154	0x3dd4dfb8	0.103942335
155	0x3f1eb34e	0.6199235
156	0x3e728efa	0.23687354
157	0x3f8350fb	1.0259088
158	0x3f233079	0.6374584
159	0x3e3726eb	0.1788594
160	0x3e87a139	0.2649019
161	0x3e9a94e9	0.30191734
162	0x3ec17bb9	0.37789705
163	0x3f71d57a	0.94466364
164	0x3ea58f70	0.32335997
165	0x3f119fa3	0.5688421
166	0x3fc64785	1.5490576
167	0x3ed9a532	0.42508847
168	0x3df0e4f6	0.11762421
169	0x3e568405	0.20948799
170	0x3f1df16b	0.616965
171	0x3fdd96b1	1.7311612
172	0x3e67c02e	0.22631904
173	0x3f7a0f49	0.97679573
174	0x3f56da53	0.83926886
175	0x3f9a218c	1.2041488
176	0x3e3ef03e	0.18646333
177	0x400c54a4	2.192666
178	0x3f74d507	0.95637554
179	0x3e9dcff9	0.30822733
180	0x3f128861	0.5723935
181	0x3ebb3ee6	0.36571425
182	0x3e89de9c	0.2692765
183	0x3ffb5132	1.9634154
184	0x3f1e3b03	0.61808795
185	0x3e532f99	0.20623626
186	0x3ebdfa1f	0.3710489
187	0x3e972d58	0.29526782
188	0x3e27719b	0.16351931
189	0x3fb21c3c	1.3914866
190	0x3f4b9df9	0.7953792
191	0x3e3d9113	0.18512373
192	0x3e456164	0.19275433
193	0x3ea49ec0	0.32152367
194	0x3ebaa946	0.3645727
195	0x3ecae329	0.39626434
196	0x3f379d3d	0.717243
197	0x3f901e23	1.1259197
198	0x3e08d4ab	0.13362376
199	0x3f37f0e4	0.71851945
200	0x3e12b233	0.1432579
201	0x3e480f71	0.1953714
202	0x3f7d40b2	0.9892684
203	0x3ebe2e18	0.37144542
204	0x3eb72882	0.35773093
205	0x3f07be08	0.5302434
206	0x3f72a81f	0.9478778
207	0x4021c12c	2.5274153
208	0x3eb50a26	0.35359305
209	0x3ea6df76	0.32592362
210	0x3f05a79c	0.52208877
211	0x3e778e4f	0.2417538
212	0x3f201077	0.62525123
213	0x3fe27500	1.7691956
214	0x3dc885fb	0.0979118
215	0x3e6bcbd8	0.23026979
216	0x3e359c23	0.17735343
217	0x3ff81e92	1.9384329
218	0x3ea42783	0.32061395
219	0x3ee5ecbd	0.4490718
220	0x3e8c8d2e	0.27451462
221	0x3ec52bc8	0.38509965
222	0x3ec84b62	0.39120013
223	0x3f65d257	0.8977408
224	0x3ed58bb2	0.41708142
225	0x3fbd5d3a	1.4794075
226	0x3d8e1bb0	0.06938875
227	0x3ea249ae	0.31696838
228	0x3e68f62b	0.22750156
229	0x3ea19da2	0.31565577
230	0x3e454936	0.19266209
231	0x3f095709	0.5364843
232	0x3dd238cd	0.1026474
233	0x3e22198b	0.15830056
234	0x3f323ed9	0.6962715
235	0x3e976d70	0.29575682
236	0x3dfcff41	0.12353373
237	0x3e2eb0bb	0.17059605
238	0x3e644e93	0.22295599
239	0x3efffbf8	0.49996924
240	0x3e965342	0.29360396
241	0x3f1f9390	0.6233454
242	0x3eff93f7	0.49917576
243	0x3fb0f936	1.3826053
244	0x3f4393a0	0.7639713
245	0x3e587de8	0.2114178
246	0x3fcdde3d	1.6083447
247	0x3f7c3780	0.98522186
248	0x3ef548cc	0.47907102
249	0x3ea60b6e	0.32430595
250	0x3f2fa7d6	0.6861547
251	0x3f2422e1	0.6411572
252	0x3f4f564a	0.8099104
253	0x3eb31443	0.34976396
254	0x3e517ca7	0.20457707
255	0x3e28d582	0.16487697

fc2.weight f4 [128, 256]
0	0xbd4447dc	-0.047920093
1	0x3cc61ea4	0.024184532
2	0xbda9fd95	-0.0830032
3	0xbddecad5	-0.10878531
4	0xbc956d8e	-0.018240716
5	0xbd651ff1	-0.055938665
6	0x3d968707	0.07349973
7	0x3d88ddea	0.06682952
8	0xbcb23c85	-0.021757374
9	0xbd242fe8	-0.04008475
10	0xbe0c9b85	-0.13731201
11	0xbd7726a6	-0.060339592
12	0x3d6e6cd1	0.058209244
13	0xbe2aab83	-0.16666989
14	0xbd94900a	-0.07254036
15	0xbc8069f3	-0.01567552
16	0x3b8cb4a2	0.004293994
17	0x3d67a425	0.056553025
18	0xbc7e5f30	-0.015525624
19	0xbe460829	-0.1933905
20	0x3decf479	0.11570067
21	0x3e13c8cc	0.14432067
22	0x3e1b92e3	0.15192752
23	0x3e018bf0	0.12651038
24	0xbd1441c8	-0.036195546
25	0x3cef702b	0.02922829
26	0x3dd1a03d	0.10235641
27	0x3cea9d39	0.028639423
28	0x3be2cbb6	0.006921257
29	0x3ce1e38e	0.027574327
30	0xbe0a5d6c	-0.135122
31	0x3d030b79	0.031993363
32	0xbdc0475f	-0.09388613
33	0xbdcf4bef	-0.10121905
34	0x3dec044e	0.115242586
35	0xbd53f67f	-0.05174875
36	0x3d14dfcf	0.036346253
37	0x3be5ccd6	0.0070129437
38	0xbd92f9ad	-0.07176528
39	0x3d82744a	0.06369837
40	0xbd1f2d18	-0.038861364
41	0xbdf0d3b0	-0.11759126
42	0xbd18b67f	-0.037283417
43	0xbd2a30ea	-0.041550554
44	0xbc7ed7df	-0.015554397
45	0x3d6689d7	0.056283798
46	0xbdcdc955	-0.10048167
47	0xbdab2085	-0.08355812
48	0xbce7aaed	-0.028279746
49	0xbe06e317	-0.13172565
50	0xbd9c203f	-0.07623338
51	0xbd819ac4	-0.06328347
52	0xbdc43cb6	-0.09581892
53	0x3d266333	0.040621947
54	0x3c4ae92f	0.012384697
55	0x3d8a6fe4	0.06759623
56	0xbc8cd140	-0.017189622
57	0xbd759cff	-0.059964176
58	0xbd74b72d	-0.059745003
59	0x3d2fa7ee	0.04288476
60	0x3d7c5dcb	0.061612885
61	0x3dbc87ad	0.092055656
62	0xbd9b1ced	-0.075738765
63	0x3de30506	0.110849425
64	0xbcb21f5c	-0.021743469
65	0x3bd15b3b	0.0063890493
66	0xbd583ba6	-0.05279126
67	0xbc6de857	-0.014520726
68	0x3e709e50	0.23497891
69	0x3ccf6831	0.025318237
70	0xbd29a63f	-0.04141831
71	0xbd7bcf7a	-0.061477162
72	0xbd513102	-0.051072128
73	0xbe75c100	-0.23999405
74	0x3a888bb4	0.0010417611
75	0xbd8ce2b7	-0.0687918
76	0xbcff4cd5	-0.031164566
77	0x3b38c1c0	0.0028191656
78	0x3cf4fc85	0.029905567
79	0x3d7659cf	0.060144242
80	0xbb22efba	-0.0024862126
81	0xbc888ffc	-0.01667022
82	0x3c637ac2	0.013884248
83	0x3da371e2	0.07980706
84	0x3cf8e726	0.030383658
85	0x3e0674c2	0.13130477
86	0x3da5786a	0.08079608
87	0x3c953185	0.01821209
88	0xbd5a927f	-0.053362366
89	0x3e4dde4e	0.20104334
90	0x3d0d304e	0.034469895
91	0x3cabdf8b	0.020980617
92	0xbc166364	-0.00917897
93	0x3e0cd269	0.1375214
94	0xbd1d0b4f	-0.038340863
95	0x3dfe5096	0.12417714
96	0x3c12d6de	0.008962361
97	0xbca8cd73	-0.020605778
98	0x3b84c095	0.004051278
99	0x3e18a063	0.14904933
100	0x3cdc8819	0.026920365
101	0xbdd8b945	-0.10582212
102	0x3d0eadbb	0.03483365
103	0x3d8e23e0	0.06940436
104	0xbd8adbff	-0.06780242
105	0xbca1e2d3	-0.019761479
106	0xbe33e3a2	-0.17567304
107	0xbd50c0c8	-0.0509651
108	0xbe3c673d	-0.18398757
109	0xbbb4f63b	-0.005522517
110	0xbd2ddf05	-0.042449016
111	0x3e28a9d4	0.16471034
112	0x3d412220	0.047151685
113	0xbd1fcdfe	-0.03901481
114	0x3d9e7eab	0.07739004
115	0x3b236b48	0.002493577
116	0x3c0135fc	0.007886406
117	0xbdb0d629	-0.08634598
118	0x3dc07e37	0.093990736
119	0x3acb02be	0.0015488488
120	0xbd9d38de	-0.07676862
121	0xbda1b363	-0.078955434
122	0xbe0fc465	-0.14039762
123	0x3c8037aa	0.015651543
124	0xbcbf308e	-0.023338582
125	0xbdabbdf6	-0.083858415
126	0xbbe0450a	-0.0068441676
127	0xbddcef6e	-0.10787855
128	0xbdb2a29d	-0.08722422
129	0xbd9b8b99	-0.075949855
130	0xbac902f8	-0.0015335968
131	0x3c33038e	0.0109261405
132	0xbdeff6bf	-0.11716985
133	0x3dc69066	0.096955106
134	0x3c88bff4	0.016693093
135	0xbc4ac57e	-0.012376187
136	0x3d4bf4af	0.049793895
137	0x3e2d4df7	0.16924272
138	0xbd69846f	-0.057011064
139	0xbe260b42	-0.16215232
140	0x3e0ac6c6	0.13552389
141	0xbd4d762b	-0.050161522
142	0x3daeef69	0.085417576
143	0xbd85acb6	-0.065270826
144	0xbe231932	-0.1592758
145	0x3d179cef	0.037014898
146	0x3db1eff4	0.086883456
147	0x3d3b5d5a	0.045743324
148	0xbc9cd368	-0.019143775
149	0xbd0b6996	-0.03403624
150	0xbd2a81e7	-0.04162779
151	0xbdc8de10	-0.0980798
152	0xbd8dea14	-0.069294125
153	0x3d08090f	0.033211764
154	0x3d0b791c	0.034051046
155	0x3ca79854	0.020458378
156	0x3d81d4c5	0.06339411
157	0x3d43ec2e	0.04783266
158	0x3d719593	0.058980536
159	0x3c548134	0.012970258
160	0x3c8459be	0.016156074
161	0x3ac4cb0f	0.001501413
162	0x3d5b56f1	0.05354971
163	0xbd9361d1	-0.071963914
164	0xbd3c8d27	-0.04603305
165	0x3e261d7d	0.16222186
166	0x3dbcc446	0.09217124
167	0x3cc3010d	0.023804212
168	0xba542fe6	-0.00080942956
169	0xbb373bb8	-0.002795918
170	0x3cb1c84c	0.021701954
171	0x3e4f0320	0.20216036
172	0xbcf66d1b	-0.030081322
173	0x3dfa5614	0.12223449
174	0x3c37f233	0.011227178
175	0x3c533188	0.012890227
176	0x3e1be26e	0.15223095
177	0x3de76a92	0.112996235
178	0xbdb17786	-0.086653754
179	0x3d9e4fa1	0.07730032
180	0xbe393c16	-0.18089327
181	0x39c32efc	0.00037228304
182	0xbca94836	-0.020664316
183	0x3d5d6770	0.054053724
184	0xbd2bac26	-0.04191222
185	0xbc92c334	-0.017915346
186	0x3cc5e1df	0.024155555
187	0xbdc4f3bc	-0.09616801
188	0x3d237268	0.03990403
189	0x3d279bc9	0.040920053
190	0x3dcd25ef	0.10017001
191	0xbd848562	-0.06470753
192	0xbdfc2a10	-0.1231271
193	0xbaa1dcb1	-0.0012349096
194	0xbdaa156a	-0.08304866
195	0x3db518a3	0.0884259
196	0x3d291cab	0.041287106
197	0x3d3560ce	0.044281773
198	0xbd29b5af	-0.041433033
199	0xbd21e35d	-0.03952347
200	0x3c0245fe	0.007951258
201	0xbe19420c	-0.14966601
202	0x3d8880d8	0.066652
203	0xbc5d2438	-0.013497405
204	0x3df2f321	0.118627794
205	0xbd7af09d	-0.061264623
206	0x3cf35747	0.029704703
207	0x3dffc462	0.12488629
208	0x3e0d06e0	0.13772154
209	0xbd680c82	-0.056652553
210	0xbd624332	-0.055239864
211	0xbdbbb1e1	-0.09164787
212	0xbcf0cf77	-0.029395802
213	0x3e0877c8	0.13326943
214	0xbdc3fdd0	-0.09569895
215	0xbde9a9c6	-0.11409335
216	0xbe89a604	-0.26884472
217	0x3d4f6cc9	0.050640855
218	0xbd947085	-0.07248024
219	0x3d807909	0.062730856
220	0x3c441e7a	0.011970157
221	0xbdf5a8c1	-0.11995078
222	0x3cdc6b49	0.026906626
223	0x3d9c0d37	0.07619708
224	0xbdaa6417	-0.08319872
225	0x3de5515e	0.1119716
226	0x3e2365f8	0.15956867
227	0x3df9b0ec	0.12191948
228	0xbe1e25c4	-0.15444094
229	0xbc111c43	-0.008856836
230	0xbd095c73	-0.033535432
231	0x3da15c20	0.078788996
232	0x3d443b15	0.047907908
233	0x3d69c750	0.057074845
234	0x3d4344f7	0.047673192
235	0xbc405d70	-0.011741027
236	0xbd866c9d	-0.06563685
237	0xbb274d2a	-0.002552817
238	0x3d4cc672	0.04999394
239	0x3d8de0eb	0.06927665
240	0xbd1d137d	-0.038348664
241	0xbd965370	-0.07340133
242	0xbc91033a	-0.017701734
243	0x3decfd86	0.11571793
244	0x3dfa0c82	0.12209417
245	0xbdee7930	-0.116442084
246	0xbd190872	-0.03736157
247	0xbdcc05a0	-0.099620104
248	0x3d0b1e0c	0.0339642
249	0xbd357ebf	-0.044310328
250	0xbd565d5e	-0.052335136
251	0x3e2c51a9	0.16828026
252	0x3d9f7b9b	0.07787248
253	0xbcfe441b	-0.031038335
254	0xbd4669b2	-0.048440643
255	0xbd8ee6d4	-0.06977621

fc2.bias f4 [128]
0	0x3d69aa44	0.057047144
1	0x3d51f672	0.05126042
2	0xbd774c54	-0.060375527
3	0xbce2e8c9	-0.027698891
4	0xbb3d9d44	-0.002893285
5	0xbca4d3bd	-0.020120496
6	0x3c3cbaf0	0.011519179
7	0x3c9d9d32	0.019239996
8	0xbd5e77d9	-0.054313514
9	0xbcff6d73	-0.03118012
10	0xbcb44efb	-0.022010317
11	0xbd5e2708	-0.05423644
12	0xbca56a60	-0.020192325
13	0xbcf6c442	-0.03012288
14	0xbd85369a	-0.06504555
15	0x3c393377	0.011303774
16	0x3d733c07	0.05938342
17	0x3d02796a	0.03185407
18	0x3c107ef6	0.008819332
19	0x3cb344fb	0.021883478
20	0x3d17aeb9	0.037031863
21	0xbd7519e0	-0.05983913
22	0x3cd2c1fe	0.025727268
23	0xbd08ab0c	-0.033366248
24	0x3cc7eab2	0.024403904
25	0xbd0394c4	-0.032124296
26	0xbd23960b	-0.039938014
27	0xbccebec6	-0.025237452
28	0x3d2a2cc9	0.041546617
29	0xbd1669dc	-0.03672205
30	0xbc0e2b0e	-0.008677257
31	0xbca3288b	-0.019916793
32	0x3c5e1c7b	0.013556595
33	0xb8bc9ce0	-8.993759e-05
34	0xbd075572	-0.03304047
35	0xbcfa0c7d	-0.030523533
36	0xbd47da41	-0.048792128
37	0xbd430d48	-0.047620088
38	0xbd1b16fc	-0.037863716
39	0xbd841b4d	-0.0645052
40	0x3cab358d	0.020899558
41	0x3c5ece4d	0.013598991
42	0x3d18d764	0.037314788
43	0xbd7a0356	-0.061038338
44	0x3c4321b0	0.011909887
45	0xbccdb4ff	-0.02511072
46	0xbd21c59a	-0.03949509
47	0x3d0d8f9b	0.03456078
48	0x3a6de74a	0.0009075297
49	0x3d4835b7	0.04887935
50	0x3b9217ca	0.0044584023
51	0xbc06cb8b	-0.008227239
52	0xbc0e3150	-0.008678749
53	0xbced4cf3	-0.028967356
54	0xbcfbff91	-0.030761512
55	0xbd07af1c	-0.03312598
56	0xbd06f435	-0.032947738
57	0x3d2fed29	0.042950783
58	0xbce1232c	-0.027482592
59	0x3cc2de92	0.02378777
60	0x3d5f4c30	0.054516017
61	0x3c6502bf	0.0139777055
62	0x3d1ddda6	0.03854146
63	0x3cd83470	0.026392192
64	0x3d212bc6	0.039348386
65	0x3cf11cc3	0.02943266
66	0x3d1319a3	0.03591312
67	0xbbd6e617	-0.0065581906
68	0x3d70f466	0.058826827
69	0xbd51bdb7	-0.051206317
70	0x3cac38bd	0.021023149
71	0x3d08211e	0.033234708
72	0x3ccca75a	0.024982143
73	0x3d0acb7f	0.033885475
74	0xbc5c5aa9	-0.013449349
75	0x3cae14cf	0.021250157
76	0x3d4252a6	0.0474421
77	0xbcff4d65	-0.031164834
78	0xbcfa3da1	-0.030546965
79	0xbcab7b25	-0.020932743
80	0x3d720d78	0.059094876
81	0xbcce98be	-0.025219318
82	0xbc007045	-0.007839267
83	0xbd74cae8	-0.05976382
84	0xbcee9c91	-0.029127391
85	0x3d11db59	0.035609577
86	0x3d350637	0.04419538
87	0x3b9c41ba	0.0047685774
88	0xbd6c267b	-0.057653885
89	0xbca8df3e	-0.020614263
90	0xbc6c67c1	-0.014429034
91	0xbcdf8cad	-0.02728876
92	0x3d3832b3	0.044970226
93	0x3d21cfd1	0.03950483
94	0xbcd8de12	-0.026473079
95	0xbd325a08	-0.04354289
96	0xbc794944	-0.015215222
97	0xba032976	-0.00050034316
98	0xbd696b35	-0.056987006
99	0xbbd3076d	-0.006440094
100	0x3ce5e851	0.028064879
101	0x3d3f34c2	0.046681173
102	0x3c3c1c52	0.011481361
103	0x3d0678e3	0.03283013
104	0x3ce9c93c	0.028538339
105	0xbacc0e96	-0.0015568312
106	0xbbc6d815	-0.0060682395
107	0xbc6f4e16	-0.0146060195
108	0xbc8ac4fe	-0.016939636
109	0x3d35299e	0.044229142
110	0xbb39af38	-0.0028333198
111	0xbd312090	-0.043243945
112	0x3b9233c9	0.0044617397
113	0xbcfa44ce	-0.030550387
114	0xbd4c274e	-0.04984217
115	0xbd2b4cbf	-0.041821238
116	0xbc933ce3	-0.017973369
117	0x3d64fc77	0.05590483
118	0x3b818541	0.0039526527
119	0xbc0275e0	-0.007962674
120	0x3bac8f26	0.005266088
121	0xbc862db9	-0.016379224
122	0xbd0fd679	-0.035116646
123	0xbccf35af	-0.025294153
124	0xbd0383be	-0.03210806
125	0xbb56c5b5	-0.0032771651
126	0x3c66627b	0.0140615655
127	0x3c7130c8	0.014721103
