deep_nn_pytorch.pth (torch, 199248 bytes, 22 tensors)

fc1.weight f4 [256, 8]
0	0xbf24b70a	-0.64341795
1	0xbca3c87f	-0.019993065
2	0xbd9216b3	-0.07133236
3	0x3e12992b	0.14316241
4	0x3e6eff4f	0.2333958
5	0x3dcf0fb5	0.10110418
6	0xbe631014	-0.22174102
7	0xbde3f877	-0.11131375
8	0x3dcbab81	0.09944821
9	0x3d9bf5ef	0.076152675
10	0x3e67d42e	0.22639534
11	0xb9a58f82	-0.00031578174
12	0xbf1e86e7	-0.61924595
13	0x3e933c62	0.28757006
14	0x3be97ccf	0.007125474
15	0xbef173d7	-0.4715869
16	0x3d5ccf77	0.05390879
17	0x3e822336	0.2541749
18	0x3e6c9fbb	0.23107807
19	0x3df0fea8	0.11767322
20	0x3ee748b1	0.45172647
21	0x3eaf5e21	0.34251502
22	0x3ec01ff5	0.3752438
23	0x3e109cb3	0.14122276
24	0xbd921381	-0.07132626
25	0x3d0d6ab2	0.03452558
26	0xbc1c0c72	-0.009524452
27	0x3e810512	0.2519918
28	0x3ba6edd8	0.005094271
29	0x3d166799	0.036719892
30	0xbf0d3d59	-0.55171734
31	0x3e573e04	0.21019751
32	0x3d0d94d7	0.034565773
33	0xbd298be5	-0.04139318
34	0xbdb3ddce	-0.0878254
35	0xbdbf270a	-0.09333618
36	0xbe41b7f5	-0.1891783
37	0xbee47603	-0.44621286
38	0xbe40b023	-0.18817191
39	0xbeba4bb2	-0.36385876
40	0xbe596796	-0.21230921
41	0x3e8ad8c8	0.27118516
42	0xbe30ce0f	-0.17266105
43	0x3e7d8971	0.24759461
44	0x3e8a9fe4	0.27075112
45	0x3e3e956d	0.18611689
46	0xbe6df236	-0.23236927
47	0xbe184110	-0.1486857
48	0x3c2aee2c	0.010432761
49	0x3c62b454	0.013836939
50	0xbcdb2f8d	-0.026756072
51	0xbf110134	-0.5664246
52	0x3e14d959	0.14536037
53	0x3c53bac2	0.0129229445
54	0x3daa615e	0.083193526
55	0xbd6f20b6	-0.058380805
56	0x3be75898	0.0070601217
57	0xbbe693f9	-0.0070366827
58	0x3d3daf5a	0.046309806
59	0x3e840de9	0.25791863
60	0xbf0fa076	-0.5610422
61	0x3e1cc218	0.15308416
62	0xbe0b77bb	-0.13619892
63	0xbd9349e7	-0.0719183
64	0x3e5c46a9	0.2151133
65	0xbef4a614	-0.47782958
66	0xbc610a7f	-0.013735413
67	0x3e7ec429	0.24879517
68	0x3dbfd6c8	0.09367138
69	0xbe9f228e	-0.3108105
70	0x3c8cd36c	0.017190658
71	0xbd881c91	-0.066460736
72	0x3ecab84d	0.39593735
73	0x3c1dbf53	0.009628135
74	0xbe173348	-0.14765656
75	0x3e084610	0.13307977
76	0xbec5dd9c	-0.38645637
77	0xbd29602a	-0.041351475
78	0x3e982392	0.29714638
79	0xbe1163ad	-0.1419818
80	0x3e0105f0	0.12599921
81	0x3ef25c7e	0.4733619
82	0x3df96143	0.12176754
83	0x3e802fe9	0.25036553
84	0xbe4496ed	-0.19198199
85	0x3dee4cde	0.11635755
86	0x3c51cc3d	0.012805042
87	0xbc3f6a76	-0.011683097
88	0xbad94954	-0.001657764
89	0xbbe20b66	-0.0068983315
90	0xbbc1dcfd	-0.0059162364
91	0x3d665fc0	0.056243658
92	0xbcebdb77	-0.028791172
93	0xbf83ffe2	-1.0312464
94	0x3e1ceb10	0.15324044
95	0xbde44e07	-0.11147695
96	0x3c97cb4b	0.018529555
97	0x3c1f9d16	0.009742042
98	0x3cf77ea3	0.030211752
99	0x3e0d6518	0.13808095
100	0x3c9169e1	0.017750682
101	0xbf9a71e6	-1.2066009
102	0xbd152176	-0.036408864
103	0xbe11de14	-0.14244872
104	0xbdbd6252	-0.09247269
105	0xbca93243	-0.02065385
106	0xbad62ee4	-0.0016340879
107	0x3e92fe7d	0.28709784
108	0x3e7e5876	0.24838433
109	0xbf3133d3	-0.692197
110	0xbe71644a	-0.23573413
111	0xbe985d4c	-0.2975868
112	0x3ea92459	0.33035544
113	0x3cbcf672	0.023066733
114	0xbe5a42f6	-0.21314606
115	0x3df5d042	0.12002613
116	0xbf033b18	-0.51262045
117	0x3e318618	0.17336309
118	0xbe2f6266	-0.1712738
119	0xbe6ef706	-0.2333642
120	0xbf31c5f4	-0.6944268
121	0x3cd8147e	0.026376959
122	0xbda6a07f	-0.08136081
123	0x3e461d7e	0.19347188
124	0xbdd5e76b	-0.1044453
125	0x3aaf3882	0.0013368281
126	0xbe08dad8	-0.13364732
127	0x3e40b352	0.18818405
128	0xbbed8b6c	-0.0072492864
129	0xb9505c6f	-0.0001987086
130	0x3d870418	0.06592578
131	0xbdf1e53f	-0.11811303
132	0xbef1c28a	-0.47218734
133	0x3ea3cf47	0.31994078
134	0xbe2809ca	-0.16409984
135	0x3e5381e1	0.20655014
136	0x3eb2693e	0.34845918
137	0x3d24b042	0.040207155
138	0xbe3d971b	-0.18514673
139	0xbeec4ad6	-0.46150845
140	0x3e67890d	0.22610874
141	0x3e34a397	0.1764053
142	0x3da3632b	0.07977899
143	0xbddf77fd	-0.10911558
144	0xb9867946	-0.00025648827
145	0x3935a09d	0.00017321338
146	0xbd719aa4	-0.058985367
147	0xbf527545	-0.8221019
148	0xbe8d80bb	-0.27637276
149	0x3d836f36	0.06417696
150	0xbdeb07d7	-0.11476105
151	0xbf0df802	-0.55456555
152	0xbf0df39c	-0.55449843
153	0xba4b0d1b	-0.00077457883
154	0xbd9d8cc0	-0.076928616
155	0x3e2e9a23	0.17050986
156	0xbc66ecfa	-0.014094586
157	0xbde14d63	-0.110010885
158	0x3cee4ee8	0.02909036
159	0x3e4b59e0	0.19858503
160	0xbe129d5c	-0.1431784
161	0xbd9d3abc	-0.07677218
162	0x3eb64e02	0.3560639
163	0xbc890409	-0.016725557
164	0x3e7092f9	0.23493566
165	0x3d3adc93	0.045620512
166	0xbdc2c438	-0.09510082
167	0xbdc3a9b9	-0.095538564
168	0x3e583064	0.2111221
169	0xbd3b6fc2	-0.045760877
170	0xbea2e196	-0.31812733
171	0x3e00e813	0.1258853
172	0xbddb3cd2	-0.1070496
173	0xbec5f233	-0.38661346
174	0xbe57133d	-0.21003433
175	0x3e4ec352	0.20191696
176	0x3d669691	0.056295935
177	0x3e11c1ac	0.14234036
178	0x3e434e7f	0.19072913
179	0xbefb0586	-0.49027652
180	0xbdcec264	-0.10095671
181	0x3d3028af	0.04300755
182	0xbf1b9e5f	-0.6078853
183	0xbe06c402	-0.13160709
184	0xbe6147e5	-0.22000082
185	0xbdedd4cf	-0.11612856
186	0x3db96990	0.090533376
187	0x3e8c36e1	0.2738562
188	0xbc3e0cac	-0.011599701
189	0xbf4a053d	-0.78914243
190	0x3e55724b	0.2084438
191	0xbe9e8ef7	-0.3096845
192	0xbcf28642	-0.029605035
193	0xbbd3281c	-0.0064439904
194	0x3cf4e1fa	0.02989291
195	0x3e4b313a	0.19842997
196	0xbe981714	-0.29705107
197	0xbf9147ad	-1.1349999
198	0xbd887099	-0.06662101
199	0x3c818a0c	0.015812896
200	0x3e8bde04	0.27317822
201	0xbe3428f1	-0.17593743
202	0xbea112a0	-0.31459522
203	0x3dd78008	0.10522467
204	0xbe25e322	-0.16199926
205	0xbf2529f9	-0.6451717
206	0x3ea77a41	0.3271046
207	0x3de2814a	0.11059816
208	0x3d3a4cb7	0.045483317
209	0xbd97baee	-0.07408701
210	0xbedae8aa	-0.42755634
211	0x3e751ea7	0.23937474
212	0xbeb668af	-0.35626742
213	0xbdbaa6be	-0.09113835
214	0xbcc2a6ce	-0.02376118
215	0xbe7b1397	-0.24519192
216	0xbdeefa97	-0.1166889
217	0xbd49dfed	-0.049285818
218	0x3ea4b5e2	0.32170016
219	0x3ec5de7d	0.38646308
220	0x3dfa1f67	0.12213021
221	0xbe953581	-0.29142383
222	0x3c8e7374	0.017389037
223	0xbe8a4cc9	-0.27011707
224	0xbcf5482e	-0.029941645
225	0x3ed6285b	0.41827664
226	0xbea10bc9	-0.31454304
227	0xbdebd855	-0.115158714
228	0xbd923cb0	-0.071404815
229	0x3db39a66	0.087696835
230	0x3eb795bb	0.35856423
231	0x3e0c7841	0.13717748
232	0xbd206d8e	-0.03916698
233	0xbd8fa661	-0.07014156
234	0xbe960a6a	-0.2930482
235	0x3ea9165e	0.33024877
236	0xbec2f563	-0.3807784
237	0xbe002865	-0.1251541
238	0xbe2db737	-0.16964422
239	0x3e761724	0.24032265
240	0xbe4d02f7	-0.20020662
241	0xbc89603b	-0.01676952
242	0x3e7a6005	0.24450691
243	0x3d5914a3	0.052998196
244	0x3e3a380e	0.18185446
245	0xbd948c6e	-0.07253347
246	0xbebfa527	-0.3743069
247	0x3e6d6107	0.23181544
248	0xbd354b2c	-0.044261143
249	0xbca04f67	-0.019569112
250	0x3eda4907	0.4263384
251	0x3e57d5d2	0.2107766
252	0xbeb56acb	-0.3543304
253	0xbe8aeaab	-0.27132162
254	0x3dd57eb3	0.104245566
255	0x3e02790e	0.12741491

fc1.bias f4 [256]
0	0xbea79865	-0.32733455
1	0x3e2f43d3	0.17115717
2	0x3ddf9509	0.10917098
3	0xbe4955d8	-0.19661653
4	0xbe5f265c	-0.21791977
5	0x3eb30c5d	0.3497037
6	0xbe8e80c4	-0.27832615
7	0xbe82dda8	-0.25559735
8	0xbdc275b1	-0.09495104
9	0x3e08c2af	0.13355516
10	0x3e3708ea	0.17874494
11	0x3d9a4d49	0.07534272
12	0x3e07df83	0.13268857
13	0x3bfd5d05	0.007732036
14	0x3e5c8ceb	0.21538131
15	0x3e90bdae	0.28269714
16	0x3d5b8acf	0.053599175
17	0xbe673d3c	-0.22581953
18	0x3e3c3820	0.18380785
19	0x3e4dce59	0.20098247
20	0x3e92916e	0.2862658
21	0xbe8e3edb	-0.2778233
22	0xbe21d20a	-0.1580278
23	0xbcd4db8a	-0.02598359
24	0x3ea339e5	0.31880108
25	0x3dde671f	0.108595125
26	0xbe02ead1	-0.12784888
27	0x3e70acf4	0.23503476
28	0xbe9d906a	-0.30774242
29	0xbc4b6a7d	-0.0124155255
30	0xbe7cb41f	-0.24678086
31	0x3df33ff8	0.118774354
32	0xbeb301c3	-0.34962282
33	0xbe33f094	-0.17572242
34	0x3eabde63	0.33568105
35	0xbe023b14	-0.12717849
36	0xbdfad681	-0.122479446
37	0x3e8f057f	0.2793388
38	0xbda4bd51	-0.08043922
39	0x3e08e46a	0.13368383
40	0xbe91daf3	-0.28487357
41	0x3e3850d9	0.17999591
42	0x3e21e124	0.1580854
43	0x3dee6dce	0.11642037
44	0x3e5945c3	0.21218018
45	0x3d22f2cb	0.039782327
46	0x3e9e578d	0.3092617
47	0xbe5130d1	-0.20428778
48	0xbe062141	-0.13098623
49	0x3e72a3ac	0.23695248
50	0xbe812251	-0.25221494
51	0x3bb0e5c7	0.0053984853
52	0x3e8b2588	0.27177072
53	0x3bd615ea	0.006533374
54	0xbde76b81	-0.112998016
55	0x3d9924a8	0.07477695
56	0xbda16452	-0.07880463
57	0x3e93e7df	0.2888784
58	0x3d086466	0.033298872
59	0xbe814717	-0.2524955
60	0xbd66fcf4	-0.05639358
61	0x3e86cd79	0.26328638
62	0x3d88df28	0.06683189
63	0xbe304125	-0.1721235
64	0x3e67b8b5	0.22629054
65	0xbd0f698d	-0.03501277
66	0xbbefa2be	-0.0073131016
67	0xbea647d8	-0.32476687
68	0xbe30818d	-0.1723692
69	0xbdcd0583	-0.10010817
70	0x3e00e3c9	0.12586893
71	0xbe92ef42	-0.28698164
72	0xbdf089b3	-0.11745014
73	0xbdaad4a2	-0.08341338
74	0xbddbb650	-0.10728133
75	0xbea65cc1	-0.3249264
76	0x3d70eb6e	0.058818273
77	0xbe984a3e	-0.29744142
78	0xbe0f808a	-0.14013878
79	0xbc926ef8	-0.01787518
80	0x3e956824	0.29181015
81	0x3e8cfa81	0.2753487
82	0xbe2f35fc	-0.17110437
83	0x3e9c1698	0.30485988
84	0x3e822759	0.25420645
85	0xbc8341cf	-0.01602259
86	0xbc975637	-0.018473728
87	0xbeb57484	-0.35440457
88	0x3e4109a2	0.18851331
89	0xbe3ff25f	-0.18744801
90	0xbe16505f	-0.14679097
91	0x3e093299	0.13398208
92	0xbd97ed9a	-0.07418366
93	0x39eba1b6	0.00044943177
94	0x3e0fdea1	0.1404977
95	0xbe8b3b2a	-0.27193576
96	0xbe8632dc	-0.26210678
97	0x3e49c7ae	0.19705078
98	0x3e3b635f	0.18299626
99	0x3e4c71c2	0.1996527
100	0x3e665119	0.22491874
101	0xbd94a787	-0.07258516
102	0xbe37dca7	-0.17955266
103	0xbe659314	-0.22419387
104	0xbdce5854	-0.10075441
105	0xbe885d55	-0.26633707
106	0x3e9d7cfc	0.30759418
107	0xbe5c3a0f	-0.21506523
108	0xbe699460	-0.22810507
109	0xbd0535d6	-0.032522045
110	0x3dbc7866	0.09202652
111	0x3eb25e77	0.34837696
112	0xbcfdfeb8	-0.031005248
113	0xbd52a18b	-0.05142359
114	0x3e0b9c93	0.13633947
115	0x3dcfea64	0.10152128
116	0x3d515bf3	0.05111308
117	0xbba32410	-0.004978664
118	0x3e6420d3	0.22278146
119	0xbeaaa47d	-0.3332862
120	0xbe2e5650	-0.17025113
121	0xbdc042e9	-0.09387762
122	0xbe73bd5d	-0.23802705
123	0x3e1fdcf5	0.15611632
124	0xbe200175	-0.15625556
125	0x3e8b2251	0.2717462
126	0x3e049b0b	0.12949769
127	0xbdccc734	-0.099989325
128	0x3e650b7e	0.22367665
129	0xbe30f468	-0.17280734
130	0xbc5b32a8	-0.013378777
131	0xbe82289f	-0.25421616
132	0xbe37f3d7	-0.17964111
133	0x3e42e8c7	0.1903411
134	0xbe05df47	-0.13073455
135	0x3e483add	0.19553705
136	0xbe0a6fc9	-0.13519205
137	0x3e3d73e5	0.18501242
138	0x3eb57de0	0.35447598
139	0xbe02ba2b	-0.1276633
140	0x3e84ed1f	0.2596216
141	0xbe820305	-0.2539293
142	0xbd9728fd	-0.07380865
143	0x3e2a0d52	0.16606644
144	0x3e800809	0.2500613
145	0xbdcb9a92	-0.09941591
146	0xbe8e3bcb	-0.27779993
147	0xbea2ba12	-0.31782585
148	0xbe826624	-0.25468552
149	0x3e72f64a	0.23726764
150	0xbe89b073	-0.26892433
151	0xbd911c4c	-0.07085475
152	0xbe74d7fa	-0.23910514
153	0xbe8bf1ce	-0.2733292
154	0x3cb5493b	0.022129646
155	0xbdac8533	-0.08423843
156	0xbea2ae83	-0.31773767
157	0xbe51f367	-0.20503007
158	0x3e90d105	0.2828447
159	0xbe80ec95	-0.25180498
160	0xbdbbe6e4	-0.09174898
161	0x3e4e1737	0.20126043
162	0x3be64551	0.007027306
163	0x3e10da81	0.14145853
164	0x3e1dbad9	0.15403308
165	0x3de0db64	0.109793454
166	0x3e9d78b0	0.3075614
167	0x3e9c3554	0.30509436
168	0x3d19c8d8	0.037545055
169	0xbd6dfe39	-0.058103774
170	0x3dbca69b	0.09211465
171	0xbe6adab4	-0.22934991
172	0xbea81e24	-0.32835495
173	0xbeaad1b7	-0.33363125
174	0xbe3d16d0	-0.18465734
175	0x3e0be62e	0.13662025
176	0xbdf06adc	-0.11739132
177	0xbc59b18a	-0.0132869575
178	0xbe925bdf	-0.28585717
179	0xbdd7c300	-0.1053524
180	0x3e953ee3	0.2914954
181	0x3df309af	0.118670814
182	0x3e931494	0.28726637
183	0x3debc782	0.115126625
184	0xbe4a6e61	-0.19768669
185	0x3da0c739	0.07850499
186	0xbe63d4e3	-0.22249179
187	0xbe9a9e27	-0.30198786
188	0xbe6d7377	-0.23188578
189	0xbe82d47a	-0.25552732
190	0xbe129792	-0.14315632
191	0xbb6e6723	-0.0036377392
192	0xbdf2b999	-0.11851806
193	0x3d0080d3	0.031372856
194	0xbe88d7c3	-0.26727113
195	0x3e2cee68	0.1688782
196	0x3ea44129	0.32080963
197	0x3eb052c1	0.34438136
198	0xbe3241e9	-0.17407955
199	0xbd1eae70	-0.038740575
200	0x3e059215	0.13044007
201	0x3e408f45	0.18804653
202	0xbe73462a	-0.23757234
203	0x3c81cf58	0.01584594
204	0xbde14a27	-0.110004716
205	0xbeab0832	-0.3340469
206	0xbea5227d	-0.32252875
207	0xbe2c1315	-0.16804154
208	0x3da7897f	0.08180522
209	0xbe0490b9	-0.12945832
210	0xbe4b5785	-0.19857605
211	0xbdb54632	-0.08851279
212	0xbe95d7cb	-0.292662
213	0xbeb49cca	-0.3527587
214	0x3e57dc4c	0.2108013
215	0x3e855b27	0.26046106
216	0x3c053486	0.008130198
217	0xbc0bc723	-0.008531365
218	0xbe715dbc	-0.23570913
219	0xbe40f9e8	-0.18845332
220	0x3d4b4789	0.049628768
221	0x3eb04bb9	0.34432772
222	0x3d8c8e5e	0.06863092
223	0x3e3430e3	0.17596774
224	0xbd8e2d9f	-0.06942295
225	0xbe95926d	-0.29213277
226	0x3e8812ea	0.2657693
227	0x3d7e39e9	0.062066946
228	0xbeb0c4bc	-0.34525096
229	0xbea20ea3	-0.31651792
230	0x3de1d4df	0.1102693
231	0x3d9c822b	0.07642015
232	0x3e716f6d	0.23577662
233	0xbe8a7dab	-0.27049002
234	0xbb1cc538	-0.0023921262
235	0xbd7097ea	-0.058738627
236	0xbd85788e	-0.065171346
237	0xbe4cf554	-0.2001546
238	0xbe8109a3	-0.25202665
239	0x3e4e220b	0.20130174
240	0x3d19c072	0.037537046
241	0xbd23e011	-0.04000861
242	0xbcd3ecd1	-0.025869759
243	0xbe83f2c5	-0.25771156
244	0x3e24eb8c	0.16105479
245	0x3c56f5c1	0.013120116
246	0xbdc1b6eb	-0.09458717
247	0x3d716e47	0.05894306
248	0xbd96ebc6	-0.07369189
249	0x3e5e3166	0.21698532
250	0x3de34b8f	0.11098396
251	0xbd109a94	-0.035303667
252	0xbdd6ce80	-0.104886055
253	0x3e37b63b	0.17940609
254	0xbe9f9743	-0.3117009
255	0x3cefae3f	0.029257892

bn1.weight f4 [256]
0	0x3f6295ca	0.8850981
1	0x3f7bc67c	0.9834974
2	0x3f365b22	0.7123281
3	0x3f5acb04	0.8546603
4	0x3f891157	1.0708417
5	0x3f3c3a12	0.7352611
6	0x3fa59a64	1.2937741
7	0x3f94d99c	1.1628909
8	0x3f495d58	0.78658056
9	0x3f7bce93	0.9836208
10	0x3f62753d	0.8846014
11	0x3fb631a6	1.4233902
12	0x3f9c30ad	1.2202355
13	0x3f892531	1.0714475
14	0x3f75154a	0.9573561
15	0x3f65c8a3	0.8975927
16	0x3f5f6151	0.8725787
17	0x3f6ded05	0.9293979
18	0x3f95a1b4	1.1689973
19	0x3f60c665	0.87802726
20	0x3f69d84d	0.91345674
21	0x3f602eb5	0.8757127
22	0x3f63fe97	0.8906035
23	0x3f7aa996	0.9791502
24	0x3f9d2a37	1.2278508
25	0x3f5cb1f2	0.86209023
26	0x3f64e494	0.8941128
27	0x3f7899ec	0.97109866
28	0x3f41c286	0.75687444
29	0x3f61c966	0.88197935
30	0x3f692f7d	0.91088086
31	0x3f7b8213	0.9824535
32	0x3f5acbb4	0.85467076
33	0x3f8e24c9	1.1104976
34	0x3f500f3c	0.81273246
35	0x3f769939	0.9632755
36	0x3fa7968a	1.3092816
37	0x3f809627	1.0045823
38	0x3f69c4f0	0.9131613
39	0x3f874f73	1.0571121
40	0x3f547b84	0.8300097
41	0x3f63ed24	0.8903372
42	0x3f615e81	0.88034827
43	0x3f5448ad	0.82923394
44	0x3fa90c55	1.3206888
45	0x3f55090d	0.83216935
46	0x3f5c2304	0.8599093
47	0x3f519934	0.81874394
48	0x3f61f5ba	0.88265574
49	0x3f684ca4	0.90741944
50	0x3fa44c91	1.2835866
51	0x3f67e434	0.90582585
52	0x3f97f33c	1.1871104
53	0x3f6b6c9e	0.9196261
54	0x3f83f2f2	1.0308516
55	0x3f50bab8	0.8153491
56	0x3f53facf	0.8280458
57	0x3f8e9026	1.1137741
58	0x3f9b4904	1.2131658
59	0x3f4edc55	0.8080495
60	0x3f5fea4f	0.874669
61	0x3f848be5	1.0355192
62	0x3f6a63f8	0.9155879
63	0x3f6e0e3d	0.92990476
64	0x3f584ce0	0.844923
65	0x3f5dfcdc	0.8671396
66	0x3f6b3696	0.91880167
67	0x3f668c44	0.9005778
68	0x3f603f7f	0.8759689
69	0x3fa140c6	1.2597892
70	0x3f67a783	0.9048998
71	0x3f7fefd9	0.99975353
72	0x3f4ebfd1	0.8076144
73	0x3f82a67c	1.0207057
74	0x3f565eab	0.837382
75	0x3f54e002	0.8315431
76	0x3f616438	0.88043547
77	0x3f674ef0	0.90354824
78	0x3f60fecb	0.87888783
79	0x3f5ba7b5	0.85802776
80	0x3f2c1c78	0.6723094
81	0x3f84e63d	1.0382763
82	0x3f56b795	0.83873874
83	0x3f80e670	1.0070324
84	0x3f997534	1.1988893
85	0x3f7a4791	0.9776545
86	0x3f4c9bee	0.7992543
87	0x3f502182	0.8130113
88	0x3fabe25f	1.3428458
89	0x3f7cfdd1	0.98824793
90	0x3f5aca48	0.85464907
91	0x3f78ff9d	0.97265035
92	0x3f967b71	1.1756421
93	0x3f5366ee	0.82578933
94	0x3f4f868d	0.81064683
95	0x3f449b70	0.7679968
96	0x3f4a640a	0.790589
97	0x3f5bdba9	0.8588205
98	0x3f7f9c7a	0.9984814
99	0x3f41859a	0.75594485
100	0x3f999de8	1.2001314
101	0x3f7eb72f	0.99498266
102	0x3f594220	0.84866524
103	0x3f62df7e	0.8862227
104	0x3f4026cb	0.75059193
105	0x3f5fbd8b	0.87398595
106	0x3f7f9851	0.9984179
107	0x3f6ae064	0.9174864
108	0x3f774b6f	0.9659948
109	0x3f7b94db	0.9827401
110	0x3f664c31	0.8996001
111	0x3f7b889a	0.9825531
112	0x3f896f86	1.0737159
113	0x3f9d49c7	1.228814
114	0x3f6a24a5	0.91462165
115	0x3f4f410e	0.8095864
116	0x3f8b58cc	1.0886474
117	0x3f6d4979	0.92690235
118	0x3f854dc7	1.0414361
119	0x3f4ec728	0.8077264
120	0x3f64a4db	0.8931405
121	0x3f55932f	0.8342771
122	0x3f77febb	0.9687306
123	0x3f59d0b6	0.8508409
124	0x3f451e6d	0.7699955
125	0x3f7dd8e9	0.99159104
126	0x3f69990b	0.9124915
127	0x3f62d735	0.8860963
128	0x3f48cb9a	0.7843567
129	0x3f96942f	1.1763972
130	0x3f877904	1.0583806
131	0x3f88b829	1.0681201
132	0x3f6f3fa3	0.93456477
133	0x3f34c9ff	0.7062072
134	0x3f9d8c6c	1.2308478
135	0x3f5f17eb	0.8714587
136	0x3f5f1400	0.8713989
137	0x3f5ab157	0.8542685
138	0x3f7b3579	0.9812847
139	0x3f653944	0.89540505
140	0x3f57e766	0.8433746
141	0x3f4c8b38	0.7989993
142	0x3faa882b	1.3322805
143	0x3f4c6532	0.7984191
144	0x3f81866d	1.0119148
145	0x3f67df3b	0.90575
146	0x3f773940	0.9657173
147	0x3f778b7f	0.9669723
148	0x3fa2354e	1.2672517
149	0x3f472509	0.77790886
150	0x3f5fd71a	0.87437594
151	0x3f56b7d9	0.8387428
152	0x3f6a96e7	0.9163651
153	0x3f83d69d	1.029987
154	0x3f6bd102	0.92115796
155	0x3f6635c8	0.89925814
156	0x3f549eff	0.8305511
157	0x3f8fa0fe	1.1221006
158	0x3faa8476	1.3321674
159	0x3f4d2eec	0.8014972
160	0x3f60cf55	0.87816364
161	0x3f8d9bf0	1.1063213
162	0x3f6a99d6	0.91640985
163	0x3f6cdafb	0.9252164
164	0x3f6c8d18	0.9240279
165	0x3f700447	0.93756527
166	0x3f575cfd	0.84126264
167	0x3f78bc8b	0.97162694
168	0x3f64627f	0.89212793
169	0x3f8d1582	1.1022189
170	0x3f69abb3	0.9127762
171	0x3f740728	0.9532342
172	0x3f7c44a2	0.98542225
173	0x3f7266cd	0.9468811
174	0x3f6b7fb7	0.9199175
175	0x3f8294fd	1.0201718
176	0x3f675696	0.90366495
177	0x3f6958bb	0.91151017
178	0x3f66abfb	0.9010617
179	0x3f57022a	0.8398768
180	0x3f6dcc95	0.9289029
181	0x3f9a5f41	1.2060319
182	0x3f698488	0.9121785
183	0x3f88c2ac	1.0684409
184	0x3f8f6ed7	1.1205701
185	0x3f6d6497	0.9273161
186	0x3f83bab3	1.0291351
187	0x3f74e312	0.9565898
188	0x3f584434	0.8447907
189	0x3f49babd	0.78800565
190	0x3fb0bf12	1.380831
191	0x3f7aa0ea	0.97901785
192	0x3f3af6a8	0.7303262
193	0x3f521e13	0.8207714
194	0x3f8fd100	1.1235657
195	0x3f767809	0.9627691
196	0x3f7cd664	0.98764634
197	0x3f7ea6d5	0.99473315
198	0x3f51db61	0.8197537
199	0x3f9fae7c	1.2475123
200	0x3f6ae442	0.91754544
201	0x3f65bea8	0.89744043
202	0x3f652828	0.895144
203	0x3f968e09	1.1762096
204	0x3f7b4051	0.98145014
205	0x3f767271	0.96268374
206	0x3f94ebd5	1.163447
207	0x3f6c597b	0.92324036
208	0x3faaa125	1.3330427
209	0x3f64d16a	0.8938204
210	0x3f5eb701	0.8699799
211	0x3f44e2e4	0.7690871
212	0x3f47387b	0.7782056
213	0x3f83b07e	1.0288236
214	0x3f8cc992	1.0999014
215	0x3f6b1631	0.91830736
216	0x3f7f03e7	0.9961533
217	0x3f7b358e	0.9812859
218	0x3f5df6b4	0.86704564
219	0x3f868a93	1.051104
220	0x3f679a37	0.9046969
221	0x3f4a9f45	0.79149276
222	0x3f966e32	1.1752379
223	0x3f6d37a8	0.9266305
224	0x3f67187c	0.90271735
225	0x3f58eb0b	0.8473365
226	0x3f66264d	0.8990219
227	0x3f67d3e4	0.90557694
228	0x3f55699e	0.83364284
229	0x3f746794	0.9547055
230	0x3f629edc	0.8852365
231	0x3fa035ad	1.251638
232	0x3f7f3438	0.99689054
233	0x3f658ad2	0.8966495
234	0x3f82f9c8	1.0232477
235	0x3f78cf9b	0.9719178
236	0x3f48b2ed	0.7839802
237	0x3f9da937	1.2317265
238	0x3f60cdc4	0.87813973
239	0x3f5ae82b	0.8551051
240	0x3f6b3df8	0.9189143
241	0x3f316e1e	0.6930865
242	0x3f841837	1.031989
243	0x3f7f51bd	0.997341
244	0x3f836748	1.0265894
245	0x3f865d97	1.0497311
246	0x3f97baae	1.1853845
247	0x3f974dca	1.1820614
248	0x3fa4787e	1.2849271
249	0x3f7020d8	0.93800116
250	0x3f9ed9cd	1.2410218
251	0x3f8682f5	1.0508715
252	0x3f637f9a	0.8886658
253	0x3f6754ba	0.9036366
254	0x3f8a83eb	1.0821508
255	0x3f63913e	0.88893497

bn1.bias f4 [256]
0	0xbeba4e5e	-0.36387914
1	0xbe0ac352	-0.13551071
2	0x3d83a03d	0.064270474
3	0xbe72d3d2	-0.23713616
4	0xbdef13fe	-0.11673735
5	0xbeb9d815	-0.3629767
6	0xbe87377e	-0.26409525
7	0xbd93e0af	-0.07220589
8	0xbdd11fdb	-0.10211154
9	0xbe73596d	-0.23764582
10	0xbe37037c	-0.17872423
11	0xbe8eeabf	-0.27913472
12	0xbe6bf073	-0.23040943
13	0xbe40cc3e	-0.18827912
14	0xbe357f6a	-0.17724386
15	0xbed510a9	-0.41614273
16	0xbcd40f2d	-0.025886143
17	0xbde0a7c8	-0.10969502
18	0xbe7c45b8	-0.2463597
19	0xbe8012e6	-0.25014418
20	0xbe0bc4b1	-0.1364925
21	0xbe6cf153	-0.23138933
22	0xbe81e296	-0.25368184
23	0xbe63a9c5	-0.2223273
24	0xbe28d91e	-0.16489074
25	0xbdf0e329	-0.11762077
26	0xbd78d066	-0.06074562
27	0xbe6f0800	-0.23342896
28	0xbea7155b	-0.3263348
29	0x3d0e6e33	0.034773063
30	0xbe7a738d	-0.24458142
31	0xbdfdce46	-0.12392859
32	0xbe46817b	-0.1938533
33	0xbdacf2da	-0.08444758
34	0xbeb845cd	-0.35990754
35	0xbe49ebaf	-0.19718812
36	0xbe80d0e4	-0.2515937
37	0xbdd518db	-0.104051314
38	0xbe147098	-0.14496076
39	0xbe37a895	-0.17935403
40	0x3a250c5a	0.0006296091
41	0xbe3f7324	-0.18696266
42	0xbd74c991	-0.05976254
43	0x3d927b37	0.071524076
44	0xbe81679b	-0.25274357
45	0xbe1c72f4	-0.15278226
46	0xbe9ef900	-0.31049347
47	0xbe0b0063	-0.13574366
48	0xbd41cf1d	-0.04731666
49	0xbe145d7b	-0.14488785
50	0xbe750f54	-0.23931628
51	0xbcfba419	-0.030717896
52	0xbe6df805	-0.23239143
53	0xbda254eb	-0.07926353
54	0xbe0609bc	-0.13089651
55	0xbdcded18	-0.10054988
56	0xbe089d31	-0.13341214
57	0xbe7ebf6b	-0.24877708
58	0xbe13d8fd	-0.14438243
59	0xbe061a31	-0.13095929
60	0xbe960e6f	-0.29307887
61	0xbe1e31f6	-0.15448746
62	0xbe3e7106	-0.18597803
63	0xbbe6c8a7	-0.0070429626
64	0xbd0bf727	-0.03417125
65	0xbe9433b1	-0.28945687
66	0x3d21276b	0.039344233
67	0x3ca594f8	0.020212635
68	0xbe74aa7d	-0.23893161
69	0xbe87ba1b	-0.26509175
70	0xbe2ca2d2	-0.16858986
71	0xbe808e34	-0.25108492
72	0xbde64af5	-0.11244766
73	0xbe32baf3	-0.17454128
74	0xbe8faf0c	-0.28063238
75	0xbd85d87f	-0.06535434
76	0xbe6b5ebf	-0.22985362
77	0xbe41276c	-0.18862695
78	0xbdf320c4	-0.11871484
79	0xbe864226	-0.26222342
80	0xbd8981fe	-0.06714247
81	0xbd86b170	-0.06576812
82	0xbe2083a5	-0.15675218
83	0xbe08edc9	-0.13371958
84	0xbe91e8bd	-0.28497878
85	0xbe2aa6f2	-0.16665247
86	0xbd4657e0	-0.048423648
87	0xbddfc9d8	-0.109271705
88	0xbe6e61b4	-0.23279458
89	0xbe141764	-0.14462048
90	0xbe028a79	-0.12748136
91	0xbe3411f6	-0.17584977
92	0xbe097dd6	-0.13426909
93	0xbe636eba	-0.22210208
94	0xbe8f86dd	-0.2803258
95	0xbbac91bb	-0.005266396
96	0xbe90ea9d	-0.28303996
97	0xbeaee602	-0.34159857
98	0xbe737f5d	-0.23779054
99	0xbe992432	-0.29910427
100	0xbe956222	-0.29176432
101	0xbde14947	-0.11000305
102	0xbd7bbe76	-0.061460935
103	0xbcb5e94b	-0.02220597
104	0xbe1aba2b	-0.1511008
105	0xbe455e4d	-0.19274254
106	0xbe98baa0	-0.29829884
107	0x3ab412cd	0.0013738513
108	0xbe9f4955	-0.31110635
109	0xbe8c567a	-0.27409726
110	0xbdf66ca9	-0.12032444
111	0xbe483bb2	-0.19554022
112	0xbe212cc2	-0.1573973
113	0xbe7cac85	-0.24675186
114	0xbe126ae2	-0.14298585
115	0xbe5fbde2	-0.21849778
116	0xbda5a703	-0.080884956
117	0xbe0fdf07	-0.14049922
118	0xbe4b94c8	-0.19880974
119	0xbe8d7027	-0.27624628
120	0xbe2bba3b	-0.1677026
121	0xbdc714c4	-0.097207576
122	0xbe3633b9	-0.17793168
123	0xbed30418	-0.4121406
124	0x3c0500cc	0.008117866
125	0xbd899879	-0.06718535
126	0xbe61ef53	-0.22063951
127	0xbecdaaab	-0.40169272
128	0xbe9d9285	-0.30775848
129	0xbe485710	-0.19564462
130	0xbe5e4f0b	-0.2170984
131	0xbe633acd	-0.221904
132	0xbe7c5620	-0.24642229
133	0xbdcb3833	-0.099228285
134	0xbe50fa34	-0.20407945
135	0xbeb44b65	-0.3521377
136	0xbd6845cf	-0.0567072
137	0xbe9983a0	-0.29983234
138	0xbdc88753	-0.09791436
139	0xbeb343f0	-0.3501277
140	0xbe3ab5bc	-0.18233389
141	0xbe8f6e4b	-0.28013834
142	0xbea26a91	-0.3172193
143	0xbe8f0349	-0.27932194
144	0xbce33bfc	-0.027738564
145	0xbd79795d	-0.060906757
146	0xbe26cac0	-0.1628828
147	0xbe1c7032	-0.15277174
148	0xbe6724c2	-0.22572616
149	0xbe58a6b5	-0.21157344
150	0xbe467d7d	-0.19383807
151	0xbdee51b6	-0.11636679
152	0xbe5f31b5	-0.21796305
153	0xbe425394	-0.18977195
154	0xbe28ebf5	-0.1649626
155	0xbe715393	-0.23567037
156	0xbcec2229	-0.028824883
157	0xbe39126a	-0.1807343
158	0xbe818986	-0.25300235
159	0xbe510410	-0.20411706
160	0xbeb96d54	-0.36216223
161	0xbe2bd775	-0.16781409
162	0xbe277da6	-0.16356525
163	0xbe84ec17	-0.25961372
164	0xbde3dc86	-0.11126046
165	0xbdb689f1	-0.08913029
166	0xbdea43c6	-0.11438708
167	0xbe350689	-0.17678274
168	0xbddf792a	-0.10911782
169	0xbded14bc	-0.115762204
170	0xbe81d9fe	-0.25361627
171	0xbe04189c	-0.12900013
172	0xbe6bba61	-0.23020317
173	0xbe75b107	-0.23993312
174	0xbdcb6973	-0.09932222
175	0xbe1ed699	-0.1551155
176	0xbe827e45	-0.2548696
177	0xbc81bdbf	-0.015837548
178	0x3e0bf1a9	0.13666405
179	0xbe7f95de	-0.24959514
180	0xbe627e09	-0.22118391
181	0xbe544c68	-0.20732272
182	0xbecd5852	-0.40106446
183	0xbe4f7f84	-0.20263487
184	0xbe1117a0	-0.14169168
185	0xbee1b7ba	-0.44085485
186	0xbe41396f	-0.18869565
187	0xbdb3520d	-0.08755884
188	0xbeab5e74	-0.334705
189	0x3e5e9ac5	0.21738727
190	0xbe62f14d	-0.22162361
191	0xbe0478c8	-0.129367
192	0xbe8c00ea	-0.27344447
193	0xbe80a5ee	-0.25126594
194	0xbe580585	-0.21095856
195	0xbe9df7ba	-0.30853063
196	0xbe3ad6b7	-0.1824597
197	0xbe8c5221	-0.2740641
198	0xbe542f2a	-0.20721117
199	0xbe91372b	-0.28362402
200	0xbe5ea40b	-0.21742265
201	0xbe7a886f	-0.24466108
202	0xbecf643e	-0.40506166
203	0xbe284b3f	-0.16434954
204	0xbe816ae6	-0.2527687
205	0xbeacde7c	-0.33763492
206	0xbe04dbe2	-0.12974504
207	0xbe0f2061	-0.13977195
208	0xbe90ce30	-0.2828231
209	0xbda9f287	-0.082982115
210	0xbe817bc1	-0.2528973
211	0xbe2b2d91	-0.16716601
212	0xbe3154df	-0.17317532
213	0xbddc6151	-0.10760749
214	0xbe08169b	-0.13289873
215	0xbe6f1963	-0.23349528
216	0xbd5ec14b	-0.054383557
217	0xbe49abcf	-0.19694446
218	0xbde6b56d	-0.11265073
219	0x3d15599d	0.036462415
220	0xbd2f51d8	-0.04280266
221	0x3e1da19c	0.1539368
222	0xbe33c463	-0.17555384
223	0xbcba09ad	-0.022709692
224	0xbdfb5073	-0.12271204
225	0xbdab0de6	-0.0835226
226	0xbe44bf41	-0.19213583
227	0xbdd5581a	-0.10417195
228	0xbe40c16f	-0.18823789
229	0xbec37a6c	-0.38179338
230	0xbda96f5d	-0.08273194
231	0xbe8cd9ef	-0.2751002
232	0xbdf36571	-0.11884583
233	0xbd00a249	-0.031404767
234	0xbe68f7ad	-0.22750731
235	0xbe861839	-0.26190355
236	0xbe51e42e	-0.204972
237	0xbe91ff62	-0.28515154
238	0xbec390f9	-0.38196543
239	0xbe3afae7	-0.18259774
240	0xbe33092e	-0.1748397
241	0xbe22c9d9	-0.15897311
242	0xbe282f15	-0.1642421
243	0xbe96d8b0	-0.29462194
244	0xbd2ebd7b	-0.04266117
245	0xbe6f196d	-0.23349543
246	0xbe394cb4	-0.18095666
247	0xbe1f1761	-0.15536262
248	0xbe75d52e	-0.24007103
249	0xbded8718	-0.11598033
250	0xbe8b2b62	-0.27181536
251	0xbe2669fe	-0.1625137
252	0xbd124b6d	-0.035716463
253	0xbd6b46fc	-0.057440743
254	0xbe064b7f	-0.13114737
255	0xbe19b193	-0.15009145

bn1.running_mean f4 [256]
0	0xbe9deb2e	-0.3084349
1	0x3e4896f2	0.19588831
2	0x3dda0fce	0.10647546
3	0xbe4e0bc9	-0.20121683
4	0xbe503a2d	-0.20334692
5	0x3eb8abc9	0.36068562
6	0xbe825464	-0.2545501
7	0xbe83e803	-0.25762948
8	0xbe0cfe2a	-0.13768831
9	0x3de4c42c	0.11170229
10	0x3e44cfd9	0.19219913
11	0x3d9b7322	0.07590319
12	0x3e0a9ca4	0.13536316
13	0x3c106159	0.008812272
14	0x3e5310b6	0.20611843
15	0x3e981f2c	0.29711282
16	0x3d7a3606	0.061086677
17	0xbe63c29c	-0.22242206
18	0x3e74adae	0.23894379
19	0x3e537b30	0.20652461
20	0x3e99f201	0.30067447
21	0xbe9b4ca5	-0.30331913
22	0xbde41f8c	-0.111388296
23	0xbcceeed0	-0.025260359
24	0x3ea30222	0.31837565
25	0x3d9058c0	0.07048178
26	0xbe15128f	-0.14557861
27	0x3e719277	0.23591028
28	0xbe989231	-0.29799035
29	0xbd1c2c29	-0.038128052
30	0xbe735ce4	-0.23765904
31	0x3df77b92	0.12084116
32	0xbea942ab	-0.33058676
33	0xbe2399e9	-0.15976681
34	0x3eb90d9f	0.36143205
35	0xbd77b644	-0.060476556
36	0xbdf987f8	-0.12184137
37	0x3e99fa26	0.3007366
38	0xbd8c2798	-0.068434894
39	0x3e0c0e73	0.13677387
40	0xbe931765	-0.28728786
41	0x3e3330b4	0.17499048
42	0x3e247b1b	0.16062586
43	0x3e1353e6	0.14387473
44	0x3e5f7049	0.21820177
45	0x3d122f16	0.035689436
46	0x3eb6acf4	0.35678828
47	0xbe538266	-0.20655212
48	0xbe144d55	-0.14482625
49	0x3e7bdd41	0.2459612
50	0xbe6f58af	-0.23373674
51	0x3bcf7675	0.00633126
52	0x3e9cbf92	0.30614907
53	0xbcda3c45	-0.026640067
54	0xbddcb8fa	-0.10777469
55	0x3d78fa89	0.060785804
56	0xbd6053d2	-0.054767437
57	0x3e97ceef	0.29650065
58	0x3d06ecb5	0.032940585
59	0xbe838454	-0.25686896
60	0xbcd49e26	-0.025954317
61	0x3e9c9256	0.30580395
62	0x3db39c7e	0.08770083
63	0xbe0aa09d	-0.13537832
64	0x3e510694	0.20412666
65	0xbd2dd986	-0.042443775
66	0x39b55c70	0.00034591882
67	0xbeb021d0	-0.34400797
68	0xbe12d5e3	-0.14339404
69	0xbd80a855	-0.06282107
70	0x3e176704	0.14785391
71	0xbe9d1920	-0.3068323
72	0xbd996240	-0.07489443
73	0xbd573dc9	-0.052549157
74	0xbdc46c1c	-0.09590933
75	0xbe97b0b7	-0.2962701
76	0x3d4f89f6	0.05066868
77	0xbe9ab5f3	-0.3021694
78	0xbe241bf0	-0.16026282
79	0xbcde39e6	-0.027127218
80	0x3e840a8f	0.25789306
81	0x3e8998e1	0.2687445
82	0xbe24e4ad	-0.16102858
83	0x3e8e4c39	0.27792528
84	0x3e9bc0f0	0.30420637
85	0xbb7cc12b	-0.0038567286
86	0xbcfed49e	-0.031107243
87	0xbebc90d7	-0.36829254
88	0x3e428e3b	0.18999569
89	0xbe397a13	-0.18112974
90	0xbe064a72	-0.13114336
91	0x3ddf9249	0.109165736
92	0xbd492f2f	-0.049117263
93	0xbcd6c189	-0.026215332
94	0x3de9b851	0.11412109
95	0xbe98cd3c	-0.2984408
96	0xbe7e276a	-0.24819723
97	0x3e4a239f	0.19740151
98	0x3e4699fa	0.19394675
99	0x3e517f46	0.20458707
100	0x3e841822	0.25799662
101	0xbd7d8c20	-0.06190121
102	0xbe402c2f	-0.18766855
103	0xbe747edf	-0.23876522
104	0xbd944c5c	-0.07241127
105	0xbe631223	-0.22174887
106	0x3e8eb19b	0.27869877
107	0xbe5e471f	-0.21706818
108	0xbe5d8751	-0.2163365
109	0xbccf78b2	-0.025326107
110	0x3dda6c7a	0.106652215
111	0x3ea8fb60	0.33004284
112	0xbd286931	-0.041115943
113	0xbce65cd1	-0.02812043
114	0x3e27a6b7	0.1637219
115	0x3dc2343c	0.09482619
116	0x3d4bb41c	0.049732313
117	0xbbd56e7c	-0.006513415
118	0x3e693588	0.22774327
119	0xbead9e2e	-0.33909744
120	0xbe34e4f2	-0.1766546
121	0xbda9e22d	-0.08295093
122	0xbe731b67	-0.23740922
123	0x3e38b016	0.18035921
124	0xbe174853	-0.14773683
125	0x3e88240f	0.2659001
126	0x3e05c3b7	0.1306294
127	0xbda5ecac	-0.08101782
128	0x3e78f7b4	0.24313241
129	0xbe327393	-0.174269
130	0x3cf23256	0.029565018
131	0xbe792d1e	-0.24333617
132	0xbe385333	-0.18000488
133	0x3e44b667	0.19210206
134	0xbdd0dd04	-0.101984054
135	0x3e5b314f	0.21405528
136	0xbe212abc	-0.15738958
137	0x3e49763b	0.19674008
138	0x3ec47ba0	0.38375568
139	0xbdcf851f	-0.10132813
140	0x3e95b7a6	0.29241675
141	0xbe8a3b04	-0.2699815
142	0xbd9e3f32	-0.07726897
143	0x3e100280	0.14063454
144	0x3e86ac66	0.26303405
145	0xbdb4fd48	-0.08837372
146	0xbe88bcfa	-0.26706678
147	0xbe9978dc	-0.2997502
148	0xbe833632	-0.25627285
149	0x3e733222	0.23749593
150	0xbe921ec5	-0.285391
151	0xbdc17bf5	-0.09447471
152	0xbe5a7a97	-0.21335827
153	0xbe8883ea	-0.26663142
154	0x3cb2fc65	0.021848867
155	0xbddd6a85	-0.108113326
156	0xbe9033e3	-0.28164586
157	0xbe2fef28	-0.17181075
158	0x3e93f564	0.28898156
159	0xbe75e181	-0.24011804
160	0xbdd0848a	-0.1018153
161	0x3e500bb4	0.20316964
162	0x3c8d8a26	0.017277788
163	0x3e35f165	0.17767866
164	0x3e0fc65f	0.14040516
165	0x3e14b3ed	0.14521761
166	0x3e9cd800	0.30633545
167	0x3e9f2abb	0.31087288
168	0x3d9aa5d3	0.0755116
169	0xbd4a750f	-0.049428042
170	0x3dc84bd6	0.097800896
171	0xbe32d3b7	-0.17463575
172	0xbe8f1ad6	-0.27950162
173	0xbea6c337	-0.32570812
174	0xbe4143fa	-0.18873587
175	0x3e126fa2	0.14300397
176	0xbe0a2205	-0.1348954
177	0x3cc66ccf	0.024221806
178	0xbe8e6439	-0.2781084
179	0xbdc21dc6	-0.09478335
180	0x3e91391e	0.2836389
181	0x3e1a93b1	0.15095402
182	0x3e9be0d0	0.30444956
183	0x3e1eac5a	0.15495434
184	0xbe3a6f66	-0.18206558
185	0x3dc5b036	0.0965275
186	0xbe41a7f3	-0.18911724
187	0xbe9055d6	-0.28190488
188	0xbe66551a	-0.22493401
189	0xbe8db00d	-0.2767338
190	0xbe125b6d	-0.14292689
191	0x3b6be88c	0.0035996763
192	0xbdd0835c	-0.10181305
193	0x3b8f1999	0.004367065
194	0xbe6a2c73	-0.22868519
195	0x3e2faafd	0.1715507
196	0x3eaa6e40	0.3328724
197	0x3eb7b4c8	0.35880113
198	0xbe565ad4	-0.20933086
199	0xbd0d7e44	-0.034544244
200	0x3dc30004	0.09521487
201	0x3e489596	0.19588313
202	0xbe59074d	-0.21194191
203	0x3cfc2b84	0.030782469
204	0xbda368f7	-0.07979005
205	0xbe9ed8d9	-0.31024817
206	0xbea2ff15	-0.31835237
207	0xbe2a8502	-0.16652301
208	0x3dae05db	0.084972106
209	0xbdd557a9	-0.104171105
210	0xbe2c4e60	-0.16826773
211	0xbdf5fc49	-0.1201101
212	0xbe92bf64	-0.28661644
213	0xbeb7f4b0	-0.3592887
214	0x3e6995c1	0.22811033
215	0x3e6cf34f	0.2313969
216	0x3b3f9522	0.0029233177
217	0xbca7d4e6	-0.02048726
218	0xbe4c0aed	-0.19926043
219	0xbe29f80a	-0.16598526
220	0x3d279047	0.040909078
221	0x3ea74562	0.32670122
222	0x3d8efea0	0.069821596
223	0x3e1b1502	0.15144733
224	0xbd6bbafb	-0.057551365
225	0xbea19c3e	-0.31564516
226	0x3e7ebbdc	0.2487635
227	0x3d1df456	0.038563095
228	0xbe9c8f8a	-0.30578262
229	0xbeb1af80	-0.34704208
230	0x3df2c83a	0.118545964
231	0x3dcecbae	0.100974426
232	0x3e86a7c4	0.2629987
233	0xbe949e0d	-0.29026833
234	0x3c3cc386	0.011521226
235	0xbc81e3ad	-0.015855635
236	0xbd724acd	-0.059153367
237	0xbe260930	-0.16214442
238	0xbe75286c	-0.23941201
239	0x3e55e310	0.20887399
240	0x3d564fc1	0.052322153
241	0xbd06c475	-0.0329022
242	0x3a564cf0	0.0008174917
243	0xbe8773d3	-0.26455554
244	0x3e26f6a4	0.16305023
245	0x3c20f7ae	0.009824676
246	0xbd89c376	-0.06726734
247	0x3d658ce2	0.05604256
248	0xbd8519ea	-0.06499083
249	0x3e76959a	0.24080506
250	0x3e11ce51	0.1423886
251	0xbbaae9f8	-0.0052158795
252	0xbde4778a	-0.11155613
253	0x3e4e7c78	0.20164669
254	0xbe90dd68	-0.2829392
255	0x3d311650	0.04323417

bn1.running_var f4 [256]
0	0x3eed26e9	0.4631875
1	0x3fb7f0a1	1.4370309
2	0x3ffb2b34	1.962256
3	0x3d90850b	0.07056626
4	0x3fa9cded	1.3265969
5	0x3e767d9a	0.2407135
6	0x3e3ef2b0	0.18647265
7	0x3eca5a64	0.39522088
8	0x3ecec8e6	0.40387648
9	0x3e562d85	0.20915802
10	0x3e8fadd1	0.280623
11	0x3f7aa423	0.979067
12	0x3fb53cec	1.4159217
13	0x3efbdb5e	0.491908
14	0x3f631fe5	0.8872054
15	0x3f0a29b1	0.53969866
16	0x3ebeb63f	0.37248418
17	0x3e4ceb75	0.20011695
18	0x40628b8e	3.5397677
19	0x3edc9c4a	0.4308799
20	0x3e0a4595	0.13503106
21	0x3e525284	0.2053929
22	0x3ff00883	1.8752598
23	0x3f30c8d3	0.69056433
24	0x3fac57f3	1.346434
25	0x3eeccc4a	0.4624961
26	0x3eedd8a8	0.46454358
27	0x3e7a1e29	0.24425568
28	0x3ec42491	0.38309148
29	0x3e19e815	0.15029939
30	0x3dd3b88a	0.103379324
31	0x3e822a89	0.25423077
32	0x3e66898f	0.22513412
33	0x3f7ef7ef	0.99597067
34	0x3f151382	0.5823289
35	0x40ec12dc	7.377302
36	0x3f96d378	1.1783285
37	0x40222861	2.5337145
38	0x3e8c882e	0.27447647
39	0x3f984bd4	1.1898141
40	0x3dffd850	0.1249243
41	0x3e94c892	0.29059273
42	0x3e879c6e	0.26486534
43	0x3eefb919	0.46820906
44	0x3f8e3ca1	1.1112252
45	0x3e081d79	0.13292493
46	0x3ea98630	0.3311019
47	0x3e8ab3d8	0.27090335
48	0x3eb098e2	0.3449164
49	0x3e82d98e	0.25556606
50	0x3f129a20	0.57266426
51	0x3e2ad135	0.16681369
52	0x3e98e164	0.2985946
53	0x3e77e1dd	0.24207254
54	0x3fbfa2d0	1.4971561
55	0x3ebd7989	0.37006786
56	0x3e68aeef	0.22722982
57	0x3fdcc8f7	1.724883
58	0x3ea33638	0.31877303
59	0x3f302c02	0.6881715
60	0x3eb1dfb1	0.34740975
61	0x4005f8b4	2.0933046
62	0x3e62aace	0.2213547
63	0x3f625789	0.8841482
64	0x3eb4cea8	0.35313916
65	0x3e0b4689	0.13601126
66	0x3d9779c6	0.07396273
67	0x3eea6bc4	0.45785344
68	0x3e15f611	0.14644648
69	0x3f2ce866	0.6754211
70	0x3ece4089	0.4028361
71	0x3e69533b	0.22785656
72	0x3ee8cad9	0.4546726
73	0x3f894470	1.072401
74	0x3ea07e30	0.31346273
75	0x3ea62f06	0.3245775
76	0x3dc81a40	0.09770632
77	0x3ef7f2c5	0.48427406
78	0x3e8b9e8f	0.27269408
79	0x3eaca499	0.33719328
80	0x3ef83196	0.4847533
81	0x3e757d96	0.23973688
82	0x3ed839a6	0.42231482
83	0x3ef5b87c	0.47992313
84	0x3fb892e1	1.4419824
85	0x3e3ab992	0.18234852
86	0x3e95ec12	0.2928167
87	0x3e98fec0	0.2988186
88	0x3f0d2d07	0.5514683
89	0x3d642f00	0.055708885
90	0x3e633577	0.22188364
91	0x3e84b3f7	0.25918552
92	0x400d2bba	2.2057939
93	0x3eb33758	0.3500316
94	0x3eae76e9	0.34075096
95	0x3f08fb34	0.53508306
96	0x3eee6d0d	0.46567574
97	0x3e82ccef	0.25546977
98	0x3e458591	0.19289233
99	0x3e865577	0.2623708
100	0x3f192cf3	0.5983421
101	0x3ee17da2	0.44041163
102	0x3d1a1f3b	0.03762744
103	0x3dfd8aa4	0.12379959
104	0x3fa61f58	1.2978315
105	0x3ec4f25f	0.38466164
106	0x3e8ede72	0.27904087
107	0x3f5666e3	0.8375074
108	0x3e7b22e0	0.24525023
109	0x3d96b4b5	0.07358686
110	0x3d2f5b22	0.04281152
111	0x3e0fdb2e	0.14048454
112	0x3e98d68a	0.2985118
113	0x3f034a00	0.5128479
114	0x3ea1f4ce	0.31632084
115	0x3e48a7a0	0.19595194
116	0x3e2bfac5	0.1679488
117	0x3d1478e3	0.0362481
118	0x3f05f1d6	0.5232214
119	0x3ed58698	0.4170425
120	0x3ec54522	0.38529307
121	0x3e8b44eb	0.27201018
122	0x3e750ec1	0.2393141
123	0x3f04d608	0.51889086
124	0x3e148701	0.14504625
125	0x3dcba1cb	0.09942969
126	0x3e0e6a98	0.1390785
127	0x3e552b9d	0.20817418
128	0x3ea97c67	0.33102724
129	0x3f8b387e	1.0876615
130	0x406612b0	3.5948906
131	0x3d941a89	0.07231624
132	0x3db626fe	0.08894156
133	0x3e4391b3	0.19098549
134	0x3f99f742	1.2028582
135	0x3e814bc0	0.25253105
136	0x3d8af30f	0.06784641
137	0x3eabf571	0.33585694
138	0x3ecbfa01	0.39839175
139	0x3e8bd836	0.27313393
140	0x3f3ef8fb	0.74598664
141	0x3e99c2d3	0.30031452
142	0x3f352f45	0.7077525
143	0x3eb46702	0.3523484
144	0x3f0109ce	0.50405586
145	0x3ffe0ef8	1.9848318
146	0x3e8569d9	0.26057318
147	0x3d67b9c1	0.056573633
148	0x3f657d10	0.89643955
149	0x3e7d4722	0.24734166
150	0x3ee69026	0.45031852
151	0x3e858701	0.26079562
152	0x3f6b9683	0.9202654
153	0x3eb1f55d	0.3475751
154	0x3ee07140	0.43836403
155	0x3e764f1b	0.24053614
156	0x3ec03508	0.3754046
157	0x3ea081dc	0.31349075
158	0x3f72d6b9	0.9485889
159	0x3f02dd27	0.511187
160	0x3e159e07	0.14611064
161	0x3f152c12	0.5827037
162	0x3e12a24e	0.14319727
163	0x3ea264cf	0.31717536
164	0x3f00cdc0	0.5031395
165	0x3e90918f	0.28236052
166	0x3f1676b9	0.58774906
167	0x3eafe62c	0.34355295
168	0x3fb8c646	1.4435508
169	0x3f26b65a	0.65121996
170	0x3d373bb0	0.044734657
171	0x3ffaefce	1.9604433
172	0x4031b0d1	2.776417
173	0x3eade1ca	0.33961326
174	0x3e983d88	0.29734445
175	0x3eaa2be0	0.332366
176	0x3ea4697a	0.32111722
177	0x3e8c73bb	0.27432045
178	0x3e3c2901	0.18375017
179	0x3e471b4d	0.19444008
180	0x3e8c9089	0.27454022
181	0x3ed08057	0.40722916
182	0x3ecb9f7b	0.3977011
183	0x400b35b1	2.175152
184	0x3d5b49a6	0.053537033
185	0x3e88ca47	0.26716825
186	0x40445f90	3.0683327
187	0x3e885d3a	0.26633626
188	0x3eaac9b5	0.33357015
189	0x3ecaaf7f	0.39587018
190	0x3f2d95ed	0.67806894
191	0x3f530493	0.82428855
192	0x3eef28cf	0.46710822
193	0x3e820248	0.25392365
194	0x4098dd02	4.7769785
195	0x3e9131fc	0.28358448
196	0x3f8cd22e	1.1001642
197	0x3e59deb9	0.21276368
198	0x3eac72dc	0.3368138
199	0x3fe6c838	1.8029852
200	0x3ea26b0e	0.317223
201	0x3dbdeefd	0.09274099
202	0x3f19951a	0.59993136
203	0x4032ec80	2.7956848
204	0x3e9ebc3f	0.31002995
205	0x3e9b2f80	0.30309677
206	0x3f3ef37d	0.74590284
207	0x3e616378	0.220106
208	0x3f4ecb71	0.80779177
209	0x3e9810e5	0.2970039
210	0x3e7b8bd5	0.2456506
211	0x3e381bce	0.17979357
212	0x3e1f097f	0.15530966
213	0x3ecf5c10	0.40499926
214	0x3faff2fa	1.3746026
215	0x3e4c847e	0.19972417
216	0x3e0d9be7	0.13829003
217	0x3de09d2e	0.1096748
218	0x3e837ed4	0.256827
219	0x3e09e2eb	0.13465469
220	0x3f5b4f24	0.85667634
221	0x3eed5bca	0.46359092
222	0x3f71e428	0.94488764
223	0x3e1e382f	0.1545112
224	0x3e9a92f9	0.30190256
225	0x3f009aa5	0.5023597
226	0x3d770846	0.060310625
227	0x3e63aaf9	0.2223319
228	0x3ff47114	1.9097009
229	0x3ead8449	0.33889988
230	0x3ebfad32	0.37436825
231	0x3e61aecc	0.22039336
232	0x3fd05ae3	1.6277736
233	0x3e93aab9	0.2884119
234	0x3ea014a3	0.31265745
235	0x3fbf8ff6	1.4965808
236	0x3e50e7ad	0.20400877
237	0x3fc6acd3	1.5521492
238	0x3e873930	0.26410818
239	0x3f8c5dab	1.0966085
240	0x3e32dbe4	0.17466694
241	0x3f0a66a7	0.54062885
242	0x3fb8b542	1.4430315
243	0x3e0ce71d	0.13760038
244	0x3dfdebdf	0.123985045
245	0x3e49842a	0.19679323
246	0x3e99f87d	0.30072394
247	0x3f153a01	0.5829163
248	0x3f9808c1	1.1877671
249	0x3fab89d1	1.3401433
250	0x3f018110	0.5058756
251	0x3f677186	0.904076
252	0x3e7d4e81	0.24736978
253	0x3e33a91e	0.17544982
254	0x3e40f86f	0.1884477
255	0x3e96b7e0	0.2943716

fc2.weight f4 [128, 256]
0	0xbb168991	-0.002297018
1	0xbd660d6d	-0.056165148
2	0x3d401714	0.04689701
3	0xbd53a967	-0.051675227
4	0x3c30a75b	0.010782088
5	0xbd6c9fb5	-0.057769496
6	0xbd055a85	-0.03255703
7	0xbe1470de	-0.1449618
8	0xbc8e625b	-0.017380884
9	0x3d1548bb	0.036446314
10	0x3dffbe8f	0.12487518
11	0xbd186cdd	-0.037213195
12	0x3e0943ca	0.13404766
13	0x3e00f9bb	0.12595265
14	0x3d354d89	0.044263396
15	0xbca3ac30	-0.019979566
16	0xbe11d969	-0.14243092
17	0xbdfa3552	-0.12217201
18	0xbe1122be	-0.1417341
19	0x3d8d66c0	0.06904364
20	0xbc8cc435	-0.017183403
21	0xbd8d86b8	-0.06910461
22	0xbc9f1766	-0.019420337
23	0x3dbbf5ed	0.09177766
24	0x3c8d5e14	0.017256774
25	0xbd1b0096	-0.037842356
26	0xbdbae7b3	-0.09126224
27	0x3dd6631d	0.10468123
28	0xbd3c01f4	-0.0459003
29	0x3cda17bd	0.026622647
30	0x3d15872d	0.036505867
31	0xbd1fb9e1	-0.038995627
32	0x3db70902	0.08937265
33	0xbe02979c	-0.12753147
34	0xbdb7c3c1	-0.08972884
35	0x3d140398	0.03613624
36	0x3d8a1f08	0.067442
37	0xbd94b192	-0.07260431
38	0x3d9e74d9	0.07737131
39	0xbe30b7d9	-0.17257632
40	0xbc85bbe8	-0.016324952
41	0xbd69c3a4	-0.057071343
42	0xbd06ba58	-0.032892555
43	0x3c8b8f50	0.01703611
44	0x3d820f5e	0.06350587
45	0x3c9ade8d	0.018904949
46	0xbd696237	-0.05697843
47	0xbe493be0	-0.19651747
48	0xbdb1da9b	-0.08684274
49	0xbd8c2aba	-0.06844087
50	0x3dbbb9db	0.091663085
51	0x3d6c0493	0.05762155
52	0xbc684200	-0.014175892
53	0xbdeafbdf	-0.11473822
54	0xbd1721ac	-0.036897346
55	0x3c43103e	0.011905728
56	0xbd134047	-0.03594997
57	0xbe26cc1d	-0.162888
58	0x3dc83d05	0.097772636
59	0xbd13b9e9	-0.03606597
60	0xbde418e2	-0.111375585
61	0xbdc0056e	-0.09376036
62	0x3bd5f27b	0.00652915
63	0x3ce89836	0.028392892
64	0xbe2034f4	-0.156452
65	0x3ca50672	0.020144675
66	0xbd98a4e3	-0.07453325
67	0xbdfb84c9	-0.12281186
68	0x3d280b09	0.04102615
69	0xbd9a461b	-0.07532903
70	0xbdf20299	-0.11816902
71	0x3c657d8f	0.014006986
72	0xbdac9ece	-0.08428727
73	0x3d9deb11	0.07710851
74	0xbc903330	-0.017602533
75	0x3d0e41cc	0.034730718
76	0xbe536a43	-0.20646004
77	0xbcef8c68	-0.029241756
78	0xbe2a3e9e	-0.16625449
79	0xbddf89e2	-0.10914971
80	0x3db1c681	0.0868044
81	0xbd8bcf2a	-0.06826623
82	0x3d8f89b4	0.07008687
83	0xbd266da4	-0.040631905
84	0xbd6efe88	-0.05834821
85	0x3e14b926	0.14523754
86	0xbda066d9	-0.07832117
87	0x3da2b9dd	0.07945607
88	0x3d7b976a	0.061423697
89	0xbce6cb15	-0.028173009
90	0xbb28d495	-0.0025761474
91	0x3d5aa041	0.053375486
92	0x3d6dc743	0.05805136
93	0xbd489765	-0.048972506
94	0x3ccdf69f	0.025142012
95	0xbc4785a1	-0.012177856
96	0xbe47ff1c	-0.1953091
97	0x3d8c0c41	0.06838275
98	0xbe1beb74	-0.15226537
99	0x3d1bd035	0.03804036
100	0xbd98f573	-0.07468691
101	0x3d84eddc	0.064906806
102	0xbc9e470d	-0.019320989
103	0xbd36a158	-0.044587463
104	0xbd9ed564	-0.07755545
105	0x3d9babd1	0.07601131
106	0x3deca1ac	0.11554274
107	0xbe0ac683	-0.13552289
108	0xbd4a1cf4	-0.049344018
109	0x3e640229	0.22266449
110	0xbce578f8	-0.028011784
111	0xbd258198	-0.040406793
112	0x3c834810	0.016025573
113	0x3c392160	0.011299461
114	0xbd008885	-0.031380195
115	0xbdabe140	-0.083925724
116	0xbdcbec67	-0.099571995
117	0xbce417d8	-0.0278434
118	0xbc4bdc51	-0.012442664
119	0xbb2cb301	-0.0026351812
120	0xbddb96de	-0.10722135
121	0x3d50e4f2	0.05099959
122	0xbd93fd33	-0.07226028
123	0xbde47be9	-0.111564465
124	0x3d981c05	0.07427219
125	0xbdf4af94	-0.11947551
126	0x3be93b48	0.0071176626
127	0xbd4568b8	-0.04819557
128	0xbd873e48	-0.06603676
129	0xbb960e95	-0.004579375
130	0xbdc6680f	-0.09687816
131	0x3d4b670b	0.049658816
132	0xbcf8ffe1	-0.03039545
133	0xbc94b2a7	-0.018151594
134	0x3e37f2bb	0.17963688
135	0x3c4d79a8	0.012541212
136	0xbddf5a41	-0.109058864
137	0x3cb4f885	0.02209116
138	0xbdffe6d4	-0.12495199
139	0x3d2aef22	0.04173196
140	0x3d0aa1a3	0.033845555
141	0xbda7ca1e	-0.08192848
142	0x3d7fd683	0.062460434
143	0xbcab141c	-0.020883612
144	0xbe53d337	-0.20686041
145	0xbd60f5b8	-0.054921836
146	0xbe38d622	-0.18050435
147	0x3c33d98e	0.010977162
148	0x3cb9bda1	0.02267343
149	0xbd5c250b	-0.053746264
150	0x3cf18993	0.029484546
151	0xbd413efe	-0.047179215
152	0x3d5328c7	0.05155256
153	0xbdb12f5b	-0.086516105
154	0x3cf84fe9	0.030311542
155	0xbc888d36	-0.016668897
156	0x3d8055f0	0.06266391
157	0xbe173c70	-0.14769149
158	0x3e2060b2	0.15661886
159	0x3d60cd42	0.05488325
160	0xbd8fd05d	-0.07022164
161	0x3cba6c3a	0.022756685
162	0xbd66d29f	-0.056353208
163	0xbe31fe55	-0.17382176
164	0xbdc67817	-0.09690874
165	0xbbcc5c06	-0.006236556
166	0x3c5dd6d1	0.013539986
167	0x3e272d9c	0.16325992
168	0x3dce9888	0.10087687
169	0x3e1cbb0c	0.15305728
170	0xbdc97375	-0.09836475
171	0x3c66e215	0.014091988
172	0xbdae2e7b	-0.08504959
173	0x3d896954	0.06709543
174	0x3d8ddca1	0.06926847
175	0x3e496c8b	0.19670312
176	0xbdb822c9	-0.0899101
177	0xbd26eb97	-0.04075202
178	0x3db381af	0.087649696
179	0xbd59c236	-0.05316373
180	0xb8e9eb36	-0.00011154117
181	0xbdd3b8cf	-0.10337984
182	0xbdc33d57	-0.09533184
183	0xbe14a571	-0.14516236
184	0x3c798a56	0.015230736
185	0xbde8c68a	-0.11365993
186	0xbd4bcf2a	-0.049758114
187	0x3d8713d4	0.06595579
188	0xbe05ed85	-0.13078888
189	0xbe1611ec	-0.14655274
190	0x3df2f420	0.118629694
191	0xbdd0359b	-0.101664744
192	0x3daa94de	0.083291754
193	0xbd143afb	-0.03618906
194	0xbda3b64d	-0.079937555
195	0x3dbcaf35	0.092131056
196	0x3e05e06c	0.13073891
197	0xbcbaa948	-0.022785798
198	0x3d2ca1e1	0.042146567
199	0xbdb6a5ce	-0.089183435
200	0x3d882755	0.06648127
201	0xbdfc1a9a	-0.12309761
202	0xbe080422	-0.13282827
203	0xbaf4d39e	-0.001867879
204	0x3c8e3bf5	0.017362574
205	0xbdb0cb6d	-0.086325504
206	0x39f45099	0.00046599357
207	0x3d3768c5	0.04477765
208	0x3d875b45	0.06609205
209	0xbd994ed3	-0.07485738
210	0xbd06c6d9	-0.03290448
211	0x3ceb8348	0.028749123
212	0xbc43d915	-0.011953612
213	0xbd0b4130	-0.033997715
214	0x3d99bf96	0.07507245
215	0xbc98f19a	-0.018669892
216	0xbe10b51d	-0.14131589
217	0xbb07944d	-0.002068776
218	0x3ce61abb	0.028088918
219	0xbe34c82d	-0.17654486
220	0xbe2e4587	-0.1701871
221	0xbe235eda	-0.15954152
222	0x3dc5835b	0.09644195
223	0xbc8ff03f	-0.017570613
224	0x3ded4407	0.11585241
225	0xbcfe3871	-0.031032773
226	0x3db2d5fb	0.0873222
227	0x3cea1dba	0.028578628
228	0x3bad39b8	0.0052864216
229	0x3bfb9fcc	0.0076789614
230	0x3da971d4	0.08273664
231	0x3d0b6f36	0.034041606
232	0xbb99a091	-0.0046883305
233	0xbdd6e938	-0.10493702
234	0x3e48e3de	0.19618174
235	0xbdbbe399	-0.0917427
236	0xbc9a78ac	-0.018856369
237	0xbd8abb70	-0.06774032
238	0x3ceb417a	0.028717745
239	0xbc8d5502	-0.017252449
240	0x3e2631dc	0.16229957
241	0xbd43e11f	-0.047822114
242	0xbc28bfee	-0.010299666
243	0xbd31a176	-0.04336687
244	0x3dbbe90d	0.0917531
245	0xbda06f00	-0.078336716
246	0xbd87f33a	-0.06638189
247	0x3d7b690f	0.06137949
248	0x3e3d5721	0.18490268
249	0xbe186a0a	-0.148842
250	0xbcf97cdd	-0.030455047
251	0x3dc63b36	0.09679262
252	0x3e25250c	0.16127414
253	0x3cbb007a	0.022827376
254	0xbd8a6355	-0.06757227
255	0x3d48f690	0.049063265

fc2.bias f4 [128]
0	0xbd51ae04	-0.051191345
1	0xbce94982	-0.028477434
2	0x3d2192e2	0.03944672
3	0x3d7528c8	0.059853345
4	0x3c56be35	0.013106872
5	0x3ce9ad50	0.028525025
6	0x3ca83c0d	0.020536447
7	0xbcc289f9	-0.023747431
8	0x3cb7b98e	0.022427347
9	0xbd123967	-0.035699274
10	0x3d09884c	0.03357725
11	0xbcb74e38	-0.022376165
12	0xbd026812	-0.03183753
13	0x3c81b5fd	0.01583385
14	0xbc515df9	-0.0127787525
15	0x3c14c5ef	0.009080394
16	0xbd52b955	-0.051446278
17	0xbca3e1d3	-0.020005142
18	0x3ce74faa	0.028236229
19	0x3d5de9a1	0.054177884
20	0xbc3681ce	-0.011139346
21	0x3cc6adf5	0.024252871
22	0xbc7d3102	-0.015453579
23	0xbd0304bc	-0.031986937
24	0x3d34fc1b	0.04418574
25	0x3d07c114	0.033143118
26	0x3d805622	0.062664285
27	0xbc06fa74	-0.008238424
28	0xbba11409	-0.0049157185
29	0xbd7699a6	-0.060205124
30	0xbd63e404	-0.055637375
31	0xbab1b0d2	-0.0013556725
32	0x3cb23417	0.021753354
33	0x3ac6d65b	0.0015170084
34	0xbd735ba8	-0.059413582
35	0x3b13930d	0.002251807
36	0x3d61e094	0.055145815
37	0x3a5e88d6	0.0008489018
38	0xbd6a8200	-0.057252884
39	0x3d56fd1f	0.05248749
40	0xbc4ab1cc	-0.012371492
41	0xbbdd00cb	-0.0067444793
42	0xbd63e53a	-0.05563853
43	0x3d6a419a	0.05719147
44	0x3d7745c4	0.060369268
45	0x3bc625c6	0.0060469834
46	0xbcc50343	-0.024049407
47	0xbd50e83f	-0.051002737
48	0x3bcb3459	0.0062013087
49	0xbd060213	-0.032716822
50	0xbd0053bf	-0.031329866
51	0x3d4b2e21	0.04960454
52	0xbc6662ed	-0.014061672
53	0xbd5838d6	-0.052788578
54	0x3ca033b9	0.019555913
55	0x3d3f5c0e	0.04671865
56	0xbc9a3386	-0.018823396
57	0x3cf14ab8	0.029454574
58	0x3d009b4a	0.031398095
59	0xbc85a4d5	-0.01631395
60	0xbc8f4ae0	-0.017491758
61	0xbd5a00a7	-0.05322328
62	0xbd551f6f	-0.05203193
63	0x3d65f202	0.056139
64	0x3d547d69	0.051877413
65	0xbcbba72f	-0.022906868
66	0x3d03f4e6	0.032215975
67	0x3d75f9ae	0.060052566
68	0xbd7125d6	-0.058873974
69	0xbae0f903	-0.0017164055
70	0xbcce2aaa	-0.025166828
71	0x3d57ca7e	0.052683346
72	0xb932ce88	-0.00017052342
73	0xbd1f5b27	-0.03890529
74	0xbd16a68a	-0.036779918
75	0x3ba24cae	0.0049529886
76	0x3d230b42	0.03980566
77	0x3cff62d9	0.031175064
78	0xbc74c0e2	-0.014938565
79	0x3cd28b52	0.025701199
80	0x3b6ead71	0.0036419297
81	0xbd3dc4ba	-0.04633019
82	0xbd4fe952	-0.05075962
83	0xbd500681	-0.050787453
84	0x3c0ba21f	0.008522539
85	0xbcbd7fb4	-0.023132183
86	0x3d348ab0	0.044077575
87	0x3c3a6eb7	0.011378936
88	0xbd03d444	-0.032184854
89	0xbd1070d2	-0.035263844
90	0xbd555e0d	-0.052091647
91	0xbd28ec4c	-0.041240975
92	0x3d432a51	0.047647778
93	0x3d66797c	0.0562682
94	0xbaa72d27	-0.0012754545
95	0xbcf079a5	-0.02935488
96	0x3d487c52	0.048946686
97	0x3d4ac0dc	0.04950033
98	0xbd542b91	-0.05179936
99	0x3aae1095	0.0013280088
100	0x3cffe522	0.031237189
101	0x3ced94f8	0.029001698
102	0xbc447f35	-0.011993219
103	0x3d32dd98	0.04366836
104	0xbcf388fa	-0.029728401
105	0xbd617475	-0.055042703
106	0xbc44ea12	-0.012018697
107	0xbcb7efef	-0.022453276
108	0x3d2a457d	0.041570175
109	0xbd55f234	-0.052232936
110	0x3cb4b053	0.022056734
111	0xbcb53d77	-0.022124035
112	0x3c26929f	0.010166793
113	0x3cfc4dee	0.030798879
114	0x3d1b9023	0.037979256
115	0x3c4ed031	0.012622879
116	0xbc239d96	-0.009986302
117	0x3d6e35d6	0.05815681
118	0x3bb88185	0.0056306743
119	0x3b8994c6	0.0041986434
120	0x3c558bfe	0.013033865
121	0x3c21fbdd	0.009886709
122	0x3d68fbb0	0.056880653
123	0xbc13df97	-0.009025476
124	0xbc296cf1	-0.010340915
125	0xbcb057a6	-0.021526169
126	0xbd05cb9a	-0.032664873
127	0xbbe4e364	-0.006985115
