shallow_nn_pytorch.pth (torch, 43929 bytes, 6 tensors)

fc1.weight f4 [128, 8]
00000000: 20cb 233d 72c1 583e 820c dd3d c432 b83e
00000010: ef1d dfbd 9dc7 b23d 0330 193e 9d1f 54be
00000020: 170a 98bb 13e4 0b3d 5105 c23d a0d8 84bf
00000030: e270 dc3e 21d2 30bf 8808 7b3e 78ff cfbe
00000040: 9b2d 793e e5ec 9b3c c87d 15bd 8087 d5bd
00000050: 1a68 7bbf 17f4 b73b 35a1 9fbe e263 05bf
00000060: fdba 70be dc09 5ebd 5e68 ebbe 96a0 6c3e
00000070: 36f1 51bf 82e4 243e 3b08 c43c 371f eabe
00000080: 737a 14be 67d3 c8be db39 493e f149 0b3d
00000090: 8c66 0fbe 7cc6 57bd 1246 803e 6b0f 393d
000000a0: 2bcc 243d 0944 42bc e8f5 653d e67b b93e
000000b0: d44f 7cbf d1ca b33e 02e9 d9bd f798 91bd
000000c0: 3452 c63b c3ca 2fbc 59bd 763a aaa5 6b3e
000000d0: 5c36 973d 9a90 dfbf 6a91 ab3c c720 9cbe
000000e0: ccd5 da3d 25a3 d4be 5cb3 21be 932c 13bd
000000f0: f5a8 e03c d174 33bf d99d a53d 97ba 6ebd
00000100: 1e5a 933d ed6b 0dbd 3d14 88bc d4da 9fbf
00000110: 7692 03be 905d ebbe fa35 143e e12f 24bf
00000120: 2002 be3e dac0 dc3d 6c29 8b3e b9e1 a73e
00000130: d914 2ebf 68b9 9a3e 7ac6 c2be 0005 9ebe
00000140: 6877 49bd e1ce a9be 7ac1 8a3e d8e7 bc3e
00000150: 2c92 86be 4137 e3be 54a0 853c ef8d 17bd
00000160: 81bc 2abd 5c88 613b d759 7e3c 2772 e7be
00000170: 5ee4 39bf 12aa 583e 5b8b 0fbf 8770 07bf
00000180: 1523 1ebf 3bf9 7bbc 78e8 41be 24e3 bfbd
00000190: 64a3 7c3e 3d95 0a3e 4bfd 863d 0002 82be
000001a0: 81c1 243c 4b83 6ebd ddac 4d3e e7fc 48be
000001b0: e3b1 47be 124a 7dbd 74cc 6b3e d968 563e
000001c0: 5787 d7be cf3b 6dbd d2a1 c0be 3166 1b3d
000001d0: 32f4 e8be bb2d 793c 8f80 afbd 303e 983e
000001e0: 9e50 543e 266e 443b 9b89 9dbd bcfa fcbe
000001f0: 3f11 1f3f 8e0f bf3d 7818 e4be 77a5 903e
00000200: e58b 02bf a605 1cbc bea2 063f 96ff fdbd
00000210: 6aaa 16bb a89c 7a3e 5962 0b3e edac 02be
00000220: c9cc 433d c949 28be 4781 393d e756 943e
00000230: 1524 0cbf 3143 3fbe 4868 ba3c 0e6b 203e
00000240: 5b73 8fbc 8cb3 4ebd 6d2d d53c bbf3 0fbf
00000250: efb5 2b3f 102e a8bd a7c2 023e 3bf1 cbbd
00000260: b709 fcbe 9980 113f d464 42be 3a68 293d
00000270: 3f26 85bd 96d1 ef3d 729f 8a3e ff5e d0bb
00000280: dee9 cebc cd3a 19b9 7388 61ba 1a87 e63e
00000290: 7eb1 f5bd 90e4 a8bf 5f45 623d 8a58 933e
000002a0: 3df9 e9bb 0e9e 1f3f 08cf 5abe 4d5d 5b3c
000002b0: 3134 933d 6a27 ed3b 4fad bd3d 43a3 333e
000002c0: 1d78 fabe 3957 2dbe 937b 203e 9ede bfbc
000002d0: 4454 9d3e bb9c 21be be13 a73c 9e11 9ebe
000002e0: 7bc6 4e3c e8c8 393e c049 d8bd 60b4 77bd
000002f0: abc3 8c3e 8deb aabf fb88 6f3d 01c0 58be
00000300: 0fc8 f63e c222 e2bc 01d8 90be 9786 2fbe
00000310: f711 28bf defd 473e c2c2 343e 98b6 e7bd
00000320: 2090 423e 53b4 52bd 8188 25bf fb99 df3d
00000330: 3856 cf3e e724 b73d 82df 38be 520f d1be
00000340: 52c1 643e 779b cebd 814a e2be 4c7d 5b3e
00000350: 3b98 8e3e eec9 b8bd 7d8c e5be 56b0 613e
00000360: 59bd 75bd 1b80 d43d 09d9 6d3e 0b40 ac3d
00000370: 63bf 3e3d dd85 dfbd 44ef 863d b4ad 38be
00000380: 2204 b13b 9429 32bc 0021 123e a123 88be
00000390: 98a1 503d f4b7 3cbf 5efb 383d 627e e5be
000003a0: 24e1 f4be adc8 f9bd 7c6b b03e 5ff1 b63c
000003b0: 42be fc3e 1c57 08bf af5d bdbe b26a 9a3e
000003c0: 75ed 943e 4878 583e 9f56 bcbe b63f 733e
000003d0: 761a 23be f048 573c 0ea7 e33e b645 babd
000003e0: 1b9e 8b3d 591d 283f c31c 883e 8d28 bcbd
000003f0: ca94 04be 1073 7dbd 08fa 273e c52d 5a3e
0.039988637 0.21167544 0.10793401 0.3597623 -0.10894381 0.087294795 0.14959721 -0.20715185
-0.0046398747 0.034153055 0.0947367 -1.0378609 0.43054873 -0.6907063 0.24514973 -0.40624595
0.24333803 0.019033859 -0.036496907 -0.10426235 -0.9820572 0.0056138146 -0.3117768 -0.52105534
-0.2350883 -0.05420862 -0.45978063 0.23108134 -0.82008684 0.16102794 0.023929706 -0.4572694
-0.14499836 -0.39223787 0.19650976 0.034006063 -0.14003962 -0.052679524 0.2505346 0.04518072
0.040233772 -0.011857041 0.056142718 0.3622734 -0.9855931 0.35115674 -0.10640146 -0.07109254
0.00605228 -0.0107294945 0.000941237 0.23012415 0.07383415 -1.7466004 0.020943362 -0.30493757
0.1068531 -0.4153072 -0.15791076 -0.03593118 0.027424315 -0.7010012 0.08086748 -0.058283415
0.07194923 -0.034526754 -0.016611213 -1.2488656 -0.12848839 -0.4596982 0.14473715 -0.6413556
0.37110996 0.10778971 0.2718004 0.327894 -0.6800056 0.3021958 -0.3804205 -0.3086319
-0.04918614 -0.3316565 0.27100736 0.36895633 -0.26283395 -0.44378093 0.016311802 -0.037000593
-0.041683678 0.0034413552 0.015524349 -0.4520428 -0.72614086 0.21158627 -0.56072015 -0.5290608
-0.6177228 -0.015379245 -0.18936336 -0.093694955 0.24671704 0.13533492 0.065912805 -0.2539215
0.010055901 -0.05823068 0.20085473 -0.19627725 -0.19501452 -0.061838217 0.23027211 0.20938434
-0.42095444 -0.057918366 -0.3762346 0.037939254 -0.45498806 0.015208657 -0.085694425 0.29734945
0.20733878 0.002997288 -0.07692262 -0.49410045 0.6213569 0.09329139 -0.44549918 0.2825124
-0.5099471 -0.009522831 0.52592075 -0.12402265 -0.0022989758 0.24473822 0.13611735 -0.12761278
0.04780272 -0.16434397 0.045289304 0.2897255 -0.54742557 -0.18677975 0.022754803 0.15665838
-0.01751106 -0.050464198 0.026022637 -0.5623128 0.67074484 -0.08211911 0.12769566 -0.099581204
-0.49226162 0.5683685 -0.18983775 0.041359164 -0.065014355 0.11709897 0.27074772 -0.0063589807
-0.025258001 -0.00014613122 -0.00086034014 0.4502495 -0.119967446 -1.3194752 0.05524194 0.28778487
-0.007140307 0.6235055 -0.21368039 0.013388944 0.07187689 0.0072373645 0.092615716 0.17542748
-0.48919764 -0.16927804 0.1567214 -0.023421582 0.30728352 -0.15782444 0.020395156 -0.30872816
0.012620564 0.18143046 -0.10560942 -0.060474753 0.27493033 -1.3353134 0.058480244 -0.21166994
0.48199508 -0.027604464 -0.28289798 -0.17141186 -0.6565241 0.19530436 0.17652419 -0.11314124
0.19000292 -0.0514415 -0.64661413 0.10918041 0.40495467 0.089425854 -0.18054011 -0.40832
0.22339371 -0.10088246 -0.44197467 0.21434516 0.27850518 -0.0902289 -0.44833747 0.22039923
-0.05999503 0.10375997 0.23227324 0.08410653 0.04656924 -0.10914204 0.06588605 -0.18035012
0.005402104 -0.010874171 0.14270401 -0.26589683 0.050935358 -0.7371819 0.045161597 -0.44822985
-0.4782802 -0.12196479 0.34457004 0.022331892 0.49363905 -0.5325792 -0.36985537 0.30159527
0.29087415 0.21139634 -0.36784837 0.23754773 -0.15928063 0.013139948 0.4446339 -0.090953276
0.068172656 0.6566978 0.26584443 -0.09187422 -0.12947384 -0.06187731 0.16403973 0.21306522

fc1.bias f4 [128]
00000000: 2403 a6bc 954f b8be ebab e9be c763 06bf
00000010: cba5 2cbe f5c2 84bc b3f2 c0be 55d5 cbbe
00000020: f596 08bf 7f03 f1be b41a ebbe 67cb 0abf
00000030: ce44 debe 54ba 4bbd 74db 1bbf b663 b2be
00000040: b988 e0be 3f2a 43bd 821b b2bc 98ad 2abf
00000050: 29c5 5fbd 6898 29bf 5bd7 bcbe e948 9bbe
00000060: 0963 8cbe d6a8 68bf b2d2 55bf 0c98 66bd
00000070: 4e59 81be b444 19bf 1a36 b3be ebf4 70bf
00000080: 90d6 aa3c b5d0 b6be a2bb 5ebd 8550 26bd
00000090: cf51 9abe 729c 21bf 6c88 abbe 11fc d4be
000000a0: db56 b1be 5532 08bf 5101 0ebf 4d05 c6be
000000b0: 78c4 4dbe 3665 e8bd 234d 3ebf 411f 64be
000000c0: 5817 a1be e8d8 24be a47b abbe 075c 1bbf
000000d0: bf9f b7be f53e 1dbf eadc a0be 28db 4cbe
000000e0: 6789 0abf c042 c1be e93c e7be 2278 7cbe
000000f0: 5c3f 373d 11ea a9be c3f0 6abd 4300 ebbd
00000100: b974 0bbf b6e0 00bf 11d2 2bbe e56e 0ebf
00000110: 8f48 e4be 0d0d 1fbe 6415 08be bea6 45be
00000120: 909a 61be fddc 3cbf 89f9 423d 5a95 b2bd
00000130: f195 1ebe 415c 07bf 829a b03d 0709 03be
00000140: bb8f d9be 04a8 febe d55d 13bf c349 05bf
00000150: c709 07bf 49cf a8be 7d7c 873d 90f0 62be
00000160: 136c 9cbe c626 f2be 4889 69be 297f aabe
00000170: 5e8f d6bd 9640 1dbe af31 34bf da35 4cbf
00000180: d10c 3abf b7ad a0bd 1aa3 bebe 5a3d 27bf
00000190: a6bd 30be d839 c3be ff80 35bf 0deb 5abf
000001a0: 128b 7abe 5ffc 19bf 6bdf 8fbe 8006 49bf
000001b0: 0f2d d1be 7bed ffbd d111 ffbe 6694 9dbe
000001c0: d7f2 c1be c49f f2be ab14 d23b 6cc5 33be
000001d0: 8977 cfbe a4de 32bf 93a7 0dbf 37a3 3fbe
000001e0: f3f3 a0be ae51 17be 43ea bdbe 390b e0be
000001f0: 0f6f 39be 3a42 dc3c 34fd 35be a40e febe
-0.02026517 -0.35998216 -0.45638976 -0.52496 -0.1686012 -0.016206244 -0.37685165 -0.39811197
-0.5335534 -0.4707298 -0.4591881 -0.5421662 -0.4341187 -0.049738243 -0.60881734 -0.34841698
-0.4385431 -0.04764771 -0.021741632 -0.66671133 -0.054631386 -0.6624818 -0.36883053 -0.30329064
-0.27419308 -0.90882623 -0.8352462 -0.056297347 -0.25263447 -0.5987046 -0.35002214 -0.94123715
0.020854264 -0.35706106 -0.05437816 -0.040604133 -0.3014054 -0.6312934 -0.3350252 -0.4159856
-0.34636578 -0.532018 -0.5547076 -0.3867592 -0.20094478 -0.113474295 -0.7433645 -0.22277547
-0.31463122 -0.16098368 -0.33492768 -0.606873 -0.35864064 -0.6142419 -0.31418544 -0.20005476
-0.5411591 -0.3774624 -0.45163658 -0.24655202 0.04473816 -0.3318639 -0.057358515 -0.11474659
-0.5447498 -0.5034288 -0.16779353 -0.5563796 -0.44586608 -0.15532322 -0.1328941 -0.19301888
-0.22031617 -0.737747 0.047601257 -0.08719893 -0.15486886 -0.52875143 0.0862322 -0.12796412
-0.4249247 -0.4973756 -0.5756505 -0.52065676 -0.52749294 -0.32970646 0.06615541 -0.2216208
-0.30551204 -0.47295207 -0.22806275 -0.3330014 -0.10476564 -0.15356669 -0.7038831 -0.7976967
-0.72675806 -0.078456335 -0.37233812 -0.6532799 -0.17259845 -0.3813007 -0.7089996 -0.8551491
-0.24467114 -0.6015071 -0.28100142 -0.78525543 -0.4085469 -0.12496468 -0.4981828 -0.30777282
-0.37880585 -0.47387516 0.006411155 -0.17555779 -0.40520886 -0.6987097 -0.5533382 -0.18714605
-0.31436118 -0.14777252 -0.3709279 -0.43758562 -0.18108772 0.026887048 -0.1777237 -0.49620545

fc2.weight f4 [64, 128]
00000000: a93b a7bc 5859 133e 22f1 29bf c706 b73e
00000010: 708c 303e 17c1 95be 4425 79be ad30 5fbd
00000020: 1e4b 86bf 9015 2ebf df63 b2be 945d 0ebf
00000030: aee1 3cbe eefd 563e 0779 7c3e 9875 1abe
00000040: 41eb ac3d 9bbc 0ebe 4e67 153e 095d c33c
00000050: d16e ddbd 198d 5d3d ad07 e0bc 12c7 00be
00000060: e822 01bf 0343 48bd f507 953b a6d4 143d
00000070: ee80 28be 1e90 31bc c558 1a3e ff0a e63e
00000080: 8783 05bf 58cd e4bd 47b1 89bd 4297 853e
00000090: 7416 1c3d 4849 913b cb04 8bbe a4b5 133d
000000a0: 724e a5ba 2024 19bf 7ca8 14bf d96d 2cbe
000000b0: c360 8ebe 13ea 0fbd 9f58 973d bbab 533d
000000c0: 25b0 bcbe 99a1 9b3d db95 b9bc 252b 443c
000000d0: e2dd 753e 8835 7b3d 6b9b 023d b918 7dbc
000000e0: e2ec 99be fb23 613d ae1a 423d 65df afbe
000000f0: d4b0 ef3b f26a edbc 2641 26be d0c7 7ebd
00000100: 01e1 983d e930 d83d 6365 7d3b 9d49 bb3d
00000110: b160 3f3d 42c4 a73d bb58 ec3d 1b39 0dbd
00000120: 183e 56be 64ce c2be a096 ee3d 3327 7dbe
00000130: fcd3 abbd 8770 23bd 7f65 17bd d920 0f3e
00000140: b22d 023e 0ff9 863c 0a9b 723e 7f8e 023e
00000150: 648b ca3d 6569 67be 3856 da3d 2143 453e
00000160: 893a 163d 8181 0b3e 178b 9abe 1de7 babd
00000170: e4f0 e43d bf5d a1bd 6a37 a4bd e509 f9be
00000180: 44c8 f1bd 3498 c13d 0f0b 84be 14b5 c9be
00000190: e075 f13d 507d 7c3e 6fbf 72bd 62b7 f3be
000001a0: 9742 413e 41c5 9a3d 7406 253c 8129 c23b
000001b0: 7ed7 eebc ab64 1bbf 0918 f9be 4d5f 5fbe
000001c0: 60e3 35bf 63a1 c0be 9e21 c2bb 1966 1f3e
000001d0: 5d14 55bf a5ec e3be 4a2d 50bd 4384 79bd
000001e0: 3e60 27bd 5742 c5bd 5073 b9bc 52b4 df3d
000001f0: 42d2 a73c d5f4 febd 8ce0 fb3d fbb2 6fbe
00000200: d8d7 4d38 1c11 d13d 9cae 213e 415e 6cbf
00000210: 53e8 08be 18bd 0d3e 0bf3 bcbf 2dc4 103e
00000220: 454d 543e 09a9 2a3d 30fb a6bd 802a cb3d
00000230: 3314 1f3e 64b4 1bbc 2d8f 1abf 3759 5cbe
00000240: fd59 cfbe cdc7 703e cb98 e5be 5c90 38bd
00000250: 5da4 04c0 41bb 383f 42ff e8be 9fef 373d
00000260: 4f6a abbf adae 86be 458e ebbd 21b4 c23d
00000270: a59c de3d 5552 f4bd ee84 d0be 88c7 ee3e
00000280: ee3f 16be ae9d 8cbf be2d 96be c6d1 88bc
00000290: b0e4 03bd 162f debb ec04 f6bf 66ec c0bd
000002a0: 52eb 8bbc cbf0 44ba 52bb 3d3e f179 ee3d
000002b0: 30ca fcbe 41d9 73be 3473 cdbe a381 de3d
000002c0: f795 063e 7c4e c8bc af8b e4bd a2aa e7bd
000002d0: f54f 8ebf 95d1 17bf 377a 8ebe 0456 33bb
000002e0: d917 ab3e de3f 223e d18b 11bd ca6d 1ebd
000002f0: eb3a 3ebe 003c ed3e 9481 99bd 15d4 aabf
00000300: 9147 2e3d 684c 9abc b4e3 5fbf 1ec1 f13d
00000310: e750 1fbe a21d 2bbf 1baf 58bf 64d3 b0bd
00000320: 1157 4d3d 5500 ec3e fabd f9be e14f 013d
00000330: cdfe e7bf c392 61bb f98c d0bc 61fb 873e
00000340: b0ed ebbd 2b8a cfbd 4b97 81be 85c2 8e3e
00000350: 1a61 ff3d 02ce 4bbe 7728 c83c 4326 8c3e
00000360: 98f4 d5be 9269 393d a141 453e 40d4 2cbe
00000370: 2b79 3ebf 0013 fbbe de92 ed3d 8094 a03e
00000380: db6f 253d 445d 8dbf ec25 d33d c17f a83e
00000390: 658b 9fbf 0a80 a53b 66b6 7ebe db7e 95bf
000003a0: 1590 86bd 3a8d 70bd 96da 973e 653b ba3d
000003b0: b4fd 5a3d 1e3d 4abe f830 683e 6f84 b5bd
000003c0: a9a6 853e cda3 013e 1346 16be 2bb6 693e
000003d0: 4e7b dcbd d756 9ebf 57ba c4bd 8253 b6bf
000003e0: 0643 6cbf e9cf b6bf 73f8 f9bf 1916 b4be
000003f0: 721f d5bd 1295 353e fb29 e5be 51c1 b6bf
-0.02041419 0.1438955 -0.66383564 0.35747358 0.17241073 -0.29248878 -0.24330622 -0.05448978
-1.0491674 -0.6800165 -0.3484182 -0.5561154 -0.18445465 0.20995304 0.24655543 -0.15083921
0.084433086 -0.13939135 0.14590189 0.023848074 -0.10812152 0.05408964 -0.02734741 -0.1257594
-0.5044389 -0.048892032 0.0045480677 0.03633561 -0.16455433 -0.010837583 0.15072925 0.44930264
-0.5215382 -0.11171979 -0.06723266 0.26091963 0.03810735 0.0044337846 -0.27152094 0.036061898
-0.001261188 -0.5982075 -0.58069587 -0.16838779 -0.27808198 -0.03513534 0.0738995 0.051677447
-0.36853138 0.07599182 -0.022654464 0.011973177 0.24010423 0.06133035 0.0318865 -0.015447789
-0.3006354 0.054965954 0.047388725 -0.34350124 0.0073147807 -0.02898166 -0.1623579 -0.062202275
0.07464791 0.10556204 0.0038665168 0.091449 0.04672307 0.0819173 0.115403615 -0.03447829
-0.20922124 -0.3804809 0.11649823 -0.24721985 -0.08390042 -0.039902236 -0.03696203 0.13977374
0.12712744 0.016476182 0.23691955 0.1274967 0.09889868 -0.22598799 0.10660976 0.19263889
0.036676917 0.1362362 -0.30184242 -0.091261126 0.11178759 -0.07879209 -0.08018382 -0.4864036
-0.11805776 0.094528586 -0.25789687 -0.39395964 0.11790061 0.24657178 -0.059264597 -0.47600847
0.18873058 0.075571544 0.010072339 0.005925358 -0.029155489 -0.6070048 -0.4865115 -0.21813698
-0.7105007 -0.37623128 -0.0059244176 0.15566291 -0.83234197 -0.44516483 -0.05082444 -0.06091715
-0.040863268 -0.09631794 -0.022637993 0.10923065 0.020486 -0.12449042 0.12298688 -0.2340812
4.907683e-05 0.102083415 0.15789264 -0.9233132 -0.13369875 0.13841665 -1.4761671 0.14137335
0.20732601 0.04166511 -0.08153379 0.099202156 0.15535049 -0.009503458 -0.6037472 -0.21518408
-0.40498343 0.23513718 -0.44843134 -0.045059547 -2.072532 0.72160727 -0.45507246 0.044906255
-1.3391818 -0.26305142 -0.11501745 0.09507013 0.10869721 -0.11929766 -0.40726417 0.46636605
-0.14672825 -1.098562 -0.29331774 -0.01670159 -0.032200515 -0.0067805154 -1.9220252 -0.094200894
-0.017079983 -0.00075126876 0.18528488 0.11644352 -0.49373007 -0.23813345 -0.40126956 0.1086457
0.13143145 -0.024451487 -0.11159455 -0.113118425 -1.1118151 -0.5930417 -0.27827618 -0.0027364502
0.33416632 0.15844676 -0.03553373 -0.03867892 -0.18577163 0.4633484 -0.07495418 -1.3345972
0.04254872 -0.018835261 -0.8745682 0.11804412 -0.15558206 -0.6684209 -0.8464219 -0.086340696
0.05013186 0.46094003 -0.48777753 0.03157032 -1.8124634 -0.0034419752 -0.025457846 0.26558974
-0.11519945 -0.10133775 -0.2531074 0.27882782 0.124696925 -0.19902804 0.024433358 0.2737294
-0.41788173 0.045266695 0.19263317 -0.16877842 -0.7440364 -0.49037933 0.11600278 0.31363297
0.040389877 -1.1044087 0.103099674 0.32909968 -1.2464415 0.005050664 -0.24874267 -1.1679338
-0.0657045 -0.058728434 0.29658955 0.0909336 0.053464606 -0.19749877 0.2267493 -0.0886315
0.26103714 0.12660141 -0.14675169 0.22823398 -0.10765706 -1.2370251 -0.09605854 -1.4244235
-0.9228977 -1.4282199 -1.9528946 -0.3517311 -0.10406388 0.17732647 -0.4475859 -1.4277745

fc2.bias f4 [64]
00000000: 9f5a 963e a71f fb3d e493 a33e 47db 7b3e
00000010: 1411 a13d c326 003e a632 883d 08d0 373e
00000020: b90f 97bc fa1a 173e 61c5 92bd 7931 033e
00000030: 37b9 3a3d 3bf1 593e a106 6a3e 350a 533e
00000040: 6aa4 0b3e 19cc 783e 8391 2ebe 9de6 2a3e
00000050: 3518 cc3e 5e99 563e 2e6c 9e3d 1a6e 5bbc
00000060: 0793 543e a3e7 173f 519f 25bf 47cf 1a3d
00000070: 6d16 7b3e 6803 dd3c 669e fe3d a152 93be
00000080: 0d9a 943e daef 3abc 1f75 583e d675 aa3e
00000090: fc11 24bd 20d7 963e 35f9 89be c73c 773e
000000a0: dbf5 603e 3baf 183f 053f ee3c 1850 e13d
000000b0: 2c7e 5a3e 32e5 873e 725c 13be c009 e8bd
000000c0: f61b bc3e 94fa 023e d9ef 7e3e 1a12 b43e
000000d0: 437a ad3e 8ec1 ccbc bf8d a93d 7035 b33e
000000e0: 4275 77bd 3b34 c83e 4ef5 f33e e434 8e3e
000000f0: e753 a5bd 9646 d63d 3f43 843e 0097 243e
0.29366013 0.122618966 0.3194877 0.24595366 0.078645855 0.12514786 0.066502854 0.17950451
-0.018440114 0.14756384 -0.07166553 0.12811841 0.04558679 0.21283428 0.22854091 0.20609362
0.13636938 0.24296607 -0.17047696 0.16689534 0.39862218 0.20956942 0.077354774 -0.0133929495
0.20759211 0.59337825 -0.6469622 0.03779533 0.24520274 0.026979163 0.12432556 -0.28773978
0.2902378 -0.011409724 0.21138428 0.33293027 -0.040056214 0.29461002 -0.26947942 0.24144278
0.21968786 0.5964238 0.029082784 0.11001605 0.21337193 0.2654205 -0.14390734 -0.11329985
0.36740083 0.127909 0.24896182 0.3517006 0.3388234 -0.024994638 0.08278989 0.35001707
-0.06041456 0.3910235 0.4764809 0.27774727 -0.08072644 0.10462682 0.25832555 0.16073227

fc3.weight f4 [12, 64]
00000000: c429 af3c 5517 6e3d 94bd bfbc 6da4 29bf
00000010: 0bb3 403e e863 9f3d 07e6 7d3d 4bbb 933e
00000020: 74a6 123e 2c94 d53c 64c6 02be bb8c 683c
00000030: 01b3 1d3e 3bf9 42bb 5d84 7ebe fb8e b23e
00000040: 8924 b6be f226 f2be ae97 32bf f311 53be
00000050: 62fa 103d 28a5 e7bd e7c2 76be c711 55be
00000060: 5dff bd3d 20ff cf3e a147 30be 90c8 8ebe
00000070: e65b 873d 61a6 a4bd 3913 2d3e 5bcb be3e
00000080: 710e 053d c896 023e 9c29 2b3e 3cfa 1d3e
00000090: 9f2d 073e 73c4 e1bd f4a3 a53d 1777 5e3d
000000a0: 4df6 133d 1e6a a9be c023 a23c 20bb 5dbf
000000b0: 98b2 903d 1954 5d3e 61cf 3ebb 735c 513e
000000c0: 92d5 043e 877b 543c 57e2 82bd e4aa 433e
000000d0: 010e 1c3e d299 f33d cef6 d93d 65ce cabe
000000e0: 8632 a63d ddb5 993e e766 9a3d 35b5 8b3e
000000f0: c771 18be eb43 9a3d 9c6f 763d ae3b 263e
00000100: 69fd 0fbf e3f4 643f 8ce3 44bf 1e63 ae3e
00000110: 0e3d 85be e582 1f3e 9ccf bbbe dffa 40bd
00000120: c822 b03c 7d44 1ebe a475 903c 76b1 38bf
00000130: 20da 183e 428a af3c c5c1 ddbe e02b d73e
00000140: 942a f5be d447 d5be a2cc 483e 87c4 6dbd
00000150: 1893 6a3d 66a6 d0bd b3b4 ddbe 0406 b23d
00000160: a68b 89be 7cdf 6dbf 2e6b 82bf ee08 613d
00000170: 74fa d6be 2f4f 333e 11fa dfbe 56fe 803c
00000180: 8359 22bd d7fe 663c 7a38 89be c0f8 6a3e
00000190: ffc9 bd3d 423d 97be 8a48 28be b5b7 053f
000001a0: f247 c03e e82b ef3e 2a0b 323e 65dc df3e
000001b0: d802 abbd cbf3 883e f1c3 84bc 3adc 8f3d
000001c0: d1f5 07be 855a 0dbf 5731 acbe dd68 343e
000001d0: 8905 65be 0a7a 5b3c b0e9 833e 35ce 14bf
000001e0: ad1c cbbe d8ce 543e aad0 6dbf 16b3 903e
000001f0: a05e 5ebd 3c70 d9be c31f 97be ec70 67bd
00000200: 605a 51bd 0903 6b3e cdb7 083e 56b2 aebe
00000210: aa15 23bf b746 53bf 3a87 ed3d 0722 343d
00000220: 0c18 04be 6280 ebbf 1841 45bf 8c6a 973e
00000230: 9f06 14bf a25b 3d3e 79a7 eb3d 6b15 ff3d
00000240: 03e2 c33d 6a7a 383e a26d f8be 970a dbbe
00000250: 6818 903d ba6d a9bd 96e1 6f3e ab35 8fbd
00000260: a921 8d3d 104d ec3e f461 14bf 8b78 a0be
00000270: 3edb bc3c 0ac8 a53e 2b12 653d 1368 89be
00000280: 122a b3be 7889 4abf f20c 603e 6d76 043e
00000290: 5f30 04bf 41eb 603e ecd3 79be deb8 09be
000002a0: 8c2a 7e3e 6a89 bc3e 4e50 34bf 7ff6 003f
000002b0: 2977 2abe 1f7b 6dbc 3174 35bd 922b 0c3d
000002c0: 5ac4 933e fefe 663e 3b56 b2be e729 b93c
000002d0: 6212 8a3e 6879 01bf 57c5 17bf 2c9e 973b
000002e0: 9c51 5b3e 001a db3d 68bc 6cbd 505f 003e
000002f0: 0e7a 89bd 453b d7bd ce48 58be 2f84 b43d
00000300: 9c37 b13c 6c47 7b3e 1fd1 3bbe a21c 793e
00000310: f69d 41bc 5eba a1bb c78b 4e3e 3645 1d3e
00000320: c59b 6bbb 61d3 97bf 9872 7f3e d174 7abe
00000330: 2f4b 113e e62e 493e b235 b43e 555f 003e
00000340: fd58 bf3d 3c72 a5be 25cd aa3e e4f7 0ebf
00000350: defb fbbd 848a 163f bea7 e6be 42c6 053f
00000360: e5dd ba3e edc3 94bf 9bd8 903e 829b 363e
00000370: 98c5 83bc 5101 87bd 8c3b ebbe b665 ddbc
00000380: 2a2b 833d fac2 3bbb 3f57 b33e 8f14 623e
00000390: 6060 c5bc 809f 133e 5b8b 093d bb58 34bf
000003a0: 6c74 3c3e 6d5a e6be 99f9 f03d 3444 703e
000003b0: b3b0 8a3d 54d3 99bd 3a42 1bbb c9ef f63d
000003c0: f4ce 693e 8015 16bf e6b4 5cbf b890 5fbe
000003d0: 47f1 f6be fbac 363e dff4 5f3e 6472 8ebe
000003e0: 97e4 babe 00f6 02bf ce43 1ebf 3152 b6be
000003f0: 584a 0abe 5e0d 903d c82b 423e 94a7 46bd
0.02138222 0.05812772 -0.023405828 -0.6626652 0.188183 0.077827275 0.06198695 0.2885383
0.1432131 0.02607163 -0.12770993 0.014193709 0.15400316 -0.0029750604 -0.2485518 0.3487471
-0.3557475 -0.47295338 -0.69762695 -0.20612316 0.035395034 -0.11310798 -0.24097787 -0.20807563
0.09277222 0.40624332 -0.17214824 -0.27887392 0.06609325 -0.08039547 0.16901864 0.37264523
0.032484476 0.12752831 0.16715091 0.15427488 0.13200997 -0.11023798 0.08087912 0.05431279
0.036123563 -0.33088773 0.019792438 -0.86613655 0.07065314 0.21614112 -0.0029115307 0.20445423
0.12972096 0.012968904 -0.06390827 0.19108158 0.15239717 0.11894573 0.106427774 -0.39610592
0.08115105 0.30021563 0.07539158 0.27286687 -0.14887153 0.075324856 0.060165033 0.16233703
-0.5624605 0.8943617 -0.7690971 0.34059995 -0.26023144 0.15577276 -0.3668183 -0.04711425
0.02150096 -0.15455814 0.01763422 -0.72145784 0.14926958 0.021428231 -0.43311897 0.4202566
-0.47884047 -0.41656363 0.19609311 -0.05804875 0.057269186 -0.10187988 -0.43301925 0.08692554
-0.26864356 -0.92919135 -1.0188959 0.054940157 -0.41987956 0.17510675 -0.43745473 0.015746277
-0.039636146 0.0140988445 -0.268009 0.22946453 0.09267043 -0.29538924 -0.16433921 0.5223344
0.3755489 0.46713185 0.17387071 0.43722835 -0.08350152 0.267485 -0.016206713 0.07024427
-0.13277365 -0.55216247 -0.33631393 0.17618127 -0.22365393 0.013395796 0.25764227 -0.58127147
-0.39670315 0.2078203 -0.9289652 0.28261632 -0.05428946 -0.4246844 -0.2951642 -0.056504175
-0.05111158 0.22950377 0.13351364 -0.34120435 -0.6370493 -0.8252978 0.11598058 0.043977764
-0.12899798 -1.8398554 -0.7705245 0.29573476 -0.57822603 0.18491986 0.11506552 0.12455257
0.09564593 0.18015447 -0.48521143 -0.42781517 0.07035905 -0.08272882 0.23425898 -0.06992658
0.06891186 0.46152544 -0.57961965 -0.31341967 0.023053762 0.3237918 0.05592553 -0.26837215
-0.34993035 -0.7911601 0.21879938 0.12935801 -0.5163631 0.21964742 -0.24397248 -0.13449427
0.24820918 0.3682359 -0.70435035 0.50376123 -0.16647018 -0.014494686 -0.044300262 0.03422124
0.28860742 0.2255821 -0.34831414 0.022602988 0.2696715 -0.50575876 -0.5928549 0.00462701
0.2141785 0.106983185 -0.057796866 0.12536359 -0.06712733 -0.10509352 -0.21121523 0.088142745
0.021632962 0.24538964 -0.18341492 0.24327329 -0.011817446 -0.004935547 0.20170508 0.15358433
-0.0035951 -1.1861383 0.24946058 -0.24458624 0.14188837 0.19646797 0.35197216 0.12536366
0.09343145 -0.32313716 0.33359638 -0.55847 -0.12303899 0.5880511 -0.45049852 0.5225564
0.36497417 -1.1622292 0.28290257 0.17832759 -0.016085431 -0.06592048 -0.45943868 -0.027026039
0.06404717 -0.002865015 0.350275 0.22078155 -0.024093807 0.14416313 0.033580165 -0.7044789
0.18403786 -0.44990864 0.11766357 0.23463517 0.06771984 -0.07511011 -0.0023690597 0.12057454
0.22832853 -0.58626556 -0.8621353 -0.2183255 -0.48230955 0.17839424 0.21870755 -0.27821648
-0.36502525 -0.51156616 -0.6182221 -0.35609582 -0.13504922 0.070337996 0.18962014 -0.04849966

fc3.bias f4 [12]
00000000: d524 023f 8a92 b2bd 2626 e1be 094c 803d
00000010: 58bf 47be 913e 65be 51e7 8a3d 23dc 69bd
00000020: 2625 ad3c 3281 bfbe cfc1 aa3e d5b0 b2be
0.5083745 -0.08719356 -0.43974417 0.062645026 -0.19506586 -0.22387148 0.06782401 -0.057094704
0.021135878 -0.37403256 0.3335099 -0.34900537
