shallow_nn_pytorch.pth (torch, 43929 bytes, 6 tensors)

fc1.weight f4 [128, 8]
-0.2689523 0.094290815 0.45344022 -0.2518683 0.4280431 0.35832256 -0.310929 -0.11496317
-0.41517708 -0.025032807 0.3715403 0.14365184 0.45527637 -0.49347365 -0.38759756 -0.04945376
-0.53833514 0.44920066 -0.05290982 0.36801142 0.13415343 0.11750975 -0.35507077 0.06355275
0.07888174 0.34692922 0.027088758 -0.2434626 0.16418855 -0.88873297 0.28056148 -0.1886891
0.03470879 -0.66817963 0.21277691 0.24524431 0.07977473 0.24624494 0.02974331 -0.14086726
-0.006567935 -0.001174926 0.3241088 0.28773618 -0.5192358 0.11872876 -0.3774458 0.005317315
0.4948559 0.24783689 -0.39351797 0.29841796 -0.3639887 0.032100327 0.05133166 0.03977736
0.07652015 -0.02829322 0.021606088 0.23433027 -0.4258648 -0.046749007 0.4534753 -0.024350151
0.024324084 -0.12222731 0.0897909 -1.110289 0.48115435 0.16959275 -0.032109957 -0.08477394
-0.0044390014 -0.18955377 -0.00874002 0.05976224 0.18709667 -1.430019 -0.08104523 0.07072435
0.0115986625 -0.6987314 0.01930935 -0.027760724 0.04935225 0.19465418 -0.36004755 0.12195814
-0.03841521 0.00084965414 -0.0506032 -1.1718497 -0.35953492 0.0928738 -0.44921696 -0.6104404
-0.0109850615 -0.016180746 -0.0024510217 -0.3910605 0.659199 -1.3756496 -0.30032665 -0.0102543095
-0.06803333 -0.49434236 0.09436937 0.1546411 0.14766705 0.28583398 -0.8374754 0.253098
0.06554112 0.027223289 -0.04564678 0.57861495 -1.2532461 0.13517034 -0.5931434 -0.38118637
-0.4558233 -0.06895433 -0.30720913 0.22895782 -0.5076595 0.08640867 -0.008475464 0.04943603
-0.44426426 0.044532686 0.35505053 -0.08099644 0.28978232 -0.9263725 0.15272689 -0.20583075
-0.08032841 0.60820377 -0.040543824 -0.15214156 -0.2491198 0.25525108 0.40137026 0.028915308
-0.05410884 0.011677445 0.31832835 0.16818409 -0.48967546 -0.1268658 0.32851005 -0.07207134
-0.03286466 -0.0077674873 0.75532395 -0.0912922 0.1673838 0.1954845 -0.27158475 0.32018685
0.21782522 0.029738091 0.0029874872 -1.1053431 0.6111081 0.2662092 0.04040838 -0.34127665
-0.028934795 0.013319909 -4.1723735e-05 -0.17582619 -0.49787557 0.81325144 0.038408708 -0.26060122
0.0064904415 0.0044672093 -0.020420065 0.8036973 -1.3810048 -0.8458075 -0.24035828 -0.16755135
0.0111799585 -0.11018124 0.25409552 -0.8401042 -0.04257533 0.1537449 -0.3361724 -0.028100662
-0.0067426157 -0.008009058 -0.006949897 0.3226214 0.16837506 -1.8158188 -0.049553096 -0.41281295
0.38912666 -0.00093489466 0.010661971 -0.1897494 -0.07758073 -0.48949462 0.3648422 -0.115029365
-0.03536752 -0.02823338 0.11864053 -0.47314373 -0.8015164 0.32007402 0.45316446 -0.5884465
-0.016496092 -0.04506981 -0.050144184 -0.87065 0.03226199 0.5310859 0.031017995 -0.40690514
-0.32186818 0.074824356 -0.08431897 -0.025148325 -0.33381078 -0.9630227 -0.52864546 -0.124802254
0.30649173 -0.0045444146 -0.029971672 0.177812 -0.4174078 -0.1998843 0.18008679 0.14896119
-0.2942659 -0.03631336 -0.508182 0.26724282 -0.48327544 0.0882722 0.1620118 -0.17107457
-0.06267254 -0.25809643 0.3225462 0.09887399 -0.105316095 0.028313037 0.13610561 -0.1064114
00000000: 1eb4 89be 8b1b c13d 5129 e83e e2f4 80be
00000010: 7728 db3e 0e76 b73e 1632 9fbe cf71 ebbd
00000020: 1792 d4be 9a11 cdbc 883a be3e 7819 133e
00000030: fc19 e93e 94a8 fcbe 3073 c6be 0790 4abd
00000040: 55d0 09bf a1fd e53e f8b7 58bd fe6b bc3e
00000050: 845f 093e f4a8 f03d d6cb b5be f227 823d
00000060: c08c a13d b5a0 b13e 3ee9 dd3c 434e 79be
00000070: 0b21 283e 0184 63bf c1a5 8f3e b737 41be
00000080: ce2a 0e3d d20d 2bbf 31e2 593e 5321 7b3e
00000090: ef60 a33d a227 7c3e 3ea8 f33c 823f 10be
000000a0: d537 d7bb f9ff 99ba 97f1 a53e 2852 933e
000000b0: a3ec 04bf 1028 f33d 9340 c1be df3c ae3b
000000c0: c15d fd3e f4c8 7d3e 307b c9be 3dca 983e
000000d0: ba5c babe a27b 033d 2641 523d 96ed 223d
000000e0: 99b6 9c3d 2fc7 e7bc 40ff b03c 46f4 6f3e
000000f0: f30a dabe e37b 3fbd ea2d e83e f879 c7bc
00000100: 4d43 c73c 5052 fabd 4be4 b73d f31d 8ebf
00000110: dd59 f63e b9a9 2d3e bb85 03bd f69d adbd
00000120: 0b75 91bb 621a 42be 4d32 0fbc 40c9 743d
00000130: 4596 3f3e dd0a b7bf 0bfb a5bd eed7 903d
00000140: 5108 3e3c 10e0 32bf a42e 9e3c 756a e3bc
00000150: 9625 4a3d 6d53 473e 2758 b8be 30c5 f93d
00000160: 4459 1dbd 53bb 5e3a 4d45 4fbd 2cff 95bf
00000170: f614 b8be 9e34 be3d c4ff e5be d245 1cbf
00000180: b0fa 33bc 7c8d 84bc 52a1 20bb 1539 c8be
00000190: 44c1 283f 4915 b0bf 6ac4 99be b101 28bc
000001a0: 0f55 8bbd 711a fdbe ba44 c13d 3d5a 1e3e
000001b0: 0836 173e d558 923e ca64 56bf 1096 813e
000001c0: 6c3a 863d 6003 df3c 1ef8 3abd 1c20 143f
000001d0: 5e6a a0bf 186a 0a3e 3fd8 17bf dc2a c3be
000001e0: ac61 e9be ee37 8dbd 844a 9dbe eb73 6a3e
000001f0: f9f5 01bf 07f7 b03d acdc 0abc 6f7d 4a3d
00000200: 9b76 e3be e867 363d 2fc9 b53e 76e1 a5bd
00000210: 595e 943e c026 6dbf 7064 1c3e 4cc5 52be
00000220: 3983 a4bd 3eb3 1b3f 4811 26bd ffca 1bbe
00000230: 4319 7fbe 45b0 823e 6780 cd3e ccdf ec3c
00000240: 3ba1 5dbd c152 3f3c effb a23e 7338 2c3e
00000250: beb6 fabe 1ce9 01be 7832 a83e 249a 93bd
00000260: 189d 06bd 6886 febb e95c 413f 68f7 babd
00000270: a966 2b3e 172d 483e 280d 8bbe 88ef a33e
00000280: 930d 5f3e 4c9d f33c b8c9 433b e27b 8dbf
00000290: 9571 1c3f 924c 883e 4283 253d d0bb aebe
000002a0: aa08 edbc bf3b 5a3c 8500 2fb8 c80b 34be
000002b0: 8ce9 febe 3f31 503f 7352 1d3d 866d 85be
000002c0: c5ad d43b ab61 923b fb47 a7bc 1bbf 4d3f
000002d0: c4c4 b0bf d786 58bf 7b20 76be 9592 2bbe
000002e0: 252c 373c b4a6 e1bd cf18 823e 1211 57bf
000002f0: 7863 2ebd 4e6f 1d3e ca1e acbe 5c33 e6bc
00000300: 29f1 dcbb 6d38 03bc f6bb e3bb a22e a53e
00000310: 836a 2c3e c06c e8bf 30f8 4abd 385c d3be
00000320: 9c3b c73e b813 75ba 8caf 2e3c ab4d 42be
00000330: a5e2 9ebd 0a9f fabe 99cc ba3e 8494 ebbd
00000340: 88dd 10bd b049 e7bc cef9 f23d e53f f2be
00000350: 2e30 4dbf bee0 a33e 2c05 e83e 6ea4 16bf
00000360: d022 87bc 1f9b 38bd fd63 4dbd ebe2 5ebf
00000370: 2625 043d 3ff5 073f 7319 fe3c df55 d0be
00000380: e8cb a4be 833d 993d 6daf acbd dc03 cebc
00000390: 3fe9 aabe a888 76bf 4f55 07bf 5398 ffbd
000003a0: 7cec 9c3e 50e9 94bb 2787 f5bc 5914 363e
000003b0: 7ab6 d5be 78ae 4cbe ac68 383e 4889 183e
000003c0: 05aa 96be 51bd 14bd 3718 02bf 0dd4 883e
000003d0: e16f f7be 0ec8 b43d 6ce6 253e 2c2e 2fbe
000003e0: 765a 80bd 3725 84be c724 a53e 727e ca3d
000003f0: f7af d7bd bef0 e73c 455f 0b3e 38ee d9bd

fc1.bias f4 [128]
-0.30162004 -0.33989158 -0.66698986 -0.33432302 -0.77226794 -0.10750092 -0.59754467 0.05759574
-0.21106379 -0.3618773 -0.5776603 -0.59897006 -0.31802648 -0.5932388 -0.3608103 -0.7348395
-0.49899614 -0.54196805 -0.11938715 -0.46414375 -0.38542575 -0.042436294 -0.42088467 -0.30399117
-0.38148028 -0.052240066 -0.38479403 -0.092696995 -0.54387426 0.10981367 -0.46308783 -0.1242672
-0.42838743 -0.22066225 -0.17476505 -0.06522868 -0.14021288 -0.42307788 -0.2333433 -0.42405912
-0.5433083 0.10566347 -0.42416108 -0.4969768 -0.03929992 -0.27472666 -0.2678418 -0.6477769
-0.16531067 -0.46521968 -0.29019845 -0.2897989 -0.2969478 -0.015983097 -0.11090779 -0.39528608
-0.028221147 -0.63652605 -0.46465984 -0.111569926 -0.6057986 -0.17491715 -0.74085265 -0.3265299
-0.93207043 -0.39532614 -0.3863304 -0.15627438 -0.7118395 -0.2672187 -0.6318708 -0.25837108
0.012504038 -0.20793243 -0.5412205 -0.11380729 -0.49235797 -0.08468721 0.016698325 -0.6048716
-0.09765132 -0.38358468 -0.36924767 -0.3857517 0.09496541 -0.5612929 -0.18132937 -0.46547
0.11926706 -0.36880147 -0.49623 -0.27531672 -0.0014601295 -0.05947365 -0.057423975 -0.59633064
-0.32869846 -0.47365227 -0.30951157 -0.515938 -0.19302155 -0.18987082 0.041426327 -0.525171
0.067888506 -0.29837292 -0.69971037 -0.38297182 -0.4985567 -0.49317488 -0.121721424 -0.2767015
-0.33017063 -0.766034 0.091156684 -0.37017232 -0.45244431 -0.48105302 -0.43114555 -0.3632885
-0.79783005 -0.08437489 -0.09422199 0.14013195 -0.42950413 -0.7614669 -0.024388097 0.06204653
00000000: f16d 9abe 4506 aebe d9bf 2abf 632c abbe
00000010: 5ab3 45bf 7129 dcbd b0f8 18bf 83e9 6b3d
00000020: 1b21 58be fb47 b9be 8ce1 13bf 1a56 19bf
00000030: 5ed4 a2be 7fde 17bf 21bc b8be 711e 3cbf
00000040: 6c7c ffbe 6bbe 0abf 4081 f4bd 40a4 edbe
00000050: 8656 c5be aed1 2dbd 327e d7be bba4 9bbe
00000060: 6251 c3be aef9 55bd b903 c5be ecd7 bdbd
00000070: 583b 0bbf fde5 e03d d919 edbe cd7f febd
00000080: 9955 dbbe 49f5 61be 9cf5 32be 9d96 85bd
00000090: f793 0fbe aa9d d8be 8cf1 6ebe 471e d9be
000000a0: 4116 0bbf 1766 d83d a42b d9be be73 febe
000000b0: f4f8 20bd f9a8 8cbe 8f22 89be b5d4 25bf
000000c0: 3347 29be 4631 eebe e494 94be 8560 94be
000000d0: 8b09 98be fcee 82bc a023 e3bd f062 cabe
000000e0: 0930 e7bc 5ff3 22bf e5e7 edbe c67e e4bd
000000f0: 9e15 1bbf 7b1d 33be 85a8 3dbf ed2e a7be
00000100: 2b9c 6ebf 3068 cabe 19cd c5be 6406 20be
00000110: 1d3b 36bf e4d0 88be 49c2 21bf 3749 84be
00000120: bddd 4c3c 3dec 54be 6d8d 0abf cc13 e9bd
00000130: 5816 fcbe 7d70 adbd edca 883c ddd8 1abf
00000140: 6afd c7bd 3665 c4be 080e bdbe 3f81 c5be
00000150: 3a7d c23d e4b0 0fbf 68ae 39be 1552 eebe
00000160: 4a42 f43d 8cd3 bcbe dc11 febe 50f6 8cbe
00000170: d161 bfba a49a 73bd 6735 6bbd 20a9 18bf
00000180: 2a4b a8be 8d82 f2be 4d78 9ebe 8314 04bf
00000190: 71a7 45be 7f6d 42be a7ae 293d 9b71 06bf
000001a0: 2109 8b3d 56c4 98be 3820 33bf e214 c4be
000001b0: d342 ffbe 6b81 fcbe 1549 f9bd d2ab 8dbe
000001c0: 200c a9be ce1a 44bf 5bb0 ba3d 3a87 bdbe
000001d0: c8a6 e7be 954c f6be 1cbf dcbe f300 babe
000001e0: 973e 4cbf becc acbd 75f7 c0bd c07e 0f3e
000001f0: f7e7 dbbe 7fef 42bf 8cc9 c7bc 8124 7e3d

fc2.weight f4 [64, 128]
-0.07372086 -0.50898105 -0.030940354 0.09761362 -0.6221197 -0.9081535 -0.036769573 0.11063312
0.47222844 0.04878602 -0.07335404 -0.022889161 -0.07144503 -0.18938862 -0.12052084 -0.08807248
-0.42049965 0.22889915 0.19763772 -0.03027472 0.056930203 -0.6495811 0.20256656 0.07777258
-0.06110078 0.09010851 -0.02994634 -0.26086336 -0.117025465 0.08650037 0.032311406 0.045597345
-0.009802282 -0.06868355 -0.10689058 -0.9098914 0.39594784 -0.14063373 -0.003318386 0.025410308
0.20048691 -0.07485414 0.14827189 -0.46354783 0.025766166 -0.17536391 -0.061974335 -0.12865642
0.15274212 -0.9441694 -0.29283625 -0.03496465 -0.11208448 -0.47601658 0.18402722 0.09387595
-0.017183293 -0.90693915 -0.14983116 -0.112467326 0.067620516 -0.0054268353 0.052703768 -0.05080056
-0.12757875 0.1119984 -0.1282852 -0.047465242 -0.39777505 -0.106370315 0.07831305 -1.1272138
-0.48907042 0.043005228 0.015360051 -0.8887299 0.024649328 0.08346202 -0.10918391 -0.06191106
0.16906996 -0.097354844 0.23625551 0.30095795 0.04181243 0.12022092 0.07581201 -0.003737632
-0.07345353 -0.13645083 0.042383943 0.12072368 -0.0003330523 -0.051255543 -0.34606054 -0.34571293
0.05265522 0.11623192 -0.193996 0.061258424 0.087760285 -0.05557734 0.04112505 0.23670909
0.06992379 0.09380265 -0.91887975 -0.39076358 0.030174695 -0.16517255 0.20900498 -0.14291808
-0.023343958 0.16411282 0.09677149 -0.30500945 -0.0618776 -0.5668381 0.044600565 -0.06574795
-0.46455786 0.13253911 0.010582035 0.05045194 -0.40128312 0.31479007 0.05048422 -0.054095622
-0.06828412 -0.43549478 -0.5041276 -0.1446602 -0.5891865 0.097943924 0.16320889 0.005791304
0.17102346 -0.600783 -0.8541194 0.13857241 0.12548535 -0.49290743 -0.0668821 -0.19257504
-0.3374802 -0.08956129 -0.2497387 -0.1118909 -0.17223637 0.029925296 -0.7554636 0.35450074
0.023180319 -0.34924355 0.50530154 0.0964221 -0.35908023 -0.13998228 -0.091620706 -0.23602355
-0.29284027 -0.37179396 -0.023624081 0.12528425 0.12922715 0.054665793 0.0124432435 -0.47950903
-0.4575139 -0.03853157 -0.039350595 0.25560504 -0.4023677 0.055652075 0.18563968 0.17491092
0.54529 0.051619675 0.061575145 -0.33344656 0.11525768 0.0016311259 -0.6681478 0.1012182
0.050379053 -0.33306715 -0.39914584 -0.31110144 -0.19312792 0.09432622 -0.32384804 0.040241946
-0.3377117 0.10093379 0.08135842 0.13076368 -0.35342237 0.070097655 -0.279243 0.05078572
0.028214991 0.0543071 -0.45322573 -0.049673095 0.033271927 -1.1019986 -0.0087546045 -0.20774809
-0.7356606 -0.1249232 0.28632694 -0.53270334 0.0426989 -0.5099814 0.05370548 -0.25886524
-0.27371803 0.07203727 0.2523659 -0.18821087 -0.10337607 0.027309317 0.04081198 -0.21110156
-0.10333799 -0.085999854 0.08836032 -0.37603197 0.06187419 0.13898928 -0.0608058 -0.83598167
-0.027856495 -0.41793707 0.045652233 0.16307099 0.12976122 0.22501652 -0.011379376 -0.5143466
0.19245766 -0.35009953 0.08832385 0.13845882 -0.06635678 -0.7002479 -0.35862136 -0.28068224
-0.50264865 -0.119260974 0.07202051 -0.052526448 -0.54628116 -0.30346754 -0.22827071 -0.07762057
00000000: f6fa 96bd 954c 02bf a076 fdbc a6e9 c73d
00000010: 3d43 1fbf bf7c 68bf b19b 16bd 9e93 e23d
00000020: edc7 f13e dad3 473d a53a 96bd 0d82 bbbc
00000030: c651 92bd 17ef 41be a1d3 f6bd 585f b4bd
00000040: bb4b d7be 8a64 6a3e 8b61 4a3e b102 f8bc
00000050: a52f 693d f24a 26bf 9c6d 4f3e 3b47 9f3d
00000060: d044 7abd cf8a b83d 0752 f5bc e28f 85be
00000070: 0cab efbd 1b27 b13d f758 043d 48c4 3a3d
00000080: c099 20bc f6a9 8cbd 73e9 dabd a5ee 68bf
00000090: adb9 ca3e 4a02 10be 4779 59bb 4729 d03c
000000a0: 714c 4d3e 214d 99bd 96d4 173e 2456 edbe
000000b0: 9113 d33c 9992 33be cdd8 7dbd 82be 03be
000000c0: 6e68 1c3e 16b5 71bf a2ee 95be 1837 0fbd
000000d0: 8c8c e5bd 72b8 f3be a271 3c3e 0942 c03d
000000e0: fac3 8cbc 2a2d 68bf 576d 19be 4555 e6bd
000000f0: a07c 8a3d 98d3 b1bb e8df 573d 3f14 50bd
00000100: 01a4 02be 6b5f e53d 325d 03be ea6a 42bd
00000110: 2ca9 cbbe aed8 d9bd 9862 a03d 8b48 90bf
00000120: 7067 fabe 4026 303d b9a8 7b3c cd83 63bf
00000130: 63ed c93c 23ee aa3d d09b dfbd 7496 7dbd
00000140: ad20 2d3e fa61 c7bd f7ec 713e 2917 9a3e
00000150: 8343 2b3d 6336 f63d 5443 9b3d 0ff3 74bb
00000160: ce6e 96bd c4b9 0bbe c99a 2d3d fa3d f73d
00000170: 869d aeb9 55f1 51bd d92e b1be 4901 b1be
00000180: 00ad 573d 000b ee3d e3a6 46be 1dea 7a3d
00000190: aabb b33d 11a5 63bd be72 283d de63 723e
000001a0: 3434 8f3d 9b1b c03d b43b 6bbf 2a12 c8be
000001b0: ec30 f73c fe22 29be 6705 563e 1e59 12be
000001c0: d43b bfbc 310d 283e 2230 c63d 332a 9cbe
000001d0: 5e73 7dbd 4d1c 11bf 15af 363d dca6 86bd
000001e0: 87da edbe 55b8 073e 4660 2d3c b2a6 4e3d
000001f0: fb74 cdbe 2a2c a13e 8bc8 4e3d 5f93 5dbd
00000200: 8bd8 8bbd 2cf9 debe 820e 01bf ce21 14be
00000210: edd4 16bf d396 c83d 3b20 273e fbc4 bd3b
00000220: c620 2f3e eacc 19bf 92a7 5abf ede5 0d3e
00000230: 3b7f 003e 5d5e fcbe 7cf9 88bd 6432 45be
00000240: 34ca acbe e96b b7bd 80bb 7fbe 0e27 e5bd
00000250: bb5e 30be e525 f53c 1066 41bf 1f81 b53e
00000260: a7e4 bd3c 0dd0 b2be 715b 013f f378 c53d
00000270: 5dd9 b7be 8457 0fbe a3a3 bbbd 28b0 71be
00000280: 29ef 95be c75b bebe 4a87 c1bc 844a 003e
00000290: 1f54 043e 3de9 5f3d bfde 4b3c 3582 f5be
000002a0: 433f eabe 48d3 1dbd 172e 21bd aade 823e
000002b0: 2403 cebe 6ef3 633d 5418 3e3e d91b 333e
000002c0: 2098 0b3f 276f 533d 3836 7c3d 82b9 aabe
000002d0: 380c ec3d 81cb d53a bc0b 2bbf 7d4b cf3d
000002e0: 445a 4e3d c787 aabe d85c ccbe b048 9fbe
000002f0: 53c3 45be 1b2e c13d 69cf a5be bdd4 243d
00000300: 8ce8 acbe 60b6 ce3d 3e9f a63d eae6 053e
00000310: c7f3 b4be 5c8f 8f3d f0f8 8ebe b004 503d
00000320: 2023 e73c 1f71 5e3d 340d e8be 0476 4bbd
00000330: 2548 083d 4a0e 8dbf 796f 0fbc eabb 54be
00000340: 4154 3cbf bcd7 ffbd 7299 923e 3f5f 08bf
00000350: 0be5 2e3d 248e 02bf 47fa 5b3d fc89 84be
00000360: c524 8cbe 4788 933d 1a36 813e 5aba 40be
00000370: d5b6 d3bd cab7 df3c 762a 273d 022b 58be
00000380: dea2 d3bd b120 b0bd 41f6 b43d 4387 c0be
00000390: ca6f 7d3d 3553 0e3e 810f 79bd e502 56bf
000003a0: 4e33 e4bc d9fb d5be d6fd 3a3d 15fc 263e
000003b0: 20e0 043e bb6a 663e 9070 3abc 38ac 03bf
000003c0: 9f13 453e 3f40 b3be 22e3 b43d 26c8 0d3e
000003d0: 10e6 87bd 7243 33bf 389d b7be 95b5 8fbe
000003e0: 95ad 00bf 193f f4bd 7d7f 933d f925 57bd
000003f0: 15d9 0bbf 1960 9bbe ccbf 69be 89f7 9ebd

fc2.bias f4 [64]
0.3016324 0.29826334 0.10552878 0.32253522 -0.028174166 0.118771374 -0.23261872 0.21214628
-0.13880713 -0.03492502 0.48213354 0.19728622 0.43810576 0.23075932 0.3571267 0.09632278
-0.020946674 0.47395086 0.088557266 0.22067179 0.27042466 -0.15263231 0.285605 -0.054986987
0.2396035 0.53646064 -0.13584012 0.27951255 0.1667614 0.3001984 -0.21052368 0.33515733
0.23614196 -0.21938215 -0.2937963 0.39303118 0.20326853 0.036766414 0.17178634 0.16636218
0.48218328 0.24942286 -0.20398599 0.10752238 0.1049406 -0.15324277 0.16814026 0.0031325324
0.5406421 0.22917725 0.18393165 0.11170116 0.6083851 0.032084137 0.4565111 0.08659341
-0.22419427 0.027528072 0.28375623 0.2653988 0.1009208 0.11634745 0.16212334 0.15852031
00000000: 906f 9a3e f9b5 983e 791f d83d 5623 a53e
00000010: 82cd e6bc 683e f33d 9a33 6ebe e03c 593e
00000020: 7523 0ebe 8a0d 0fbd 35da f63e 6605 4a3e
00000030: 664f e03e 2c4c 6c3e 50d9 b63e e144 c53d
00000040: 5c98 abbc b0a9 f23e 835d b53d c9f7 613e
00000050: 1a75 8a3e a54b 1cbe d23a 923e 093a 61bd
00000060: 9f5a 753e 7c55 093f ac19 0bbe 451c 8f3e
00000070: 80c3 2a3e 9bb3 993e 8593 57be be99 ab3e
00000080: 33cf 713e b7a5 60be 786c 96be 623b c93e
00000090: a025 503e 6198 163d c2e8 2f3e d95a 2a3e
000000a0: bae0 f63e b568 7f3e b4e1 50be b234 dc3d
000000b0: 19eb d63d aceb 1cbe f62c 2c3e 2c4b 4d3b
000000c0: 8567 0a3f 71ad 6a3e 9458 3c3e 94c3 e43d
000000d0: 20bf 1b3f a86a 033d d3bb e93e e357 b13d
000000e0: 2f93 65be 8d82 e13c 7f48 913e 5ae2 873e
000000f0: 90af ce3d 9247 ee3d a903 263e 2653 223e

fc3.weight f4 [12, 64]
0.055516176 -0.60392594 -0.19534622 0.1196249 -0.082259566 0.08455084 0.18716666 -0.3605779
0.04831813 0.13603364 0.1368515 0.05251463 0.09525882 0.0007095215 0.25609785 0.008433702
-0.2822347 -0.05239225 -0.408428 -0.048386723 0.16810451 0.16564918 0.14953682 0.23533083
0.15758248 -0.22218893 -0.09933611 0.2553001 -0.07349211 0.11045042 -0.06511077 0.036170427
0.009247931 -0.5494405 0.04459267 0.09161284 0.22573884 0.1687231 0.14405152 0.21492784
0.028013768 0.2580603 -0.07245537 -0.15250766 0.16188903 0.10059581 0.07097377 -0.16311663
-0.32116398 0.16322438 -0.38173258 0.15162878 0.29196048 -0.39666897 0.14991765 -0.012742243
-0.0686487 -0.021983976 0.19277772 0.22831936 0.04594208 -0.46324444 -0.1449096 -0.8108937
-0.32300898 -0.072007954 -0.46020967 -0.36026987 0.027658496 0.091238104 0.010956164 0.2514858
-0.89906293 -0.3029653 0.114454284 -0.12609087 -0.3512673 0.5495949 0.0856885 -0.028666822
0.20345506 -0.6679653 0.3595345 -0.026983732 -0.26655182 -0.35079283 -0.1757704 0.17203413
-0.13394387 -0.42365947 -0.15625492 0.042689335 -0.20953524 0.14347808 -0.39099294 -0.21274926
0.012818757 -0.27046368 0.053982776 -0.34699142 1.0843276 0.05355628 -0.44443578 0.23401809
0.14438805 0.21119985 -0.17110024 0.3601434 -0.005458074 -0.058458854 -0.37902322 -0.16912661
0.34821057 0.07647583 -0.5340868 0.26303843 -0.84844893 -0.19031669 -0.049086936 -0.46503788
-0.4823432 -0.21873201 0.15339966 0.6788691 -0.06874819 -0.43745753 -0.93071276 0.42907694
0.11655123 0.29132023 -0.1438757 0.115549654 -0.10563373 -0.3699569 -0.24640639 -1.2229269
-0.77932346 -0.73541266 0.16687557 -1.8271556 0.30943418 0.5357795 0.25653243 -0.34556696
-1.111267 0.122983135 0.40316787 0.1251431 0.17088121 -0.041093856 -0.36920696 -0.6734602
-0.16235621 -0.07208157 -1.0777496 0.09681903 0.3050285 -0.01070193 -0.1572377 -0.1828888
0.26380247 -0.037225746 -0.66673636 0.29858726 -0.15332232 -0.1628412 0.10463497 -0.6634186
-0.6381095 -0.057343494 -0.12363984 -0.39009213 0.09526642 -0.13951643 0.03877971 -0.1385708
0.21244705 0.06383417 0.3480986 -0.09185865 0.21277621 0.040241484 0.03263104 0.20192355
-1.1555483 -0.012464952 -0.102284156 -0.008456753 -0.08313677 -0.38853034 0.03599348 0.40893131
-0.214166 -0.046984315 0.19029328 0.06736007 -0.12243023 0.11243639 -0.0063224696 0.5056248
0.4243198 -0.32757005 0.06784964 -0.79298544 -0.3628555 0.09325051 -0.2912161 0.11826556
0.2968281 -0.7891195 0.42654377 -0.8518508 0.21446134 -0.1260045 -0.5695881 0.051566105
0.059403487 0.019191185 -0.51984346 -0.15893628 -0.8143905 0.058815688 -0.28778046 0.1388439
0.47312713 -0.12270071 0.13895057 -0.062545456 0.12944072 0.0067206128 0.5391692 -0.10315623
-0.56277275 -0.23890166 -0.16799232 -0.21404101 0.14454824 0.23836002 -0.3008327 -0.3050517
-0.19783987 0.22185169 -0.5997876 0.24051301 -0.6899983 0.41019192 0.39322686 -0.26993957
-0.076457545 0.28142652 -0.4320777 -0.14485489 0.08360141 0.16883087 -0.01581579 0.3413092
00000000: ee64 633d e49a 1abf d708 48be e6fd f43d
00000010: b477 a8bd fe28 ad3d 9ea8 3f3e ab9d b8be
00000020: 3be9 453d 674c 0b3e cd22 0c3e 9519 573d
00000030: 0e17 c33d 2fff 393a 421f 833e 832d 0a3c
00000040: 1181 90be 4299 56bd 7a1d d1be 2831 46bd
00000050: 9723 2c3e f09f 293e 2e20 193e 91fa 703e
00000060: 4d5d 213e 7f85 63be bb70 cbbd b2b6 823e
00000070: 0883 96bd d433 e23d cc58 85bd 7127 143d
00000080: a284 173c 22a8 0cbf cea6 363d 839f bb3d
00000090: 1528 673e c0c5 2c3e 3e82 133e 0b16 5c3e
000000a0: 217d e53c 7b20 843e 7b63 94bd f82a 1cbe
000000b0: 3dc6 253e 2d05 ce3d b25a 913d 0c08 27be
000000c0: 9b6f a4be 4b24 273e 7472 c3be 9344 1b3e
000000d0: d87b 953e 3218 cbbe 0384 193e d7c4 50bc
000000e0: b197 8cbd bd17 b4bc 8667 453e 8dcc 693e
000000f0: c32d 3c3d 602e edbe 2f63 14be bb96 4fbf
00000100: 6f61 a5be e878 93bd 9aa0 ebbe 4b75 b8be
00000110: 1294 e23c 0bdb ba3d 7c81 333c bfc2 803e
00000120: fd28 66bf 451e 9bbe 0267 ea3d f71d 01be
00000130: 4fd9 b3be 40b2 0c3f 747d af3d afd6 eabc
00000140: 8656 503e c6ff 2abf e814 b83e fd0c ddbc
00000150: 7b79 88be 1e9b b3be 28fd 33be b729 303e
00000160: 9528 09be e5e9 d8be 4a01 20be 03db 2e3d
00000170: 6890 56be ebeb 123e 3a30 c8be f1da 59be
00000180: c405 523c 377a 8abe 0b1d 5d3d dca8 b1be
00000190: 3fcb 8a3f d45d 5b3d 168d e3be 70a2 6f3e
000001a0: 76da 133e c644 583e e734 2fbe b764 b83e
000001b0: a5d9 b2bb 8d72 6fbd 550f c2be 872f 2dbe
000001c0: a848 b23e 5c9f 9c3d eab9 08bf f9ac 863e
000001d0: f333 59bf 61e2 42be 620f 49bd 7219 eebe
000001e0: b0f5 f6be 49fb 5fbe cd14 1d3e 5eca 2d3f
000001f0: dacb 8cbd 6ffa dfbe 3143 6ebf f9af db3e
00000200: 69b2 ee3d ed27 953e 2754 13be 4ca5 ec3d
00000210: 7f56 d8bd fe6a bdbe f551 7cbe de88 9cbf
00000220: be81 47bf 0144 3cbf 6ee1 2a3e 3ce0 e9bf
00000230: 286e 9e3e d828 093f 3858 833e 27ee b0be
00000240: ff3d 8ebf 95de fb3d 056c ce3e 8325 003e
00000250: 7cfb 2e3e 0852 28bd b208 bdbe e367 2cbf
00000260: b540 26be 819f 93bd b3f3 89bf 0e49 c63d
00000270: b22c 9c3e 2657 2fbc eb02 21be 3447 3bbe
00000280: 1e11 873e 067a 18bd 3caf 2abf 6ee0 983e
00000290: 8700 1dbe d8bf 26be dc4a d63d cdd5 29bf
000002a0: 255b 23bf 03e1 6abd e236 fdbd 28ba c7be
000002b0: 0a1b c33d 65dd 0ebe 79d7 1e3d 81e5 0dbe
000002c0: b88b 593e 7dbb 823d fb39 b23e 6320 bcbd
000002d0: 02e2 593e 41d4 243d 20a8 053d 0cc5 4e3e
000002e0: 02e9 93bf cc39 4cbc 5b7a d1bd 318e 0abc
000002f0: 9c43 aabd 73ed c6be e66d 133d 725f d13e
00000300: 554e 5bbe a072 40bd 3edc 423e 14f4 893d
00000310: b3bc fabd 0d45 e63d b82c cfbb a070 013f
00000320: 7240 d93e 43b7 a7be c1f4 8a3d 1801 4bbf
00000330: 32c8 b9be 20fa be3d 471a 95be 3735 f23d
00000340: daf9 973e bc03 4abf f263 da3e e512 5abf
00000350: c19b 5b3e 5307 01be 87d0 11bf fb36 533d
00000360: 1251 733d d536 9d3c 7614 05bf 31c0 22be
00000370: e57b 50bf b8e8 703d f657 93be 182d 0e3e
00000380: b83d f23e 834a fbbd 0f49 0e3e d517 80bd
00000390: 1c8c 043e 9638 dc3b fe06 0a3f 9343 d3bd
000003a0: e011 10bf a3a2 74be 2e06 2cbe 912d 5bbe
000003b0: 7404 143e a614 743e be06 9abe bd2f 9cbe
000003c0: 8996 4abe 172d 633e ae8b 19bf 0b49 763e
000003d0: bba3 30bf ad04 d23e 0855 c93e 8535 8abe
000003e0: c695 9cbd 2317 903e 4a39 ddbe d754 14be
000003f0: 3737 ab3d 00e2 2c3e 1e90 81bc 14c0 ae3e

fc3.bias f4 [12]
0.5024527 -0.092501655 -0.5676172 0.09382005 -0.25872117 -0.21474227 0.0074718925 -0.037012026
-0.12368248 -0.3759599 0.29349568 -0.4585995
00000000: bda0 003f 8271 bdbd 5c4f 11bf ba24 c03d
00000010: 1a77 84be 66e5 5bbe c7d6 f43b ec99 17bd
00000020: 3d4d fdbd d17d c0be 1145 963e 8ecd eabe
