shallow_nn_pytorch.pth (torch, 43929 bytes, 6 tensors)

fc1.weight f4 [128, 8]
0	0xbcb75023	-0.02237708
1	0xbf0023ad	-0.50054437
2	0xbecc4da8	-0.39902997
3	0x3e27aa2a	0.16373506
4	0xbf2f6c1c	-0.68524337
5	0x3e3ef6a7	0.18648778
6	0xbe6eb983	-0.23312955
7	0x3e9410aa	0.28918964
8	0xba49c550	-0.00076969434
9	0x3c7f5b1b	0.015585686
10	0xbd58a485	-0.052891273
11	0x3ee22444	0.44168293
12	0xbec4af16	-0.3841483
13	0xbfcb54c0	-1.5885239
14	0x3e851066	0.25989074
15	0xbea8ffbc	-0.3300761
16	0xbe62689e	-0.22110221
17	0x3e1bb32e	0.1520507
18	0x3bd80913	0.0065928786
19	0x3ebadf32	0.3649841
20	0x3ec4320e	0.3831944
21	0x3e7b8857	0.24563728
22	0xbf3a1f4c	-0.72704005
23	0x3e850d0f	0.25986525
24	0x3cf5990a	0.029980201
25	0x3a8e7e2d	0.0010871344
26	0xbcaa5b0c	-0.020795368
27	0x3e84c4f9	0.25931528
28	0xbea8f892	-0.33002144
29	0xbd837de3	-0.06420495
30	0x3e8f3e9e	0.2797746
31	0x3dd7937b	0.105261765
32	0x3ca93da5	0.020659277
33	0x3996278d	0.00028639697
34	0x3c0dc793	0.008653539
35	0xbfab00d6	-1.335963
36	0x3e4dcdf4	0.20098096
37	0x3e15523b	0.1458215
38	0x3ed44123	0.41455945
39	0xbf3ffd74	-0.74996114
40	0xbd8413a3	-0.06449058
41	0xbec1e64a	-0.3787101
42	0xbe29e869	-0.16592564
43	0xbd0c0df3	-0.03419299
44	0xbec733e3	-0.38906774
45	0x3e71807f	0.23584174
46	0xbe3d4900	-0.18484879
47	0xbf01b1e5	-0.5066207
48	0x3d56c169	0.052430544
49	0x3b7dbd3e	0.0038717533
50	0xbcbf4ba2	-0.023351494
51	0xbf420eaa	-0.75803626
52	0x3e4a5e2a	0.19762483
53	0x3f09adf6	0.5378107
54	0x3bce7f26	0.0063017784
55	0x3d9a7b49	0.07543046
56	0xbe04900d	-0.12945576
57	0xbccdd19f	-0.02512437
58	0xbeffd1ce	-0.49964756
59	0xbf92db61	-1.1473199
60	0x3f14b2d3	0.58085364
61	0x3e278df1	0.1636274
62	0x3e8ccbc4	0.2749921
63	0xbd92fae6	-0.07176761
64	0x3be20db2	0.0068986053
65	0x3f276bc0	0.6539879
66	0x3bbf4bf3	0.0058379113
67	0x3e5d0d75	0.21587165
68	0xbbb324d9	-0.005467039
69	0x3ceff876	0.02929328
70	0xbdab1314	-0.08353248
71	0xbdf14e46	-0.117825076
72	0xbe884b02	-0.26619726
73	0x3a9a1dc4	0.0011758138
74	0x3e8d3d05	0.27585617
75	0xbec4b1f1	-0.3841701
76	0x3e55668f	0.20839904
77	0x3ef0f08f	0.47058532
78	0xbe96f5c0	-0.29484367
79	0x3e05b5a2	0.13057569
80	0x3d37d295	0.04487856
81	0x3dbc898c	0.092059225
82	0xbf00e59e	-0.5035037
83	0xbe1f7a2b	-0.15573947
84	0xbdf73f5f	-0.12072634
85	0xbe086ada	-0.1332201
86	0x3e0e3328	0.13886702
87	0x3db90504	0.0903416
88	0xbd062379	-0.032748673
89	0xbde101b6	-0.109866545
90	0x3db08208	0.086185515
91	0x3ef9c3c6	0.48782176
92	0xbf4608e5	-0.7735732
93	0xbf861d57	-1.0477704
94	0x3d82882f	0.06373631
95	0xbe6d2627	-0.23159085
96	0x3d5091a8	0.05092016
97	0x3c624a4f	0.013811662
98	0xbe111686	-0.14168748
99	0xbf514ebf	-0.8176078
100	0x3ed8839f	0.4228792
101	0xbf40b690	-0.7527857
102	0xbea4674a	-0.32110053
103	0xbf466d8a	-0.77510893
104	0x3d8791c6	0.06619601
105	0xbea63c16	-0.32467717
106	0x3e52d709	0.20589842
107	0x3e80ff12	0.25194603
108	0x3e62bcf8	0.22142398
109	0xbf6dbd4e	-0.9286698
110	0x3dd26294	0.102727085
111	0xbe939807	-0.28826925
112	0xbf13761e	-0.5760211
113	0xbd1446c4	-0.0362003
114	0x3eaecf24	0.3414241
115	0xbe7cf39c	-0.24702305
116	0x3e230c49	0.15922655
117	0xbeba7a09	-0.3642123
118	0xbe070f79	-0.13189496
119	0x3e9043be	0.28176683
120	0x3cd933eb	0.026514014
121	0x3f336640	0.70077896
122	0xbba560d1	-0.005046942
123	0x3d9cb284	0.07651237
124	0x3d8935bf	0.066997044
125	0x3c0f047a	0.008729095
126	0x3d17cc98	0.03706035
127	0xbe7e6603	-0.24843602
128	0xbc7a5651	-0.0152793685
129	0x3aa4d989	0.0012577038
130	0x3cc2acbb	0.023764005
131	0x3eb20815	0.3477179
132	0xbfa0973e	-1.2546155
133	0xbf6bc85c	-0.921026
134	0xbef811e4	-0.4845115
135	0xbdcfe76d	-0.10151563
136	0xbd8c355e	-0.068461165
137	0xbb78fa0a	-0.0037990832
138	0xbc899e2a	-0.016799051
139	0xbdafd03a	-0.08584638
140	0x3e0b9df7	0.13634478
141	0xbfd5245e	-1.6651723
142	0x3db6661a	0.08906193
143	0xbe1920bb	-0.14953892
144	0xbf171e35	-0.5903047
145	0xbc3ad75d	-0.011403886
146	0xbdfd2f11	-0.12362493
147	0xbe8b0d0c	-0.2715839
148	0x3dc65048	0.09683281
149	0x3d88b1f2	0.066745654
150	0xbdc4a424	-0.0960162
151	0x3e08b9ba	0.13352099
152	0xbd81cdab	-0.06338056
153	0x3bc8dd38	0.006129887
154	0xbcf3b38b	-0.029748699
155	0xbf218461	-0.6309262
156	0xbf0c95f0	-0.54916286
157	0xbeb44764	-0.35210717
158	0xbeffefc3	-0.4998761
159	0xbf0602fd	-0.5234831
160	0x3d9f6001	0.07781983
161	0x3d67c267	0.05658188
162	0x3e3aa865	0.182283
163	0xbdb257b9	-0.08708138
164	0x3dd090c2	0.1018386
165	0x3d7e9b14	0.062159613
166	0x3eb356d4	0.35027182
167	0xbe1a2996	-0.15054926
168	0xbef3348e	-0.47501034
169	0x3d47e2f8	0.04880044
170	0x3ede6aa4	0.43440735
171	0xbe3695b7	-0.17830549
172	0xbdc1e5e8	-0.09467679
173	0x3eaac05f	0.33349892
174	0xbea06ed1	-0.31334546
175	0x3ea1f333	0.3163086
176	0xbb1f8ee0	-0.0024346635
177	0x3d0c6320	0.03427422
178	0xbe08e11c	-0.13367122
179	0xbf08348d	-0.53205186
180	0x3d0b05d4	0.033941105
181	0xbfb19574	-1.3873734
182	0x3d9a605f	0.075379126
183	0xbf0c36b5	-0.54770976
184	0x3ecb7536	0.39737862
185	0xbcb16271	-0.021653386
186	0xbe807dd4	-0.25096
187	0x3eb6dd5b	0.35715756
188	0xbf8f9922	-1.1218607
189	0xbead9675	-0.33903852
190	0xbd483bb5	-0.048885066
191	0xbe524e95	-0.20537789
192	0xb9dc71d1	-0.0004204647
193	0xbd00f948	-0.031487733
194	0xbd2dfc52	-0.04247696
195	0xbf3d0e78	-0.738502
196	0xbceacf74	-0.028663374
197	0x3f164484	0.58698297
198	0x3dfb7cb5	0.12279645
199	0x3db7c53c	0.08973166
200	0xbbb36686	-0.005474868
201	0xbb5669e1	-0.0032716917
202	0xbe0f98b2	-0.14023092
203	0x3db7fa0c	0.089832395
204	0x3e84e170	0.25953245
205	0xbfaa9f53	-1.3329872
206	0x3d1b0678	0.037847966
207	0xbe9b9e4c	-0.30394208
208	0xbe3b0aa1	-0.18265773
209	0xbbb63ead	-0.0055616708
210	0x3defd6d5	0.11710898
211	0x3e00d8fb	0.12582771
212	0x3ed8d2e3	0.42348394
213	0x3e6c02bd	0.2304792
214	0xbf6598af	-0.896861
215	0x3ec88a6d	0.3916811
216	0x3c3b6559	0.011437737
217	0xbbf277d7	-0.00739954
218	0xbd37b340	-0.04484868
219	0xbf9a5a8d	-1.2058884
220	0x3f2e3e90	0.6806421
221	0x3dcfdfe3	0.10150125
222	0xbe24dde9	-0.16100277
223	0xbe0a87b0	-0.13528323
224	0xbeaf0618	-0.34184337
225	0x3e5e20ba	0.21692172
226	0x3df71cb7	0.12066024
227	0x3e4b9e10	0.19884515
228	0x3e699ab1	0.22812916
229	0xbea8026a	-0.32814342
230	0x3ccb1242	0.02478898
231	0xbea774b1	-0.32706216
232	0x3d10c057	0.03533968
233	0x3d1c820d	0.038209964
234	0xbccccfaf	-0.025001375
235	0xbf0b505a	-0.5441948
236	0x3e0d425c	0.13794845
237	0x3d666cbb	0.056256037
238	0x3f066bd8	0.52508307
239	0xbe701fea	-0.23449674
240	0x3e6e4dd7	0.23271881
241	0xbd455094	-0.04817255
242	0xbe0a7909	-0.13522734
243	0x3f106061	0.5639706
244	0xbef5b08b	-0.47986254
245	0xbf2cef13	-0.675523
246	0xbdb1f0ba	-0.08688493
247	0x3e6d75ab	0.23189418
248	0xbf29e218	-0.66360617
249	0x3eb6e6cd	0.35722962
250	0xbe342ca3	-0.17595153
251	0xbcfa3c44	-0.030546315
252	0x3e6aeb16	0.2294124
253	0x3e1ca94e	0.1529896
254	0x3da0c159	0.07849378
255	0xbd16606b	-0.036713045

fc1.bias f4 [128]
0	0xbf2c054e	-0.67195594
1	0xbe98841f	-0.297883
2	0xbe9fd1ce	-0.31214756
3	0x3d92e835	0.07173196
4	0xbec9fc84	-0.39450467
5	0xbe811583	-0.25211725
6	0x3dbf0439	0.09326977
7	0xbf1361fa	-0.57571375
8	0x3d96f097	0.073701076
9	0xbde70aff	-0.11281394
10	0x3dae9577	0.08524602
11	0xbe7b9a6c	-0.24570626
12	0xbec0a9ee	-0.37629646
13	0xbf10565f	-0.5638179
14	0xbe80bd75	-0.25144544
15	0x3d029fd6	0.031890713
16	0xbf01be07	-0.50680584
17	0xbebbb38e	-0.36660427
18	0xbedcc72d	-0.4312071
19	0xbf06a47f	-0.5259475
20	0x3d7f1f2e	0.062285595
21	0xbeab220b	-0.3342441
22	0xbee1d67c	-0.4410895
23	0xbeea5aff	-0.4577255
24	0x3c8de7d3	0.017322456
25	0xbe4d3446	-0.20039472
26	0xbe703576	-0.23457894
27	0xbe2ea6e9	-0.17055859
28	0xbe673baf	-0.22581361
29	0xbb513060	-0.0031919703
30	0xbdc60eec	-0.09670815
31	0xbf698520	-0.9121876
32	0xbddd1338	-0.10794681
33	0xbf1611c8	-0.5862088
34	0xbf03913b	-0.5139348
35	0xbe046947	-0.12930785
36	0xbd63cf3d	-0.05561756
37	0xbe4b994e	-0.198827
38	0x3ddbd449	0.107338496
39	0xbf031808	-0.51208544
40	0xbea5a260	-0.32350445
41	0xbdfd54d3	-0.123696946
42	0xbee9cbda	-0.4566334
43	0xbebe0be2	-0.3711844
44	0xbdcaf68a	-0.09910305
45	0xbe306d98	-0.17229307
46	0x3e003862	0.12521508
47	0xbf1ce04a	-0.6127974
48	0xbf0868fb	-0.5328519
49	0x3d38bde6	0.045102976
50	0xbf2e155b	-0.68001336
51	0x3ddc13a5	0.107459344
52	0xbeb6fe24	-0.3574077
53	0xbf646589	-0.8921743
54	0xbe171ce7	-0.14757119
55	0xbf26e08f	-0.651864
56	0xbf1e7c1f	-0.61908144
57	0xbe12ca35	-0.14334948
58	0xbe2e5946	-0.17026243
59	0xbeb540aa	-0.35400897
60	0xbeb46457	-0.35232803
61	0xbf001266	-0.50028074
62	0xbea3540f	-0.3190007
63	0xbf1518bb	-0.5824086
64	0xbf029dd7	-0.51022094
65	0xbeb55105	-0.35413375
66	0x3d381bb1	0.044948284
67	0x3dc0a410	0.094062924
68	0xbef2552d	-0.4733061
69	0xbe358313	-0.17725782
70	0xbee662f0	-0.44997358
71	0xbe0f99e8	-0.14023554
72	0x3d8515f8	0.06498331
73	0xbef0e57c	-0.47050083
74	0xbeed8ee4	-0.4639808
75	0xbef4da0c	-0.47822607
76	0xbef380f9	-0.47559336
77	0xbf626e4c	-0.8844955
78	0xbe858a14	-0.26081908
79	0xbd93d4f2	-0.072183505
80	0xbed40c9a	-0.41415864
81	0xbee9aa04	-0.45637524
82	0xbee39b4b	-0.44454417
83	0xbe948bd4	-0.2901293
84	0x3cc5f0e3	0.024162715
85	0xbea52694	-0.32255995
86	0xbe0fd578	-0.14046276
87	0xbf3e7381	-0.74394995
88	0xbed88aad	-0.422933
89	0xbecf0f5d	-0.4044141
90	0xbf4fcf91	-0.81176096
91	0xbed0c1a7	-0.40772745
92	0x3cda12b9	0.026620256
93	0xbed071ce	-0.40711826
94	0xbf5d7221	-0.8650227
95	0xbe889d85	-0.26682678
96	0xbe863335	-0.26210943
97	0xbe66a91d	-0.22525449
98	0xbcb042c3	-0.02151621
99	0xbe9782ec	-0.29592073
100	0xbd9d7a8c	-0.076893896
101	0xbea6d713	-0.32585964
102	0xbf11e0f1	-0.5698386
103	0xbecd1b20	-0.40059757
104	0xbf272bb6	-0.6530107
105	0xbec0b422	-0.3763743
106	0x3d95cba1	0.0731423
107	0xbe95a90e	-0.2923054
108	0xbebd7fb9	-0.37011507
109	0x3c98248e	0.018572118
110	0xbf21af8a	-0.63158476
111	0xbdad1a88	-0.08452326
112	0xbf0ef58f	-0.5584344
113	0xbe1ab70d	-0.15108891
114	0xbf05af43	-0.52220553
115	0xbd852901	-0.065019615
116	0xbf455378	-0.7708049
117	0xbf2b181c	-0.66833663
118	0xbf2cde15	-0.6752637
119	0xbe6c82a4	-0.2309671
120	0xbefce01b	-0.4938973
121	0xbe230f11	-0.15923716
122	0x3d0cffc1	0.034423593
123	0xbee65bce	-0.44991916
124	0xbe999cf0	-0.30002546
125	0xbf001c16	-0.50042856
126	0xbf3c136e	-0.7346715
127	0x3d91f3de	0.07126592

fc2.weight f4 [64, 128]
0	0xbe151b90	-0.14561296
1	0xbf3285a6	-0.6973518
2	0xbf1716b3	-0.5901901
3	0xbf066f36	-0.52513444
4	0x3eae51ac	0.34046686
5	0x3d5deaa3	0.054178845
6	0xbc919423	-0.017770832
7	0x3e6241d2	0.22095421
8	0xbc02a0be	-0.007972894
9	0xbe22a196	-0.15881953
10	0xbc22f1bf	-0.009945332
11	0x3d3059de	0.043054454
12	0x3e08f6a4	0.13375336
13	0x3e1a951a	0.1509594
14	0xbdb8c5ec	-0.090221256
15	0xbd38d6c0	-0.045126677
16	0xbe68a3cb	-0.22718732
17	0xbdc9fe1a	-0.09862919
18	0xbe77f530	-0.24214625
19	0x3d747ad8	0.059687465
20	0xbe357d83	-0.1772366
21	0xbf01afbb	-0.5065877
22	0xbcd4d5b8	-0.025980815
23	0x3ca2daeb	0.019879779
24	0x3d7e111b	0.06202803
25	0xbdba0181	-0.09082318
26	0xbf159904	-0.5843661
27	0x3e82c095	0.25537553
28	0xbea423f7	-0.3205869
29	0x3dd1d21e	0.10245155
30	0xbe80a6f2	-0.2512737
31	0xbf304fe4	-0.68871903
32	0x3c25f154	0.010128338
33	0x3e7f2c39	0.24919213
34	0xbe7c4248	-0.2463466
35	0xbe8d7cec	-0.2763437
36	0xbd2a5d21	-0.04159272
37	0xbad98421	-0.0016595164
38	0xbdde40d5	-0.108522095
39	0x3cd0ab03	0.02547217
40	0xbf210280	-0.6289444
41	0x3e093cf8	0.13402164
42	0x3de8aac3	0.11360695
43	0xbdf0b61c	-0.117534846
44	0x3d6a1cd0	0.057156384
45	0xbd88b1b3	-0.066745184
46	0x3d97344e	0.07383023
47	0xbe9c8c3b	-0.30575737
48	0x3e0121e0	0.12610579
49	0xbeb87a68	-0.3603089
50	0xbecfe4f1	-0.40604356
51	0x3be6a4b4	0.007038677
52	0xbeb148b6	-0.34625787
53	0x3d0d7256	0.034532867
54	0xbec2b1d8	-0.3802631
55	0xbe50dc3d	-0.20396514
56	0xbe105e06	-0.14098367
57	0x3d47cb81	0.04877806
58	0x3dc16857	0.09443729
59	0xbf7aeab9	-0.9801441
60	0x3d6f01d9	0.05835137
61	0x3defe607	0.11713796
62	0xbe04c607	-0.12966166
63	0x3e5de5f8	0.21669757
64	0xbfcbc0e5	-1.5918242
65	0xbefde4cb	-0.49588618
66	0x3bbf3fc7	0.0058364603
67	0xbe465c38	-0.19371116
68	0xbf1ba5f8	-0.60800123
69	0xbe1d2189	-0.15344824
70	0xbe789bea	-0.24278226
71	0x3e27f52f	0.16402124
72	0xbd273abe	-0.040827505
73	0xbf388553	-0.72078437
74	0xbea73aac	-0.3266195
75	0x3e48678b	0.19570749
76	0x3de525da	0.1118886
77	0xbf2624f4	-0.64900136
78	0xbc29dca3	-0.010367545
79	0x3cb07736	0.02154122
80	0xbf57f141	-0.843525
81	0xbc89b6fd	-0.016810888
82	0xbf564f70	-0.8371496
83	0x3def442f	0.11682927
84	0xbd0c9cac	-0.0343291
85	0xbe08f743	-0.13375573
86	0xbd4deadd	-0.05027281
87	0x3f4cd55a	0.8001305
88	0xbd2cd0db	-0.042191368
89	0x3ded14af	0.11576211
90	0x3c3b1f88	0.011421092
91	0x3e3bdce6	0.18345985
92	0xbd70b912	-0.058770247
93	0xbe24c39f	-0.16090249
94	0xbe96119d	-0.29310313
95	0x3df2074e	0.118177995
96	0x3cc6d4bd	0.024271363
97	0x3dafbce2	0.085809484
98	0x3d7f7300	0.062365532
99	0x3afced3e	0.0019296778
100	0xbe1f6992	-0.15567616
101	0x3dfb8593	0.12281337
102	0xbd59edeb	-0.053205412
103	0xbdd1f708	-0.102521956
104	0x3d9809ea	0.07423766
105	0xbf3e5a05	-0.7435611
106	0xbdd3887d	-0.103287674
107	0xbebb5c5e	-0.36593908
108	0xbf5a509d	-0.85279256
109	0xbd363293	-0.044481825
110	0x3d988e3e	0.074490055
111	0xbd99173b	-0.07475134
112	0xbdd00416	-0.10157029
113	0xbd6e6338	-0.05820009
114	0xbcb522ce	-0.022111323
115	0xbd5c20c0	-0.05374217
116	0xbd816fbb	-0.06320139
117	0xbdc4cc1a	-0.09609242
118	0x3e86f353	0.26357517
119	0xbebaf575	-0.36515394
120	0xbfb0c1f3	-1.3809189
121	0x3deb0ae5	0.11476687
122	0xbd0a248d	-0.033726264
123	0x3d057c17	0.032589044
124	0xbda6a547	-0.08136993
125	0xbfb97c5e	-1.4491079
126	0xbd8852fc	-0.06656453
127	0xbd3dfb57	-0.046382274
128	0xbf58c005	-0.84668
129	0xbe7e9ec1	-0.24865247
130	0xbe133d23	-0.1437879
131	0x3e019dec	0.12657899
132	0x3d694a5b	0.056955677
133	0x3cda88f5	0.026676634
134	0x3e2ec86d	0.17068644
135	0xbf2f8dd3	-0.6857578
136	0xbbbdb45f	-0.005789324
137	0x3cd79282	0.026314978
138	0xbee4e452	-0.44705445
139	0x3e1a3b3e	0.15061662
140	0xbd790ab1	-0.06080121
141	0x3dafed3a	0.08590169
142	0xbefdc109	-0.49561337
143	0xbc5416a7	-0.012944854
144	0x3e4a42a2	0.19751981
145	0xbecb51c8	-0.39710832
146	0xbe92c0bf	-0.2866268
147	0xbe737681	-0.23775674
148	0x3e2d26d8	0.16909349
149	0xbdd74f5c	-0.105131835
150	0xbda95837	-0.08268779
151	0xbf0fa697	-0.5611357
152	0x3e1d10ab	0.1533839
153	0xbf0ce559	-0.55037457
154	0xbe29642d	-0.1654212
155	0xbe434628	-0.19069731
156	0x3e003791	0.12521197
157	0x3daac632	0.08338584
158	0xbd2ce2fb	-0.042208653
159	0xbe9738ad	-0.29535428
160	0x3dd7c45f	0.10535502
161	0xbdf944b5	-0.12171308
162	0xbe45cde0	-0.19316816
163	0x3e184a42	0.14872077
164	0xbe976686	-0.29570407
165	0x3e16479f	0.14675759
166	0xbe00e49a	-0.12587205
167	0xbe1927e9	-0.14956631
168	0x3daff146	0.08590941
169	0x3dbf8e00	0.09353256
170	0xbe3c87b2	-0.18411139
171	0xbf17c714	-0.59288144
172	0x3de003f2	0.109382525
173	0xbc1da457	-0.009621701
174	0xbee1b61e	-0.44084257
175	0xbdef74cc	-0.11692199
176	0xbe298980	-0.16556358
177	0x3dd6572b	0.10465845
178	0xbe47ffca	-0.1953117
179	0xbf1f48b0	-0.6222029
180	0xbdab0664	-0.08350828
181	0x3e4e6af1	0.20157982
182	0xbcba3792	-0.022731576
183	0x3e85513d	0.26038542
184	0xbe37aafc	-0.17936319
185	0xbea2e0b2	-0.31812054
186	0x3c85b544	0.016321786
187	0x3ccfe4cf	0.02537766
188	0xbdce2f96	-0.1006767
189	0xbe3bdd23	-0.18346076
190	0x3c9e5ed4	0.019332327
191	0x3ec47ed8	0.38378024
192	0x3d8da2af	0.06915795
193	0xbda2d03d	-0.079498746
194	0xbdb08ec0	-0.086209774
195	0x3d9be976	0.076128885
196	0xbe5ca0a8	-0.2154566
197	0xbdf85164	-0.12124899
198	0xbe906d1b	-0.2820824
199	0xbd0b4167	-0.03399792
200	0x3d19e572	0.03757233
201	0xbe050df2	-0.12993601
202	0xbe6ed548	-0.23323548
203	0x3e6de782	0.23232844
204	0xbdfc3517	-0.123148136
205	0x3d569aa9	0.05239359
206	0x3db9725b	0.09055015
207	0xbf8e9fef	-1.1142558
208	0x3da8ce06	0.08242421
209	0xbf851844	-1.039803
210	0x3d162668	0.03665772
211	0x3ea049d4	0.31306326
212	0x3e4e1572	0.20125368
213	0x3d99e927	0.075151734
214	0xbf2d21e3	-0.6762983
215	0x3dda4861	0.106583364
216	0x3d541889	0.05178121
217	0x3d6524bb	0.055943232
218	0x3edca561	0.43094924
219	0x3db92918	0.09041041
220	0xbd1f5a1a	-0.038904287
221	0x3e742282	0.23841289
222	0x3eecb90d	0.46234933
223	0x3e0cb498	0.13740766
224	0xbe7fbd65	-0.24974592
225	0xbd7bae1c	-0.06144534
226	0x3e109449	0.14119066
227	0xbd83d63c	-0.06437346
228	0xbd73c017	-0.059509363
229	0xbd9b9e99	-0.075986095
230	0xbd06f9db	-0.032953124
231	0x3e67c876	0.22635064
232	0xbd0e47bd	-0.034736384
233	0xbf31c9ce	-0.69448555
234	0x3cbae011	0.022811921
235	0xbeaaf17d	-0.33387366
236	0xbdc1b6cb	-0.09458693
237	0x3c151738	0.009099774
238	0x3e7d38c4	0.24728686
239	0x3d696f34	0.056990817
240	0xbdb29c4a	-0.08721216
241	0xbd6d0e6b	-0.05787508
242	0xbdbbbe07	-0.09167104
243	0xbeccc359	-0.39992788
244	0xbee6e383	-0.45095453
245	0xbd94c68a	-0.07264431
246	0xbead2316	-0.3381583
247	0x3c901f49	0.017593043
248	0x3db744b3	0.0894865
249	0x3e0c0d9b	0.13677065
250	0x3d1f95f8	0.03896138
251	0x3dbe119c	0.092807025
252	0xbdc56e38	-0.09640163
253	0x3e26e592	0.16298512
254	0xbeb56e18	-0.35435557
255	0xbd77dd21	-0.06051362

fc2.bias f4 [64]
0	0x3eaf4127	0.34229395
1	0x3e7b7e72	0.24559954
2	0x3c180bcd	0.009280157
3	0xbb5bc478	-0.0033533853
4	0x3e14f979	0.14548291
5	0x3e791089	0.24322714
6	0xbe0a8002	-0.13525394
7	0x3d880c5d	0.06642983
8	0x3e043f1d	0.12914701
9	0x3d519088	0.051163226
10	0xbc84a5d7	-0.01619236
11	0x3eb53f48	0.35399842
12	0x3ebec07c	0.3725623
13	0x3c6ad87c	0.01433384
14	0xbeb66b54	-0.3562876
15	0x3e24b34a	0.16084018
16	0xba82ebed	-0.0009988524
17	0x3e6f1ae8	0.23350108
18	0x3eda5a96	0.42647237
19	0x3ee19555	0.44059244
20	0xbd690b62	-0.05689562
21	0x3e9c3d36	0.3051545
22	0x3df40edf	0.11916899
23	0x3ed48ed6	0.41515225
24	0x3eb11479	0.34585932
25	0x3e0eb71e	0.13937041
26	0xbdb69211	-0.08914579
27	0xbd5f80b5	-0.054566104
28	0x3e631293	0.22175054
29	0x3e5d6249	0.21619524
30	0x3e51417d	0.20435138
31	0x3d045d91	0.032315794
32	0x3e22551d	0.1585278
33	0x3f141288	0.57840776
34	0x3e988047	0.29785368
35	0xbdb9d6fd	-0.09074209
36	0x3c3c277a	0.011484021
37	0x3eccad86	0.39976138
38	0x3e5bc4b1	0.2146175
39	0x3d89dd81	0.06731702
40	0x3e8c959c	0.27457893
41	0x3e789962	0.24277261
42	0x3e8ed699	0.278981
43	0xbd7e60f8	-0.062104195
44	0x3e5fb263	0.21845393
45	0x3ea5f4c6	0.3241331
46	0x3e920a9c	0.2852372
47	0x3e951348	0.29116273
48	0x3db8b58b	0.090190016
49	0x3e241bdf	0.16026257
50	0xbdc98375	-0.098395266
51	0x3dd9b0f9	0.10629458
52	0x3e157f87	0.14599429
53	0x3ed38466	0.4131195
54	0xbd0544d5	-0.032536346
55	0x3ee6cf2c	0.45079935
56	0x3e9448f5	0.28961912
57	0x3eca6373	0.39529
58	0x3e91e8c2	0.28497893
59	0x3ecfb3ad	0.4056677
60	0x3de83d4a	0.11339815
61	0x3ebf8f2e	0.37413925
62	0xbc09bbc9	-0.008406588
63	0x3e82808f	0.25488707

fc3.weight f4 [12, 64]
0	0xbf20e462	-0.62848485
1	0x3e527546	0.20552549
2	0xbd1286bc	-0.035773024
3	0x3e2728cb	0.16324155
4	0x3ea5c553	0.3237711
5	0x3ca2b109	0.019859808
6	0x3e49f4ad	0.19722243
7	0x3cafcda3	0.02146036
8	0x3dc80061	0.09765697
9	0x3e4e1ab9	0.20127381
10	0xbf2f9603	-0.68588275
11	0x3c6118ba	0.013738805
12	0x3dcd8974	0.10035983
13	0xbbadaebd	-0.0053003714
14	0x3e74566d	0.23861094
15	0x3cc6bd35	0.024260143
16	0xbe03a330	-0.1285522
17	0x3cc52b06	0.024068367
18	0x3e2929a7	0.16519795
19	0x3e41edcf	0.18938373
20	0x3dcfe4e3	0.101510786
21	0x3da3ff45	0.08007673
22	0x3c811566	0.015757274
23	0xbe4861bc	-0.19568533
24	0xbf1cf895	-0.61316806
25	0x3c8c1ed3	0.017104542
26	0xbc8ca660	-0.017169178
27	0xbd7f97be	-0.062400572
28	0xbe08dbb0	-0.13365054
29	0x3d7ff868	0.062492758
30	0x3df7a1a1	0.12091375
31	0x3e749af9	0.23887242
32	0xbe2dbf43	-0.16967492
33	0x3e579479	0.21052732
34	0xbec5fa0c	-0.38667333
35	0xbe1dba6b	-0.15403144
36	0x3d4b1691	0.049582068
37	0xbc89c0e3	-0.016815608
38	0xbf3973da	-0.724424
39	0xbe91b2a7	-0.28456613
40	0x3e166fdd	0.1469111
41	0xbea1da04	-0.31611645
42	0x3e544ba8	0.20731986
43	0xbe0b200a	-0.1358644
44	0xbe077896	-0.13229594
45	0x3d21e280	0.039522648
46	0x3e84e106	0.2595293
47	0xbdac0a4b	-0.08400401
48	0xbe50dc31	-0.20396496
49	0xbd97de70	-0.074154735
50	0x3d5863bb	0.052829485
51	0xbeba7d58	-0.36423755
52	0xbe2fcb53	-0.17167406
53	0x3dd4bb50	0.103872895
54	0x3e26c4fe	0.16286084
55	0x3d89649d	0.067086436
56	0x3d9e9a95	0.07744328
57	0x3ec0048a	0.37503463
58	0x3e4a52f1	0.19758202
59	0x3e2b58a3	0.16733031
60	0x3e90f4eb	0.28311858
61	0x3e0311c7	0.1279975
62	0x3de06a46	0.1095777
63	0x3e0a6df1	0.13518502
64	0x3e12941f	0.14314316
65	0x3e8ffba9	0.2812169
66	0xbef90318	-0.48635173
67	0x3e2beea3	0.16790251
68	0x3d3b6c6f	0.045757707
69	0xbe1d4c9f	-0.1536126
70	0x3ea6e535	0.32596746
71	0xbe8ae282	-0.27125937
72	0xbd5c7ce8	-0.053830057
73	0xbe723fcb	-0.23657148
74	0x3edb2221	0.42799476
75	0xbd318d89	-0.04334787
76	0xbf1c9933	-0.61171263
77	0xbd1cc528	-0.03827396
78	0xbd60eaa3	-0.054911267
79	0xbe715e01	-0.23571016
80	0x3e3155c7	0.17317878
81	0xbf0f9b7c	-0.56096625
82	0x3e0fb344	0.14033228
83	0xbde51aa3	-0.11186721
84	0xbec9992d	-0.39374676
85	0xbe954d3e	-0.29160494
86	0xbf019df7	-0.5063166
87	0x3e588378	0.21143901
88	0x3dfdaaf7	0.123861246
89	0x3f621901	0.883194
90	0xbd102970	-0.035195768
91	0xbdca85af	-0.09888779
92	0xbebabb35	-0.36470953
93	0xbd9fa773	-0.0779561
94	0xbe26e35c	-0.16297668
95	0x3e52763d	0.20552917
96	0xbeda66aa	-0.4265645
97	0xbedbf938	-0.42963576
98	0xbee3d00d	-0.44494668
99	0x3ace3b21	0.0015734175
100	0xbdd00f74	-0.101591974
101	0x3d6e5605	0.058187503
102	0xbd557e74	-0.05212255
103	0x3ea51ebe	0.32250017
104	0x3e9cfbe3	0.30660924
105	0xbf015516	-0.50520456
106	0x3e4efff1	0.20214821
107	0xbecc3b15	-0.39888826
108	0x3dc219cf	0.09477579
109	0x3f20cb1f	0.6280994
110	0xbda91660	-0.08256221
111	0xbf7d4184	-0.98928094
112	0x3e363511	0.1779368
113	0xbea8e0e1	-0.3298407
114	0xbd885efe	-0.06658743
115	0xbefcad61	-0.49351028
116	0xbf2a8889	-0.66614586
117	0x3c8214c3	0.01587904
118	0x3d3b9980	0.045800686
119	0x3e733355	0.2375005
120	0x3de9b76b	0.11411937
121	0x3e83149a	0.25601655
122	0x3f1db5c1	0.6160546
123	0xbea7949f	-0.32730576
124	0xbda2f169	-0.079562016
125	0xbe9a4e3d	-0.30137816
126	0xbefcdfc9	-0.49389485
127	0xbc281726	-0.010259425
128	0x3e9f5ed6	0.31127042
129	0x3df6a9d5	0.12044112
130	0xbec9b408	-0.39395165
131	0x3db5f221	0.08884073
132	0xbe1edd39	-0.15514077
133	0xbf833ee4	-1.0253568
134	0xbe88525b	-0.26625332
135	0x3eb86965	0.3601791
136	0x3dd24319	0.10266704
137	0xbe050e2b	-0.12993686
138	0x3e9bbcd1	0.30417493
139	0xbdda814c	-0.10669193
140	0x3dd7d1ea	0.10538085
141	0xbeb7e361	-0.35915664
142	0xbf776b93	-0.9664852
143	0xbec98e5d	-0.39366427
144	0xbf9012a3	-1.1255687
145	0x3c3df39b	0.011593725
146	0x3e560127	0.20898877
147	0x3a65fed1	0.00087736273
148	0xbe2f06d6	-0.17092451
149	0x3d510f2c	0.05103986
150	0xbda631f5	-0.08114997
151	0x3ea6bb65	0.32564846
152	0xbf3686de	-0.7129954
153	0x3e004d6a	0.12529531
154	0xbf45c2c6	-0.77250326
155	0x3d309648	0.04311207
156	0xbfee61f2	-1.862364
157	0xbecde4c0	-0.40213585
158	0x3c0b1cac	0.008490723
159	0xbd933a58	-0.071888626
160	0xbdbe1d76	-0.09282963
161	0x3e00bd19	0.12572135
162	0x3e8e4b67	0.27791902
163	0xbf31100e	-0.6916512
164	0xbe5eb065	-0.21746977
165	0x3c74626a	0.014916042
166	0x3d901207	0.070346884
167	0xbf1b925a	-0.6077019
168	0xbf25e99c	-0.64809585
169	0x3d42f613	0.047597956
170	0xbee3c203	-0.44483957
171	0x3e285cbd	0.16441627
172	0xbe5362bc	-0.20643133
173	0x3f26b257	0.65115875
174	0x3e83c0a1	0.25732902
175	0x3e534838	0.20633018
176	0xbf0014c5	-0.5003169
177	0xbd4248cc	-0.047432706
178	0xbeb470ff	-0.3524246
179	0xbf72ffd7	-0.9492163
180	0x3bcec348	0.0063099004
181	0x3c8fabb0	0.017537922
182	0xbeac6079	-0.33667353
183	0x3e4fb516	0.20283923
184	0x3cbf7d2a	0.023375113
185	0xbd5df596	-0.054189287
186	0xbd646c0f	-0.055767115
187	0x3dbec37a	0.09314628
188	0xbe97e891	-0.29669622
189	0x3e597718	0.21236837
190	0x3e3532c9	0.17695154
191	0x3dc80680	0.09766865
192	0x3cbcdd57	0.023054762
193	0xbd687a22	-0.0567571
194	0xbd2109f5	-0.039316136
195	0x3e279f90	0.16369462
196	0xbe13bb07	-0.14426814
197	0xbec8304d	-0.3909935
198	0x3e7e86e9	0.24856152
199	0xbf1948ef	-0.5987691
200	0xbc0748ee	-0.008257134
201	0x3dee6610	0.116405606
202	0x3e825488	0.25455117
203	0x3e0746c3	0.13210587
204	0xbc68266b	-0.014169316
205	0x3e27624f	0.16346096
206	0xbd21e896	-0.03952845
207	0xbf5c385c	-0.860235
208	0x3db8f69a	0.090314105
209	0x3f09e8b0	0.5387068
210	0xbec13679	-0.37736872
211	0xbf036338	-0.5132327
212	0x3e890c0b	0.26767
213	0x3ec91199	0.39271238
214	0x3d2bc5a7	0.041936543
215	0x3ecb3d01	0.3969498
216	0xbe6334e7	-0.2218815
217	0x3b5f1d86	0.0034044697
218	0x3df4f83a	0.11961408
219	0x3c27a68b	0.010232578
220	0xbf99a949	-1.2004787
221	0x3e83ee2e	0.25767654
222	0x3df24007	0.118286185
223	0x3e877e95	0.26463762
224	0x3f0c69e1	0.5484906
225	0xbf731051	-0.9494677
226	0x3e8b2c78	0.27182364
227	0x3e4c0754	0.1992467
228	0x3e26647a	0.16249266
229	0xbd2a8b81	-0.041636948
230	0xbb774211	-0.0037728588
231	0x3ec5fab7	0.38667843
232	0x3d807b23	0.062734865
233	0xbe844d3d	-0.25840178
234	0xbef3879a	-0.47564393
235	0xbeb2b3d7	-0.34902832
236	0x3c8386a2	0.016055409
237	0x3e2a78e0	0.16647673
238	0xbdf81dcf	-0.121150605
239	0xbd76e6cc	-0.0602787
240	0x3dd051fe	0.10171889
241	0x3e8e8cf9	0.2784193
242	0xbe0f5ef5	-0.14001067
243	0x3f2a841b	0.66607827
244	0x3ccfc01d	0.025360161
245	0x3e58456b	0.21120231
246	0x3da845ff	0.08216476
247	0x3d8a6c44	0.06758931
248	0x3e29a505	0.16566856
249	0xbe1241aa	-0.14282861
250	0x3d05de6e	0.03268283
251	0xbf13734b	-0.575978
252	0x3e1188a8	0.14212286
253	0x3d3747d3	0.04474623
254	0xbaf84edd	-0.0018944402
255	0x3d1d06a2	0.038336404

fc3.bias f4 [12]
0	0x3f157d79	0.5839458
1	0xbd7ef188	-0.06224206
2	0xbeb309aa	-0.3496831
3	0xbd2a0dba	-0.041516997
4	0xbdda3af5	-0.106557764
5	0xbe4d266d	-0.2003419
6	0x3dbcbda6	0.0921586
7	0x3d592a9d	0.053019155
8	0x3db164c3	0.08661797
9	0xbee1d66d	-0.44108906
10	0x3eaa1591	0.3321958
11	0xbea9e128	-0.33179593
