mlruns/761854136110779325/830a49b11079404196148249adbab1fd/artifacts/deep_nn_pytorch.pth (torch, 199248 bytes, 22 tensors)

fc1.weight f4 [256, 8]
000000 c3 aa a2 3e e2 4f 86 3e 66 b9 41 3e 9a 4d a0 be
       0.31770906 0.2623282 0.1891838 -0.31309205
000010 f5 b5 a1 3d 59 ba 96 3e b9 04 00 3e 1d 74 51 3e
       0.07896034 0.29439047 0.12501802 0.2045445
000020 2f 75 fb bd b9 6c ce 3e c8 8a 75 3e 1e 06 30 be
       -0.1227821 0.40317324 0.23978722 -0.17189834
000030 24 29 fc 3d ee 5c 25 3d 16 c1 00 be 32 86 3d 3c
       0.123125345 0.040371828 -0.12573656 0.011567639
000040 0b 3a e6 3d 2e a7 69 bd c3 ee c4 3e b2 a5 e5 bd
       0.112415396 -0.0570442 0.3846341 -0.112132445
000050 20 e5 0b be 8f 21 d6 bd b1 39 ab 3e 46 eb 23 3e
       -0.13661623 -0.104556195 0.33442453 0.16007718
000060 1f 9a 83 3e 2b 27 47 3d be 11 4b 3e a8 a2 7e 3d
       0.25703523 0.048621338 0.19830987 0.06216684
000070 73 76 9e be 44 19 09 bf 05 1b 2a 3e 62 47 5b 3e
       -0.30949745 -0.5355418 0.1661187 0.21413949
000080 d5 fd d9 be a6 42 21 bc b0 29 f5 bd 7c fd 64 3c
       -0.4257647 -0.00984255 -0.11970842 0.013976451
000090 53 60 f1 3c 59 24 24 be 6b 59 8c bd e2 02 62 3e
       0.029464876 -0.1602949 -0.068529926 0.22071412
0000a0 cf eb 36 ba 3a 96 a1 3c 53 3d 0b bd c9 37 d1 3e
       -0.0006977887 0.019724954 -0.03399403 0.40862873
0000b0 08 ae 9f be 78 27 34 bf 45 5c 28 bc f5 2f 7c be
       -0.31187463 -0.70372725 -0.010275905 -0.24627669
0000c0 48 48 ac 3c 6b 09 da 3c dc 37 a1 3d 2c 18 30 3e
       0.02103056 0.026615819 0.078719825 0.17196721
0000d0 02 d9 e8 be f7 d8 db 3d 82 1c b8 be b0 55 60 be
       -0.45478064 0.10734742 -0.3595925 -0.21907687
0000e0 8a aa 15 3e b0 6b 9c 3e 18 72 54 be 56 f4 9a be
       0.14615837 0.3055091 -0.20746648 -0.3026454
0000f0 79 08 f6 3d 0a 5a 7e be 7b 05 bb bc 04 8e 73 3e
       0.12013335 -0.24839035 -0.022829762 0.23784643
000100 2b d6 a1 3e 7c ff 50 bd 61 17 1b be a8 1d cb 3c
       0.3160871 -0.0510249 -0.15145637 0.024794415
000110 7c a1 85 3e d1 33 77 be 20 3b d9 bd c5 4e e2 bc
       0.26099765 -0.2414086 -0.1060698 -0.02762545
000120 a1 d8 e2 bd 9e 4e fd 3e b8 d2 c8 3d d1 57 9b bd
       -0.11076475 0.49474043 0.098058164 -0.07585109
000130 26 c5 2c bc 44 56 fc ba 0a 81 b4 3e 3c 38 5f be
       -0.010545051 -0.0019251783 0.352547 -0.21798795
000140 0e 2f f5 3c b2 b6 ce b9 70 f8 15 3e 30 fc 2e be
       0.029929664 -0.000394275 0.14645553 -0.1708839
000150 81 7d f4 3d f8 00 9e 3e 8b a4 da be 53 f8 87 be
       0.119380005 0.30860114 -0.4270366 -0.26556644
000160 36 d7 5d 3c 12 30 78 be 91 09 1f be db c5 90 be
       0.01354008 -0.24237087 -0.15530993 -0.28275952
000170 4a 90 91 bd 63 c1 f5 3e ab f0 30 3e 66 52 c2 3e
       -0.07107599 0.47999105 0.17279308 0.3795349
000180 69 2b 53 3c 70 cc af bc 3e 2e fe bc b0 45 f6 bd
       0.012888768 -0.021459788 -0.03102791 -0.120250106
000190 3f b5 0b bd 47 fd 41 bf ba 1e a2 3d 88 e8 15 3d
       -0.034108397 -0.75777096 0.07916017 0.036598712
0001a0 c4 0d 26 bc 2b ee 99 3c 06 97 e0 ba f9 e4 88 be
       -0.010135118 0.018790325 -0.0017134852 -0.26737192
0001b0 a8 e3 b8 3e 17 ca 02 bf f6 f8 8b bc f8 bd 46 bd
       0.36111188 -0.51089615 -0.017086487 -0.048521012
0001c0 b9 78 0e 3d db b9 8d bc b7 f6 d5 bb 30 91 0d bf
       0.0347831 -0.017300537 -0.006529655 -0.55299664
0001d0 ba 1e 20 3e 34 90 3b be 72 af 86 bd 95 ea 2c 3e
       0.15636721 -0.18316728 -0.06576432 0.16886361
0001e0 d0 7a ef be 33 6b 16 3c a7 e0 46 be 79 01 31 be
       -0.46773386 0.009180832 -0.19421636 -0.17285718
0001f0 45 e4 19 3e 43 a3 b5 bd 44 76 a3 bd 6c 45 55 3e
       0.15028484 -0.0886903 -0.07981542 0.20827264
000200 40 0e d2 be 19 a1 7a 3c 0c 0d 72 3e a8 8b 74 3e
       -0.41026497 0.015297198 0.2363779 0.238814
000210 33 d2 94 bd 97 e3 6d 3e e8 65 56 3c 70 dc a9 3d
       -0.07266655 0.2323135 0.01308582 0.08293998
000220 2c 98 10 be a5 b5 92 3d 0d c5 a1 3e b5 af bd 3d
       -0.14120549 0.07163552 0.3159565 0.09262029
000230 4a 19 6e be 0f 48 bf 3e 21 92 86 be 6f 63 19 be
       -0.23251835 0.37359664 -0.26283363 -0.14979337
000240 f7 e8 89 be da 71 f5 bd 72 54 89 be 37 29 4f bd
       -0.2693555 -0.11984606 -0.2682224 -0.050576415
000250 d1 76 a5 3e 1e 12 19 3e 1c 5c 03 3e 27 3e 1f 3e
       0.32317212 0.14948317 0.12828106 0.15551053
000260 c9 75 12 3d b3 da 8f be 16 b0 99 be 79 98 3a 3e
       0.03575686 -0.28096542 -0.30017155 0.18222226
000270 82 02 4f 3e 0c da 3f 3c 9a 7e 04 3e 98 4b 37 bd
       0.202158 0.011709701 0.1293892 -0.044749826
000280 81 7e 01 3e b4 54 ab 3d 19 5f ba bd 48 a0 9e 3e
       0.12645914 0.08365765 -0.0910017 0.3098166
000290 13 11 8a be 52 16 8c bd f4 18 e8 bd 11 53 2d 3e
       -0.26966152 -0.06840195 -0.113328844 0.16926219
0002a0 5a d9 52 be 15 dd b0 3e b4 59 80 3e 31 d7 8b 3c
       -0.20590726 0.34543672 0.25068438 0.017070385
0002b0 17 8d 22 bd 1b b7 32 bd 9d 99 c9 3c 2c 93 6b 3d
       -0.039685335 -0.043631654 0.024609381 0.0575134
0002c0 12 24 81 3d bb 66 7a 3e b8 1c b0 be 9c 25 40 3e
       0.06305708 0.24453251 -0.3439691 0.18764347
0002d0 c0 f5 d2 3d 7b 93 8c 3d 72 c6 0b be 91 83 b7 3c
       0.10300779 0.06864067 -0.1364992 0.022401603
0002e0 08 57 a7 be d3 c6 24 be 67 b3 05 be 6a 29 90 bd
       -0.32683587 -0.1609147 -0.13056718 -0.07039149
0002f0 31 f1 10 be 89 6b 0f be 23 27 7f 3e 5b 1b 99 be
       -0.14154507 -0.14005865 0.24917273 -0.29903683
000300 00 3a 7d be 9b 36 ee bb 5c c1 2d 3d db 6f 99 3d
       -0.24729156 -0.007269693 0.04242073 0.07492038
000310 69 27 30 3d 99 d0 90 3e 7f 75 be bd 59 48 61 3e
       0.043006334 0.28284147 -0.09299754 0.22000255
000320 5b 38 b0 be d8 53 f3 3d 9d 14 0a 3e 39 f5 e4 3b
       -0.34417996 0.11881226 0.13484426 0.0069872406
000330 e6 91 21 3e f6 aa 01 be 7e 75 ae bc 96 da 02 3e
       0.15778312 -0.12662873 -0.021296259 0.12778696
000340 e8 e0 c4 bd 33 6f 2b 3e 20 38 92 be f8 d3 2f be
       -0.0961321 0.16741638 -0.28558445 -0.17170703
000350 cf e1 31 be 06 4e 97 be b0 55 82 be 0b 9b 31 bd
       -0.17371295 -0.29551715 -0.25456 -0.04336075
000360 98 49 3b 3c da fb eb bb 10 c7 8c bc 0d 1c b6 be
       0.01143112 -0.007201654 -0.017184764 -0.35568276
000370 23 80 62 3e 11 81 15 bf 1c 17 00 be db 8f 8a 3d
       0.22119193 -0.58400065 -0.12508816 0.067657195
000380 d2 cd a4 ba 31 41 71 bc 6e 71 e7 bc 02 46 36 bf
       -0.0012573546 -0.0147250155 -0.02825233 -0.71200573
000390 44 e8 d3 bd 87 c4 c6 3d a2 84 c3 bd 17 19 80 be
       -0.103470355 0.09705453 -0.09546782 -0.25019142
0003a0 b4 82 8a be cb 2b 74 3e 29 a2 3f 3d 28 01 90 3d
       -0.27052844 0.2384483 0.046785507 0.070314705
0003b0 78 e0 52 3e 17 b5 81 3e 44 d7 eb 3d 1d 1c 8c 3d
       0.2059344 0.25333473 0.11515668 0.068413
0003c0 2f 56 5d bd 1f a5 3b 3d 0a c0 25 be b4 28 a5 be
       -0.05403727 0.04581177 -0.16186538 -0.32257617
0003d0 7b b2 79 be 2f da 00 bf 18 8b 46 3e a6 53 9b be
       -0.24384491 -0.5033292 0.19388998 -0.30337256
0003e0 24 8d 1d be 25 f0 f2 3d 21 b0 b3 bd 5e b0 d4 be
       -0.15385872 0.1186221 -0.08773828 -0.41540807
0003f0 f2 ed ad be 43 5b 8f bd 20 b1 33 be 08 fb 12 bf
       -0.339706 -0.06999829 -0.17548037 -0.57414293

fc1.bias f4 [256]
000000 fa bf 32 3e 66 3e 85 be 17 0b 8a 3e 1e 4a 52 bd
       0.17456046 -0.2602417 0.26961586 -0.051340215
000010 8d d0 5a 3e 09 72 5a be 1b ec b3 3e 0e df 8e bd
       0.21368618 -0.21332563 0.35141072 -0.06976138
000020 ff 49 18 3e 10 8c b4 3d 72 26 8c 3d 1a 26 5a be
       0.14871977 0.08815777 0.0684327 -0.21303597
000030 c2 db 66 3e 2b e6 d9 3d 2a b8 ee bd d2 2b 11 bd
       0.22544768 0.10639604 -0.1165622 -0.03544218
000040 0e a6 63 be 6e 3f 62 be d9 1d 76 be ed 5b 7b 3e
       -0.22231314 -0.22094509 -0.24034823 0.24546786
000050 4f 33 88 3e 47 d2 6b be fe 28 88 be 0c 94 8d 3d
       0.26601645 -0.23029433 -0.26593775 0.06913003
000060 26 35 20 3d a0 0e 92 3e 9a 70 a0 be 86 fe b8 be
       0.039113186 0.28526783 -0.31335908 -0.36131686
000070 17 4a 24 be 9a fd 91 be 61 26 84 be 07 3c a8 be
       -0.16043888 -0.28513795 -0.2581053 -0.32858297
000080 a0 42 f4 bd 8b 58 13 be 2d 4c eb bd d6 fe 28 be
       -0.1192677 -0.14389245 -0.11489139 -0.16503462
000090 e4 78 8b 3e 80 12 84 3e 1c 0a 9b be cf 1e 50 be
       0.2724067 0.25795364 -0.3028115 -0.20324253
0000a0 ff 9e 6a 3e 50 3a cc 3d a1 90 54 3e c6 53 2b 3e
       0.22912215 0.0997206 0.20758297 0.16731176
0000b0 8a 92 5b be 65 48 ad be 41 2f 8a 3d 50 dd af be
       -0.21442619 -0.33844295 0.06747294 -0.34348536
0000c0 69 27 bc 3d 69 94 1a 3e dd aa 9f be 3a 2d 38 3e
       0.091872044 0.15095676 -0.31185046 0.17986003
0000d0 47 3b 88 3e d3 37 91 bd 46 41 8e 3e 20 24 89 3d
       0.26607725 -0.07090726 0.27784175 0.066963434
0000e0 df 02 b5 3d cb 5d ec bc 33 bc 10 3e e7 4e af 3e
       0.08838438 -0.028853318 0.14134292 0.34239885
0000f0 ff 52 19 bd 3f f2 ae be 72 b9 76 be 1a d7 af be
       -0.037432667 -0.34169194 -0.2409418 -0.34343797
000100 7f 1a 27 be ab 70 91 3d 82 db 17 be 07 34 ab 3e
       -0.16318701 0.07101568 -0.1482983 0.3343813
000110 af 6a 38 bc 16 2a 23 3e 93 37 00 be 22 51 49 bc
       -0.011255904 0.15934023 -0.125212 -0.01228741
000120 00 27 e4 3d c4 84 90 3e 1c e4 60 be ac ac 06 3e
       0.11140251 0.28226292 -0.21962017 0.13151807
000130 ff 82 47 be e2 bf 8f be d1 8d c6 bc cb c8 a3 bd
       -0.19483565 -0.28076082 -0.024237545 -0.079972826
000140 b4 48 61 be 48 a9 e9 bb 25 04 58 3e 4c 04 4d be
       -0.2200039 -0.0071307756 0.21095331 -0.2002117
000150 ef cd 1d bd 23 13 95 be 22 7e 5c 3e 22 b7 f5 bc
       -0.03852647 -0.29116163 0.21532491 -0.029994551
000160 74 0f 2a bd e3 24 42 be 9c 98 51 3e 24 fd 79 bd
       -0.041518643 -0.18959384 0.20468372 -0.06103243
000170 83 29 6f 3e 3d a1 dd 3a 23 14 d3 bd aa 06 13 3e
       0.23355679 0.0016909015 -0.10306575 0.14358011
000180 6e bd ed 3d b6 59 a1 bd 25 23 8f be fc c6 14 bd
       0.116083965 -0.07878439 -0.279565 -0.03632258
000190 a7 9c dc bd fd ac 53 3e fe 1f 9e bd 13 96 40 3e
       -0.107720666 0.20671459 -0.07720946 0.18807249
0001a0 02 a2 42 3e 2f 8b 39 3e 63 fe 6d be 3e 3c 96 be
       0.19007114 0.181195 -0.23241572 -0.29342836
0001b0 1d c0 ad 3e 3e 4a c1 3c 42 66 fc 3b c0 4b 87 3e
       0.33935633 0.023594972 0.00770262 0.2642498
0001c0 a0 d5 15 3e db e7 24 3e 06 58 b4 bc b4 6a 5d be
       0.14632273 0.16104071 -0.02201463 -0.21622735
0001d0 89 9b 40 3e 93 c1 7c be 89 a7 8c be 4c 9c 8c be
       0.18809332 -0.24683218 -0.2747157 -0.27462995
0001e0 8d c2 aa 3e 1a e2 26 3b f5 2b 1f 3e 5c 09 67 3e
       0.33351555 0.0025464357 0.15544112 0.22562164
0001f0 a9 21 e8 bd d4 af 47 3e d6 e1 29 be 38 d9 62 3e
       -0.11334545 0.19500667 -0.16590056 0.22153175
000200 4a 1d 93 be 50 e0 62 3e 81 c1 31 bd df f2 93 3e
       -0.28733283 0.22155881 -0.04339743 0.28896233
000210 19 01 45 3d 03 20 e3 bc bf 2b 42 be 81 43 14 3e
       0.04809675 -0.027725225 -0.18962 0.14478876
000220 b4 34 aa 3e 61 eb db 3d 98 0c 43 bd 02 d7 c4 bd
       0.33243334 0.10738254 -0.047619432 -0.09611322
000230 d4 eb 65 bd 52 88 54 3e 85 cd a2 be 61 09 12 be
       -0.056133106 0.20755127 -0.31797424 -0.1426139
000240 24 4a 9f be 27 42 f7 bc e2 32 25 be bc c7 89 bd
       -0.31111252 -0.030182911 -0.16132692 -0.067275494
000250 35 e9 24 be 92 dd 24 3e 38 0d b5 be 42 fd 49 3e
       -0.16104586 0.16100147 -0.35361648 0.19725516
000260 70 e1 84 be 99 96 0f 3e 1f c6 84 bc 3c 77 0e 3d
       -0.25953245 0.14022292 -0.016207753 0.03478168
000270 40 05 b2 bd 39 a4 da bd 39 d0 a1 3e 2a 61 ed 3c
       -0.086924076 -0.10675854 0.31604174 0.028976995
000280 a6 5b 5c be 3b bf 69 3d 96 16 6f be e2 b3 52 3e
       -0.21519336 0.057067137 -0.2334846 0.20576432
000290 a9 96 b4 bd 18 4e 03 3e aa 38 ef 3d c4 71 a3 3e
       -0.08817799 0.12822759 0.1168073 0.31922734
0002a0 21 82 4f be 4c 19 92 3b a6 20 a5 be f2 2b 2c 3e
       -0.20264484 0.004458582 -0.3225147 0.16813639
0002b0 9d fe 9e be 16 07 96 be 51 c0 a5 3e 5a 54 1d 3e
       -0.3105363 -0.2930228 0.32373288 0.15364209
0002c0 41 24 87 be 7d 13 a2 3e 95 fe 78 3c 04 e5 f9 bd
       -0.26394847 0.31655493 0.015197416 -0.122018844
0002d0 a7 1c 68 be 2f 78 00 3d 68 c2 35 bd 14 a3 d1 bd
       -0.2266718 0.031364616 -0.044374853 -0.10236183
0002e0 d3 fc a9 be cd ff 75 3b b4 a6 1f 3e 6c 85 8d be
       -0.33200702 0.0037536502 0.15590936 -0.27640855
0002f0 bd d5 64 be 13 ea 72 3e 58 ed 24 bd 6b 78 80 3e
       -0.2234716 0.23722105 -0.04026541 0.25091872
000300 31 4b 81 3d 4b e5 ef bd 5b b1 87 3e d0 dd 8a be
       0.0631317 -0.11713656 0.265025 -0.27122355
000310 d8 8e 03 3e 72 27 85 3a 9a f5 63 bd 04 36 5d be
       0.1284746 0.001015885 -0.055654146 -0.21602637
000320 6d a1 d6 bc 97 62 51 be ac f7 5e be 09 08 1b be
       -0.02620002 -0.20447765 -0.21774167 -0.15139784
000330 fd d8 34 3e c5 3e c1 3d 9f 4d d5 bd d6 07 19 3e
       0.176609 0.094358005 -0.10415196 0.14944395
000340 b5 ca 65 3a 7a 13 88 bd 58 e1 67 bd 58 6c 93 bd
       0.00087658624 -0.0664434 -0.05661139 -0.07198399
000350 33 b6 ad 3e 36 91 ad b9 52 68 a1 be e7 2c ab be
       0.3392807 -0.00033105322 -0.31524903 -0.33432695
000360 88 5e b5 3c 50 8c 97 be 7f 62 59 3e fc d7 e0 3b
       0.022139803 -0.29599237 0.2122898 0.006861685
000370 87 ee b1 3e 02 0e 14 3e 1d 19 b5 bd 85 14 d9 bd
       0.34752294 0.14458469 -0.088426806 -0.10599617
000380 1b 0d bf bd c9 11 ad 3e bb 23 f6 bd 98 e1 91 3d
       -0.093286715 0.33802631 -0.12018534 0.07123107
000390 61 bf 8b 3e ad 95 ac 3d 80 79 91 3d 48 22 05 be
       0.27294448 0.08426986 0.071032524 -0.13001359
0003a0 3e 28 80 3e e8 0c 29 be 23 29 aa 3e c5 a7 90 3d
       0.25030702 -0.1650883 0.3323451 0.070632495
0003b0 7d 24 01 bd 66 1d 8f 3e d1 d5 1e be 13 71 43 3e
       -0.03152894 0.27952117 -0.15511252 0.19086103
0003c0 e5 48 9b be 5f 3e 42 3e 61 19 27 be 34 38 68 bc
       -0.30329052 0.18969105 -0.16318275 -0.014173556
0003d0 cb 02 b5 be a9 95 a2 be 24 55 a7 bc 8e db 70 3e
       -0.35353693 -0.31754807 -0.02042634 0.23521253
0003e0 65 f6 65 be 47 60 52 be 3b a9 5c be 20 1b bd bd
       -0.22457273 -0.2054454 -0.21548931 -0.09233689
0003f0 16 64 94 3d 94 a3 80 3e 9c ea 62 be 50 c9 b6 3c
       0.072456524 0.251248 -0.22159809 0.02231279

bn1.weight f4 [256]
000000 9b 9b 71 3f a6 9c 6a 3f 7f e8 62 3f 9b 70 7f 3f
       0.9437806 0.91645277 0.8863601 0.997812
000010 b8 18 86 3f 8d 32 97 3f 0a fe 87 3f 4c 30 74 3f
       1.0476294 1.1812302 1.0624402 0.95386195
000020 bf 57 84 3f e3 d1 71 3f 2a 6e 70 3f 69 96 63 3f
       1.0339278 0.94460887 0.93918097 0.8890138
000030 7a f4 96 3f d1 43 92 3f bf 3a a5 3f a4 70 75 3f
       1.1793358 1.1426946 1.2908553 0.95875
000040 49 ba 66 3f de 10 6f 3f b5 ca 5e 3f c9 34 65 3f
       0.90128 0.9338511 0.87028056 0.8953367
000050 a7 4f 6d 3f 11 13 69 3f f9 3d 6e 3f 01 ef 62 3f
       0.92699665 0.9104472 0.9306331 0.8864594
000060 e1 b1 60 3f 1c 14 73 3f b1 1f 71 3f 1b 92 9d 3f
       0.8777142 0.9495256 0.9418898 1.2310213
000070 e9 38 8d 3f 1d ee 62 3f 54 98 8b 3f 6c b0 6f 3f
       1.1032993 0.8864458 1.0905862 0.93628573
000080 92 31 5f 3f de 8d 91 3f 98 81 71 3f 6c fc 71 3f
       0.87185013 1.137142 0.9433837 0.9452579
000090 1b ac 62 3f 9c 3e a0 3f 95 ec 82 3f 02 b5 6e 3f
       0.8854386 1.2519107 1.0228449 0.93244946
0000a0 bb fd 6b 3f 72 c2 73 3f 2a a0 86 3f f8 22 78 3f
       0.92184037 0.95218575 1.0517628 0.9692836
0000b0 67 52 86 3f fc 38 58 3f 62 3c 90 3f 0e d7 67 3f
       1.0493897 0.8446195 1.1268427 0.9056252
0000c0 ed 0a 61 3f 38 1b 5e 3f 20 c6 8e 3f 9c 54 86 3f
       0.87907296 0.8676028 1.1154213 1.0494571
0000d0 63 6a 59 3f ce c3 6f 3f 1e d1 57 3f f8 ff 69 3f
       0.8492796 0.9365815 0.8430346 0.914062
0000e0 04 d0 8a 3f c6 e1 8e 3f 9b fa 6c 3f a9 ce 56 3f
       1.0844731 1.116265 0.92569894 0.8390909
0000f0 bd 52 66 3f b9 9d 61 3f d4 5a 9a 3f 14 72 61 3f
       0.8997 0.8813129 1.2058969 0.88064694
000100 84 e3 89 3f ab 1f 8e 3f f9 a7 6b 3f 5d 1d 7e 3f
       1.0772557 1.1103414 0.9205318 0.99263555
000110 01 7e 89 3f 1d c5 7d 3f 28 d8 80 3f 0b ed 81 3f
       1.0741578 0.99128896 1.0065966 1.0150465
000120 de 01 78 3f 70 c9 83 3f 28 91 61 3f ee 35 82 3f
       0.9687785 1.0295849 0.88112116 1.0172708
000130 11 d1 6a 3f 5d 18 91 3f 3c ef 6f 3f e3 ae 69 3f
       0.9172526 1.133556 0.9372442 0.9128248
000140 ea 2d 7e 3f 54 c6 81 3f c0 30 89 3f d9 82 9a 3f
       0.9928881 1.013865 1.0718002 1.2071182
000150 9c 46 82 3f b0 fb 6b 3f a3 77 85 3f 91 5e 98 3f
       1.0177798 0.9218092 1.0427135 1.1903859
000160 a7 38 81 3f 70 16 5f 3f f8 ac 77 3f d1 8c 90 3f
       1.0095414 0.8714361 0.96748304 1.1292974
000170 a1 b3 8f 3f 45 f8 81 3f 72 ef 74 3f 08 49 75 3f
       1.1226693 1.0153891 0.95677865 0.9581456
000180 67 88 84 3f d7 83 62 3f ba 92 6f 3f 4c c6 75 3f
       1.0354127 0.8848242 0.9358326 0.960057
000190 01 d8 79 3f 4b c3 9b 3f dc 9d 6f 3f 1e 01 5b 3f
       0.9759522 1.2168974 0.9360025 0.8554858
0001a0 16 9d 72 3f 8d ff 8b 3f 1b 36 6c 3f 0f be 60 3f
       0.94770944 1.0937363 0.9227006 0.87790006
0001b0 2f 31 62 3f 3c e6 70 3f 5e ba 6f 3f 85 a1 7d 3f
       0.883563 0.9410131 0.9364375 0.99074584
0001c0 c5 f3 67 3f 31 17 6f 3f 51 97 9b 3f 62 47 72 3f
       0.9060634 0.9339476 1.2155553 0.9464017
0001d0 bd c7 85 3f ec 25 7b 3f c2 60 82 3f 0c 94 66 3f
       1.045158 0.9810474 1.0185778 0.9006965
0001e0 6a 81 70 3f 15 c8 84 3f 2d 85 67 3f 4c 00 7c 3f
       0.9394747 1.037356 0.90437585 0.98437953
0001f0 b8 02 6c 3f ec ca 74 3f 67 a3 68 3f b0 01 5b 3f
       0.9219165 0.95622134 0.9087433 0.8554945
000200 b6 19 9c 3f 2b 10 76 3f 05 5c 72 3f 93 c0 93 3f
       1.2195346 0.9611842 0.9467166 1.1543144
000210 60 14 84 3f e5 6b 66 3f 11 42 60 3f 19 f4 73 3f
       1.0318718 0.90008384 0.8760081 0.9529434
000220 47 47 7b 3f 8d 3e 76 3f af 58 74 3f 8e 27 6d 3f
       0.98155636 0.96189195 0.9544782 0.9263848
000230 c4 fc 87 3f ad 9c 5b 3f 11 ab 6a 3f d8 3a 64 3f
       1.0624013 0.85785943 0.91667277 0.8915229
000240 ff b3 81 3f bf 78 81 3f f0 c4 66 3f b4 3e 6e 3f
       1.0133055 1.0114974 0.9014425 0.9306443
000250 ea 35 8c 3f 83 4b 9d 3f ca cd 63 3f c3 b5 85 3f
       1.0953953 1.2288669 0.88985884 1.0446094
000260 74 ea 6c 3f d7 64 87 3f db 21 61 3f 19 1b 83 3f
       0.9254525 1.0577649 0.87942284 1.0242645
000270 fe c4 6d 3f b0 aa 8a 3f 40 41 7a 3f 20 0b 6e 3f
       0.9287871 1.083334 0.97755814 0.92985725
000280 15 07 5c 3f 21 15 5d 3f 33 a2 75 3f ed 07 9f 3f
       0.85948306 0.86360365 0.9595062 1.2424294
000290 50 61 73 3f 86 38 7c 3f 82 fc 7b 3f 67 88 51 3f
       0.9507036 0.9852375 0.9843217 0.8184876
0002a0 76 88 7c 3f 93 72 7c 3f af 8f 7e 3f ac 49 7a 3f
       0.9864572 0.98612326 0.99437994 0.97768664
0002b0 68 a6 68 3f 69 8f 74 3f bd ab 79 3f 06 81 a2 3f
       0.90878916 0.95531327 0.97527677 1.2695625
0002c0 79 56 67 3f 48 d1 79 3f 97 45 82 3f c5 7e 7d 3f
       0.9036632 0.9758496 1.0177487 0.9902156
0002d0 c5 f8 54 3f d5 12 66 3f 2f 02 84 3f df aa 70 3f
       0.8319209 0.89872485 1.0313166 0.9401073
0002e0 3b 7a 62 3f c9 99 96 3f e1 37 a3 3f 36 bd 67 3f
       0.8846776 1.1765682 1.2751428 0.9052309
0002f0 c3 b8 74 3f 49 84 9a 3f c2 4d 69 3f 03 cb 87 3f
       0.95594424 1.207162 0.91134274 1.0608829
000300 a3 b2 76 3f ee 68 a1 3f 2d 82 4a 3f 6b af 6c 3f
       0.9636633 1.2610147 0.7910488 0.92455167
000310 cf c8 95 3f 37 59 77 3f 6b d8 65 3f c4 b4 74 3f
       1.1701907 0.96620506 0.8978335 0.95588326
000320 eb f1 5d 3f a6 89 9d 3f 8d 5e 7a 3f 71 8e 6f 3f
       0.8669726 1.2307632 0.97800523 0.93576723
000330 82 20 6f 3f b5 42 72 3f 7b f4 80 3f 06 44 6c 3f
       0.9340898 0.94633037 1.007461 0.92291296
000340 d5 98 6c 3f 40 d5 76 3f 5a 69 88 3f a3 e1 8d 3f
       0.92420703 0.96419144 1.0657151 1.1084484
000350 e2 57 70 3f 10 f3 81 3f 00 cc 76 3f ea 71 7b 3f
       0.938841 1.0152302 0.9640503 0.98220694
000360 9a ed 5e 3f e3 59 5a 3f 31 14 5e 3f c9 e7 70 3f
       0.870813 0.85293406 0.8674956 0.94103676
000370 cd f2 6b 3f 03 61 6f 3f 36 3e 64 3f 7c 46 71 3f
       0.9216736 0.93507403 0.89157426 0.94248176
000380 2d 2e 75 3f 04 97 81 3f f5 df 76 3f 82 f7 65 3f
       0.95773584 1.0124211 0.9643548 0.8983079
000390 7c 35 83 3f 55 97 59 3f 4b 98 70 3f e3 1b 6a 3f
       1.0250697 0.8499654 0.9398238 0.914488
0003a0 7a 12 77 3f 1b 61 7d 3f 7d a3 6b 3f 4e c2 7b 3f
       0.9651257 0.98976296 0.9204634 0.9834336
0003b0 dc 11 77 3f 48 31 88 3f 92 47 7d 3f 69 01 89 3f
       0.96511626 1.064004 0.9893733 1.0703555
0003c0 96 be 7a 3f fd 9d 6b 3f 8f e7 85 3f 0e ef 68 3f
       0.9794706 0.92037946 1.0461291 0.9098977
0003d0 ee 17 5a 3f 7b 84 8b 3f 40 b2 68 3f 9f a9 84 3f
       0.85192764 1.0899805 0.9089699 1.0364264
0003e0 94 f9 72 3f ea b6 6c 3f ea 74 69 3f 6e 64 91 3f
       0.94912076 0.92466605 0.9119402 1.1358774
0003f0 d5 83 9c 3f b3 ab 88 3f 60 21 8c 3f cb c4 5c 3f
       1.2227732 1.0677398 1.0947685 0.8623778

bn1.bias f4 [256]
000000 14 50 e0 bd 05 06 59 be a5 5e 8a bd d1 a5 d0 bd
       -0.10952774 -0.21193703 -0.06756333 -0.10187877
000010 78 04 04 be d6 3b 15 be 0d e2 12 be 1b d5 26 bc
       -0.1289233 -0.14573607 -0.14344044 -0.010182644
000020 f7 a2 c5 bd 9c ae fa bd b2 1d c8 bd 7e a4 02 be
       -0.09650224 -0.12240335 -0.09771289 -0.12758061
000030 42 b1 13 be 61 e6 41 bd c8 c1 4a be 71 b5 47 be
       -0.14423087 -0.047338847 -0.19800484 -0.19502808
000040 15 86 e9 bc b9 22 17 be 23 c5 e8 bd 7e f7 24 be
       -0.028506318 -0.1475934 -0.11365726 -0.16110036
000050 09 56 96 bc 0c 8d 29 be 4c ad 55 be 6d 94 03 be
       -0.018351572 -0.16557711 -0.20866889 -0.12849589
000060 c4 e6 4f bd 9f 42 26 be 79 de 6a bd 19 67 db bd
       -0.050757185 -0.16236351 -0.057341073 -0.10713024
000070 6d 4b 74 be de f9 b9 bc 21 e7 cc 3b 74 74 82 bd
       -0.23856898 -0.022702154 0.0062531387 -0.06369868
000080 9e da 19 be da 03 a4 bd 75 c7 4b bc 56 ff 18 be
       -0.15024802 -0.08008547 -0.012437691 -0.14941153
000090 68 19 4c be 59 b2 06 be 3d 83 7f bd 25 ef c8 bd
       -0.19931567 -0.13153972 -0.062381018 -0.09811238
0000a0 9c 76 9e bd d2 62 3e bd f7 7e 40 3d c0 5f 1a be
       -0.07737467 -0.04648096 0.046996083 -0.15075588
0000b0 81 05 a1 3d c8 63 0b be 63 5e 04 3e 82 2e 06 be
       0.07862378 -0.13612282 0.1292663 -0.13103679
0000c0 45 10 6b bd 73 65 30 be 3c a5 00 be 34 50 78 3b
       -0.057388563 -0.172262 -0.12563032 0.0037889602
0000d0 18 ed 16 be af cb f0 bd 0d 62 8c be 3e 0d 05 bd
       -0.14738882 -0.117575996 -0.27418557 -0.03248333
0000e0 cd 38 ed bd d7 d6 63 bd 7f 86 6a bd cc 1b 03 be
       -0.115830995 -0.05562481 -0.05725717 -0.12803572
0000f0 a2 17 a8 bc 9e 49 0d be 64 70 58 be 81 f9 62 be
       -0.020519082 -0.13797614 -0.21136624 -0.2216549
000100 0d 3f fd bd 6a c0 b3 bd ff 37 b2 bd e1 89 92 bc
       -0.123655416 -0.087769344 -0.08702087 -0.017888011
000110 02 af 55 bd 5e a5 0d be 2e e6 11 3e a2 c8 24 be
       -0.052168854 -0.13832614 0.14247963 -0.1609216
000120 1c 97 ae bd 2a ce 91 bd a0 91 db bd 1e d7 bd bd
       -0.085249156 -0.07119401 -0.10721135 -0.09269546
000130 76 45 01 be 81 3a 10 be 1e 7b 12 be a8 0a 59 be
       -0.12624153 -0.14084817 -0.14304778 -0.21195471
000140 53 28 84 bd 84 2a d7 bd 0d 2d 2d be 22 39 c8 bd
       -0.06453004 -0.10506156 -0.16911717 -0.09776522
000150 da 33 2e be b5 5a 64 3e de 9f d8 bd f9 62 32 bd
       -0.17011967 0.22300227 -0.10577367 -0.04355142
000160 7d 0d a3 bd 5e 0d bd bd 82 fc 33 be 26 87 37 bd
       -0.07961557 -0.09231065 -0.17576793 -0.044806622
000170 ab c6 4e 3c 25 3a 11 bd 66 38 d8 3c 29 41 c8 bd
       0.012620608 -0.03545584 0.02639408 -0.09778053
000180 c7 7f dc bc 1a 76 30 be e6 13 5b be 7f 87 ce bd
       -0.026916398 -0.17232552 -0.2139431 -0.100844376
000190 08 73 b5 bd 42 16 72 be fe e0 86 bd d1 73 d2 bd
       -0.08859831 -0.23641303 -0.065858826 -0.102759965
0001a0 ae 44 14 be d8 f9 50 bd a1 10 26 be 79 ae 73 be
       -0.14479324 -0.05101952 -0.16217281 -0.23797025
0001b0 31 11 23 be 27 e4 89 bd c9 e0 12 be f0 e0 10 be
       -0.15924527 -0.0673297 -0.14343561 -0.14148307
0001c0 aa 35 03 be 54 17 47 be 0b e3 3c be f6 dc a9 bd
       -0.1281344 -0.19442493 -0.18445985 -0.08294098
0001d0 13 d6 85 bd ec eb 56 be f9 ed f9 bd 03 87 82 bd
       -0.06534972 -0.20988435 -0.12203593 -0.06373408
0001e0 1f ee e3 bd 10 44 38 be ad 1e 24 be 0f a2 0e be
       -0.11129402 -0.17994714 -0.16027327 -0.13929008
0001f0 24 86 04 be 2c 5b da bc d1 2a 14 be 3b 63 fe bd
       -0.12941796 -0.026654802 -0.14469458 -0.124212705
000200 48 01 0d 3c 61 98 f5 bd 56 ee 0d be c0 0d 6a be
       0.0086062625 -0.119919546 -0.13860449 -0.22856808
000210 85 21 a2 bd 10 86 20 be bb 9e 32 be d0 eb 46 3d
       -0.079165496 -0.15676141 -0.17443363 0.048564732
000220 c5 bc 89 bd 67 73 20 be c2 f3 e2 bd ed 62 01 be
       -0.06725458 -0.15669023 -0.11081649 -0.12635393
000230 09 ba 01 3e 31 ce 0b be b3 f9 90 bd 8b 30 24 be
       0.12668623 -0.13652875 -0.07078876 -0.16034143
000240 c7 fc 68 bd b8 2c 1d 3d e3 e9 4e be 0d aa 06 3d
       -0.056881692 0.038372725 -0.20206408 0.032877017
000250 6e 58 86 bd 80 6c 13 be 03 16 9f bd 50 ab c2 3d
       -0.065598354 -0.14396858 -0.0776787 0.095053315
000260 d7 24 08 bd 60 c5 02 be 90 f5 a5 bd 69 c9 74 3d
       -0.03323826 -0.12770605 -0.08103478 0.059762392
000270 c9 7a 49 be f6 f3 21 bd 10 82 51 bc dd b2 c5 bd
       -0.19675745 -0.0395393 -0.012787357 -0.09653256
000280 7f 00 98 bd 3b be 50 bb c0 25 0c be da 48 33 be
       -0.074219696 -0.0031851667 -0.13686275 -0.1750826
000290 ba a7 c0 bd 36 4f f0 bd f6 68 e1 bd 8b 3e 4a be
       -0.09406991 -0.11733858 -0.11006348 -0.19750421
0002a0 0b f5 63 bd 52 7c af bc 82 8e 14 be 55 86 fb bc
       -0.055653613 -0.021421585 -0.14507487 -0.030703703
0002b0 4d f8 4e be c1 44 eb bd 74 ec ce bd 24 75 1b be
       -0.20211907 -0.11487723 -0.101036936 -0.15181404
0002c0 5e d4 0a be 54 36 f5 bd 58 6e ef bc 6f 99 65 be
       -0.13557574 -0.11973253 -0.02922742 -0.22421812
0002d0 57 31 36 be 86 83 b3 bd c6 0e 13 be 9a f0 0b be
       -0.17792259 -0.087653205 -0.14361104 -0.13666001
0002e0 b7 26 a5 be 60 41 44 be 59 a3 0c be 73 a4 b5 bd
       -0.322561 -0.19165564 -0.13734187 -0.08869257
0002f0 dd ce 09 be 0e 92 f7 bd aa c0 31 be 1c 6c c6 bd
       -0.13457818 -0.120884046 -0.17358652 -0.09688589
000300 45 c9 59 be c8 35 5c be e0 58 90 bd a1 15 07 be
       -0.21268184 -0.21504891 -0.070482016 -0.13191845
000310 25 46 1f bd 5f a3 75 be dc 76 af bd cb 12 b7 bd
       -0.038885254 -0.23988102 -0.085675925 -0.08939131
000320 e4 d1 f2 bd 9a 70 71 bd 64 39 34 be b0 b8 65 bd
       -0.1185644 -0.058945276 -0.17600018 -0.056084335
000330 28 fc 41 bd 74 dc 9b bd e2 62 0a be 4b 26 72 be
       -0.047359616 -0.076104075 -0.13514283 -0.2364742
000340 e6 11 ff bd a1 70 e2 bd 81 71 e3 bd 5b 45 02 be
       -0.12454586 -0.110566385 -0.111056335 -0.1272177
000350 66 e3 17 3d e4 0a df bd 3d 34 e1 bc df 65 c6 bd
       0.0370821 -0.10890749 -0.02749073 -0.09687399
000360 38 ff 00 bd 2f 11 d8 bd c5 83 17 be 4a 9c f0 bd
       -0.031493396 -0.105501525 -0.1479636 -0.1174856
000370 c2 00 17 be f8 96 12 be 65 de 39 be a5 cf de bd
       -0.14746383 -0.14315403 -0.18151243 -0.10879449
000380 01 99 8b bd c3 a7 a3 bd a1 04 c2 bd 21 c7 4a be
       -0.068162926 -0.079909824 -0.09473539 -0.19802524
000390 f6 3b c1 bd 47 49 01 be 64 b9 c5 bd 98 6a 07 bd
       -0.09435265 -0.1262561 -0.09654501 -0.03306064
0003a0 d5 01 84 3c 3d 97 25 be 6a 75 37 be 21 53 96 bd
       0.016114155 -0.16170974 -0.17915884 -0.07340074
0003b0 a6 db 8f bd 89 69 06 be 24 04 10 be ef 8c ea bd
       -0.070243165 -0.13126196 -0.1406408 -0.11452662
0003c0 49 a2 a9 bd 20 21 ce bd fb 48 2a 3c 45 37 a0 bd
       -0.082829066 -0.10064912 0.010393376 -0.07823042
0003d0 56 5b 46 be b9 a6 f3 bd cf 21 c1 bd dc 9c 89 bd
       -0.1937078 -0.11897034 -0.094302766 -0.06719372
0003e0 bd 62 29 be 02 86 dc bd a0 63 27 bd 58 be e6 bd
       -0.16541572 -0.107677475 -0.040866494 -0.11266774
0003f0 ec 25 2f be a0 9f df bd 24 d4 98 bd 12 ad 9d bd
       -0.1710431 -0.10919118 -0.074623376 -0.07699026

bn1.running_mean f4 [256]
000000 4e 7f 25 3e 16 3a 5f be 6f 40 a0 3e b7 7a 66 bc
       0.16161844 -0.21799502 0.3129916 -0.014067343
000010 69 36 6c 3e 7a 5a 31 be 35 ab bd 3e 18 b7 c8 bd
       0.23067631 -0.1731967 0.37044683 -0.09800547
000020 c4 dd f2 3d d7 03 e3 3d 9c 83 9c 3d f0 49 8a be
       0.11858705 0.11084717 0.0764229 -0.27009535
000030 93 87 81 3e 45 15 fe 3d b2 ef f8 bd 1e ab 06 bd
       0.25298747 0.124064006 -0.12155093 -0.032878034
000040 61 fc 2f be f9 33 35 be 85 53 8d be 91 67 49 3e
       -0.17186119 -0.17695607 -0.27602783 0.19668414
000050 5d 27 84 3e 26 a3 34 be 07 24 a0 be 32 f1 98 3d
       0.25811282 -0.17640361 -0.31277487 0.07467879
000060 1e f8 40 3d 96 43 a9 3e ca 23 a7 be 7a b0 af be
       0.047111623 0.33059376 -0.32644492 -0.34314328
000070 47 e7 33 be 26 26 8c be 5c b0 82 be 9a d6 a4 be
       -0.17568694 -0.27372855 -0.25525177 -0.32194978
000080 c4 d1 33 be b9 25 fd bd 78 d1 34 be 15 92 26 be
       -0.17560488 -0.12360711 -0.17658031 -0.16266663
000090 f2 a9 81 3e 3c 12 9d 3e e6 96 8b be 18 96 36 be
       0.2532497 0.30677974 -0.27263564 -0.17830694
0000a0 d6 5f 3c 3e 4f 68 6c 3d aa bc 42 3e 06 df 35 3e
       0.18395934 0.057716664 0.19017282 0.17760858
0000b0 56 6a 8a be 3b ec aa be 6a 8e 4a 3d 50 3d af be
       -0.27034253 -0.33383355 0.049452223 -0.34226465
0000c0 20 08 11 3e 89 ec 16 3e 6c b7 a7 be f6 c4 39 3e
       0.14163256 0.14738669 -0.32757127 0.18141541
0000d0 f5 c7 8e 3e a8 2b 5a bc 43 73 5f 3e eb 85 10 3e
       0.2788693 -0.0133160725 0.21821313 0.14113586
0000e0 ba 4d 6e 3d 85 88 39 bd da f2 17 3e 15 c7 9f 3e
       0.058179595 -0.04529621 0.14838734 0.31206575
0000f0 c9 a0 31 bd 33 f2 c1 be 07 d6 87 be 45 13 b8 be
       -0.043366227 -0.37880096 -0.26530477 -0.359522
000100 52 ad 39 be 59 2a 95 3d 36 9f fb bd 36 45 b0 3e
       -0.18132523 0.07283468 -0.122862265 0.34427804
000110 b1 6f 92 bc 12 69 5f 3e e1 d1 d6 bd fd c2 99 3d
       -0.017875524 0.21817425 -0.1048925 0.07507894
000120 da 5a f2 3d 43 2b 8f 3e 37 c9 61 be 43 c6 2f 3e
       0.11833735 0.27962694 -0.22049414 0.17165475
000130 e0 e5 6b be 68 53 85 be cd 8b 12 3d 44 e3 9d bd
       -0.23036909 -0.26040196 0.035777856 -0.07709363
000140 48 38 78 be 90 8f 63 bd a1 46 4a 3e 17 9c 26 be
       -0.2424022 -0.055556834 0.19753505 -0.16270481
000150 32 ab 1e 3c 16 f3 a1 be 2c f4 61 3e 10 42 69 3c
       0.009684371 -0.31630772 0.220658 0.014236942
000160 5d 49 15 3c 73 1b 31 be 24 57 0f 3e 72 2e 53 bd
       0.009111729 -0.17295627 0.13998085 -0.051557966
000170 db 45 56 3e 54 5b f8 3c f0 54 cc bd f2 d0 57 3e
       0.20925085 0.030316986 -0.09977138 0.210758
000180 eb 19 dc 3d f1 a9 86 bc 2c d2 62 be 68 68 22 bd
       0.10747131 -0.016438456 -0.22150487 -0.03965035
000190 b5 81 86 bd 3f a8 4c 3e 2d 4a f5 bd a7 5b 6d 3e
       -0.065677084 0.19986056 -0.119770385 0.23179494
0001a0 37 0e 4e 3e f6 32 55 3e cb ea 74 be 9a ac 9e be
       0.2012261 0.20820221 -0.23917691 -0.3099106
0001b0 e5 89 a0 3e 72 18 f4 3c b4 2c 12 3d 0e 11 a6 3e
       0.31355205 0.029796813 0.035687163 0.32434887
0001c0 20 ff 14 3e fd 63 0a 3e 54 65 8a 3b e5 46 59 be
       0.14550447 0.13514705 0.004223505 -0.2121845
0001d0 98 65 7c 3e f0 dc 4a be b6 84 76 be 0f 3f a7 be
       0.2464813 -0.19810843 -0.24074063 -0.32665297
0001e0 15 f6 b8 3e a5 f1 9b 3d 86 cd 32 3e 02 db 92 3e
       0.36125246 0.076144494 0.17461213 0.28682715
0001f0 e9 4f 13 be 61 e3 13 3e 92 0b 14 be 2f 56 80 3e
       -0.14385952 0.14442207 -0.14457539 0.25065753
000200 4e c0 94 be d7 77 3d 3e 98 29 9c 3c 70 1b 8c 3e
       -0.29052967 0.18502747 0.019062802 0.27364683
000210 d2 c2 77 3d ff 96 bd 3c 79 90 6a be d9 48 ee 3d
       0.06048853 0.02314329 -0.22906674 0.11634988
000220 34 74 a6 3e ac 59 e2 3d 72 6d 1a 3c ac a9 d3 bd
       0.3251053 0.1105226 0.009425508 -0.10335097
000230 3e 8e ab bd 49 c8 4d 3e 92 dc ae be 30 c4 51 be
       -0.0837674 0.20095934 -0.34152657 -0.20484996
000240 e7 9d 82 be f1 57 6a bd 5d 59 3a be c0 39 b4 bd
       -0.25511095 -0.057212774 -0.18198152 -0.088000774
000250 9e 22 5b be 30 25 1c 3e 3b a2 b3 be a7 b6 46 3e
       -0.21399924 0.15248561 -0.3508471 0.19405614
000260 4c bb 9c be 6b 13 2e 3e 0a 97 0b bc 37 ef 8b 3d
       -0.30611646 0.16999595 -0.008519897 0.06832736
000270 e8 be 4a bd 85 2a f8 bd a7 bf 8f 3e 86 88 1a bc
       -0.04949847 -0.12117485 0.28075907 -0.009431964
000280 22 ea 36 be 1e f1 90 3d 73 e2 34 be f2 2a 82 3e
       -0.17862752 0.070772395 -0.17664509 0.2542339
000290 76 26 22 bd 5b 84 3c 3e 07 e7 b0 3d 7c 7c a0 3e
       -0.03958746 0.18409865 0.08637815 0.31344974
0002a0 a7 51 24 be 50 51 1b ba ec 8f 78 be 15 28 02 3e
       -0.16046773 -0.0005924897 -0.24273652 0.12710603
0002b0 58 3c ac be 14 5f 8a be 72 65 b9 3e c0 a1 49 3e
       -0.3363979 -0.27025664 0.3621021 0.19690609
0002c0 eb cb 9a be a5 eb bc 3e ac d6 1e bc 91 ee df bd
       -0.30233702 0.36898533 -0.009694736 -0.10934175
0002d0 ca b8 4d be 43 85 39 3d 7e 29 10 bc 05 26 7e bd
       -0.20090023 0.045293104 -0.008798955 -0.062047977
0002e0 80 ac a3 be c5 f0 12 bc e2 0c 16 3e 69 59 98 be
       -0.31967545 -0.008968537 0.14653352 -0.29755715
0002f0 46 31 24 be 84 a9 8c 3e 3c f5 7e bc 05 d8 99 3e
       -0.16034421 0.2747308 -0.015561398 0.30047622
000300 00 2e 6c 3d 5e a2 cf bd 6e 6e 83 3e c9 ad 70 be
       0.057661057 -0.10138391 0.2567019 -0.23503794
000310 5e ac 26 3e 34 f7 85 3c 04 4e c7 bd f5 36 65 be
       0.1627669 0.016353227 -0.09731677 -0.22384246
000320 fa 69 e6 bc 7e b5 2a be 1b cb 31 be 62 77 23 be
       -0.028126705 -0.16670796 -0.17362635 -0.1596351
000330 9a 8d 3d 3e e3 a2 28 3e 79 dc 96 bd eb 9c df 3d
       0.18511048 0.16468386 -0.073662706 0.109186016
000340 23 2c 07 3d 8e 04 a1 bd a3 d3 9d bd d8 d7 d5 bd
       0.033001076 -0.07862197 -0.07706382 -0.104415596
000350 57 aa 9e 3e 1f 6c 82 3d 8f 1f 8e be c5 06 9b be
       0.30989334 0.06368279 -0.27758452 -0.30278602
000360 f5 43 1d 3d de b8 80 be 1b e8 66 3e e0 70 ce 3c
       0.038394887 -0.25141042 0.22549479 0.025200307
000370 9e 21 90 3e b3 1d 44 3e f1 e7 89 bd dc 4c 3d bd
       0.28150648 0.19151954 -0.067336924 -0.046215877
000380 9c 54 ba bd de 72 be 3e ff b5 1f be b9 f8 0b 3d
       -0.09098169 0.37197012 -0.1559677 0.034172747
000390 36 e4 92 3e 25 ab 30 3d fe 2f eb 3d c4 dd 0e be
       0.28689736 0.043131966 0.11483763 -0.13951784
0003a0 6a 52 81 3e 49 5f 25 be 8b 7c c0 3e 9e d1 ee 3d
       0.2525819 -0.1614963 0.3759502 0.11661075
0003b0 e0 9b 9a 39 22 c9 66 3e c0 b5 c7 bd f3 5c 79 3e
       0.00029489305 0.22537664 -0.09751463 0.24351864
0003c0 41 85 9a be 4a 11 59 3e be 65 58 be d4 be 0a bd
       -0.3017979 0.21198002 -0.21132562 -0.033873394
0003d0 2b f0 b6 be d1 84 a7 be 70 ef 28 bc 49 7f 70 3e
       -0.3573011 -0.32718518 -0.010310993 0.23486055
0003e0 a2 8e 2d be 80 d0 5d be 4c 0b 63 be ec 01 e9 bd
       -0.16948941 -0.21661568 -0.22172278 -0.1137732
0003f0 ed 19 b3 3d 9b 46 90 3e ec f7 7d be 3a ff 64 bc
       0.08745179 0.28178868 -0.24801606 -0.013976866

bn1.running_var f4 [256]
000000 ba b3 85 3e 14 25 8f 3e c3 37 59 3e f3 4f 99 3e
       0.26113683 0.27957976 0.21212678 0.2994381
000010 5c e4 68 3e 36 d6 a5 3e 36 4d bb 3e c3 92 16 3e
       0.22743362 0.32389992 0.36582345 0.14704423
000020 f1 b5 28 3e 03 b6 aa 3e 31 82 ca 3e 77 a6 90 3e
       0.16475655 0.3334199 0.39552453 0.28252003
000030 cc 47 bb 3e 40 1f 63 3e a3 c3 7a 3e 40 47 8f 3e
       0.36578214 0.2217989 0.24488692 0.27984047
000040 cc 9c ae 3e 40 f7 81 3e 68 9c ca 3e 0c e5 ae 3e
       0.34104002 0.2538395 0.39572453 0.34159124
000050 3c 4e f5 3d f7 cd 66 3e 92 6e 7b 3e 14 d4 aa 3e
       0.11977813 0.22539507 0.24553898 0.33364928
000060 54 97 7b 3e b8 98 34 3e fe af 00 3f ba 4c b5 3e
       0.24569446 0.17636383 0.5026854 0.354101
000070 40 41 b8 3f a2 3f bd 3e e9 db 77 3f af 5f 0b 40
       1.4394913 0.3696261 0.9681993 2.177715
000080 58 8b 66 3e b8 40 ac 3d 3b 21 77 3f a6 92 0b 3e
       0.22514093 0.084107816 0.9653508 0.1363016
000090 35 81 c4 3d 49 92 f1 3e 52 cb da 3d ac 72 2e 3e
       0.09594957 0.4718192 0.106833115 0.17035931
0000a0 db 36 13 3f ea 40 dd 3d 03 ad b7 3f 01 ca 41 3e
       0.5750558 0.10803397 1.4349674 0.18924715
0000b0 83 fc 4e 3e b1 3f bd 3e cb 68 e4 3d 1d 8b a9 3e
       0.20213513 0.36962655 0.111528 0.33113948
0000c0 b1 e4 a7 3e c2 3f 72 3e 1a 26 88 3f 7f e8 50 3d
       0.32791665 0.23657134 1.0636628 0.051002976
0000d0 87 c8 ea 3e 14 8d 63 3e 45 0b 65 3e 92 e2 1f 3f
       0.45856115 0.22221786 0.2236758 0.62455094
0000e0 19 d5 45 3e 6d 76 a0 3e 18 54 98 3e e8 b2 71 3e
       0.19319572 0.31340352 0.29751658 0.23603404
0000f0 10 95 20 3e 3f 7f c3 3e 31 b8 3a 3f 3b 3e 16 3e
       0.15681863 0.3818302 0.72937304 0.14672177
000100 c0 10 29 3e 23 03 25 3f 19 33 a2 3f da f2 b9 3d
       0.16510296 0.6445791 1.2671844 0.090795234
000110 58 a2 09 40 a9 41 2a 3e 2c e2 fd 3d 31 91 83 3e
       2.1505337 0.1662661 0.123966545 0.2569671
000120 97 fb 2c 3e e4 2c 29 3f 4a 50 ba 3d b1 24 89 3e
       0.16892849 0.6608412 0.09097345 0.26785806
000130 ee 28 41 3e de 3a 62 3f 23 4f f2 3d a1 60 66 3e
       0.1886327 0.88371074 0.118315004 0.22497799
000140 3b c1 87 3e 79 cc 3b 3e 65 24 30 40 21 18 87 3e
       0.2651461 0.18339719 2.7522213 0.26385596
000150 94 f7 27 3f 29 11 21 3e e1 7d c2 3f 40 a4 5d 3e
       0.6561215 0.15729202 1.5194665 0.21644688
000160 93 e9 c8 3f 01 30 c4 3e cc 1a 6e 3e 56 4f f9 3c
       1.5696281 0.38317874 0.2325241 0.030433338
000170 a4 45 bb 3e 0f 8b d9 3d 52 49 72 3c 17 f0 79 3e
       0.3657657 0.106222264 0.014787989 0.24407993
000180 6b 1b 78 3d 48 04 82 3f 32 d8 1c 3e f6 70 8c 3e
       0.060573023 1.0157557 0.15316847 0.27429932
000190 8c ca 63 3f c4 97 1f 3f 8f 76 51 3e f6 90 e5 3e
       0.88980937 0.6234095 0.20455383 0.4483716
0001a0 ea e3 a2 3d a1 b7 f1 3d 3a de 55 3e c5 c2 6d 3e
       0.079536274 0.118026026 0.20885554 0.2321883
0001b0 24 c1 13 3e 43 bd c4 3d bc c5 57 3e 3d 19 3d 3f
       0.14429146 0.09606411 0.21071523 0.73866636
0001c0 98 c8 71 3e 4d 75 bb 3e 62 2b 72 3e d6 1d f4 3e
       0.23611677 0.3661293 0.23649362 0.47679013
0001d0 09 c3 19 3e 05 9c 09 3e f2 6c a1 3e b1 4c 2d 3e
       0.15015806 0.13438423 0.3152843 0.16923787
0001e0 51 1b 59 3e e8 b4 57 3e 7c b2 0f 3f 93 91 48 3e
       0.21201827 0.21065104 0.5613172 0.19586782
0001f0 84 c1 52 3e 7c 52 83 3f 09 52 13 3f c8 b7 67 3e
       0.20581633 1.0259547 0.5754705 0.226287
000200 ee f2 04 3e 3d 2c 3b 3e 62 38 4b 3e 32 4f 60 3f
       0.12983295 0.18278594 0.19845727 0.8762084
000210 ba de 8e 3e 66 7e 43 3e 9e 6a 40 3e 79 6b fd 3d
       0.27904302 0.19091186 0.18790671 0.123740144
000220 b5 d2 e8 3d e7 35 e2 3e 55 f5 4c 3e 94 b5 ec 3e
       0.11368314 0.4418175 0.20015462 0.46232283
000230 0e 25 b6 3e be 6c b2 3e 43 19 cc 3e e9 cf 92 3e
       0.35575145 0.3484859 0.39863023 0.28674248
000240 fc 18 6e 3f 31 d7 d0 3e 92 a5 83 3e 8b 3c 6c 3d
       0.93006873 0.40789178 0.25712258 0.057674926
000250 5a be b2 3e 33 25 7a 3e 4a eb 77 3e 8a 39 ac 3d
       0.34910852 0.24428253 0.2421085 0.08409412
000260 1d eb 83 3e 96 f7 1e 40 9d 73 04 3f 35 da 05 3e
       0.25765315 2.4838614 0.5173891 0.1307152
000270 78 be 4d 3e f2 4e 94 3d e7 81 8b 3d cf 5d 91 3e
       0.2009219 0.0724162 0.06811886 0.28391883
000280 d8 69 0b 3f c5 56 01 3e 31 77 ea 3f 88 24 b9 3e
       0.5445838 0.12630756 1.8317624 0.36160684
000290 db 4d 60 3e ad fd 8e 3e ea a7 05 3f a7 4e 03 3f
       0.219047 0.27927914 0.5220934 0.5129189
0002a0 25 10 78 3e 54 b3 54 3e 5a f8 85 3e 97 02 97 3e
       0.24224909 0.20771533 0.2616604 0.29494163
0002b0 54 eb ee 3e 64 a6 25 40 e3 c3 6d 3e ff 22 c8 3e
       0.46663916 2.5882807 0.23219256 0.390892
0002c0 df fd 8c 3e df 95 a2 3e 35 58 00 3f e3 20 51 3e
       0.27537438 0.31754968 0.50134593 0.20422702
0002d0 c0 0d 58 3e a3 51 bf 3e f2 a6 37 40 12 03 51 3e
       0.21098995 0.3736697 2.8695645 0.20411327
0002e0 08 23 a7 3e 50 6c e7 3e c8 b4 bb 3e cc ea 01 3e
       0.32643914 0.45199823 0.36661363 0.12687224
0002f0 9d df 8d 3e 1b bf 40 3f de 54 b2 3e 65 06 d3 3e
       0.27709666 0.75291604 0.34830374 0.41215816
000300 91 5d 91 3e 42 ab 30 3d 9e 94 61 3e 01 71 88 3e
       0.28391698 0.043132074 0.22029349 0.26648715
000310 33 9d b8 3e 2b 71 05 3e 0c 8b ca 3e 88 92 86 3e
       0.36057433 0.13031451 0.3955921 0.2628367
000320 9c 46 09 3f 85 ff a1 3e 08 d6 98 3f cf 99 b5 3e
       0.53623366 0.31640258 1.1940317 0.3546891
000330 8f 33 63 3e ab 37 a3 3f b6 d3 d6 3d 60 a9 3c 3e
       0.22187637 1.2751364 0.104895994 0.18423986
000340 61 db 91 3e 04 c1 85 3e 73 24 6f 3f 3d ee f1 3f
       0.28487685 0.26123822 0.9341499 1.890083
000350 d4 ef 86 3e 8a ae 27 3e de c2 54 3e 4f b5 85 3e
       0.2635485 0.16375175 0.20777461 0.2611489
000360 b0 ea 6d 3f db 0b 80 3e e2 19 aa 3d be e9 25 3e
       0.9293623 0.25009045 0.08305718 0.16202447
000370 d3 b0 f7 3e 17 a2 66 3e bb a1 79 3e 63 9a a1 3e
       0.48377094 0.2252277 0.24378102 0.315631
000380 1f 99 07 3e 8a cd 81 3d 49 f5 d6 3e a4 5a 5d 3e
       0.13242005 0.063380316 0.41984013 0.21616608
000390 e5 91 c2 3e 8e f7 86 3e 24 bd 1b 3e 37 b1 01 3f
       0.38001934 0.26360744 0.1520887 0.50661033
0003a0 25 33 05 3e 9b 99 f5 3e 0c c4 5a 3e 50 17 c9 3e
       0.13007791 0.47968754 0.21363848 0.392756
0003b0 9a 61 55 3e 4a bb 6b 3e d4 e5 4d 3f 89 00 81 3f
       0.20838013 0.23020664 0.80428815 1.0078288
0003c0 8a c5 6b 3e 26 f7 61 3e ce 06 21 3e 7b e4 90 3d
       0.23024574 0.22066936 0.15725252 0.07074829
0003d0 1f 30 0e 3f 55 66 9b 3f c5 39 84 3e 47 f2 1e 3f
       0.55542177 1.2140604 0.25825325 0.62088436
0003e0 29 c4 8b 3e ab b6 e3 3e 9b 16 f3 3d eb c3 7f 3f
       0.27298096 0.44475302 0.11869546 0.9990832
0003f0 c1 d7 d6 3e 9e d1 19 3f b7 2e 92 3e b6 f1 92 3d
       0.41961482 0.60085475 0.28551266 0.07175009

fc2.weight f4 [128, 256]
000000 43 c6 b2 bd 79 41 89 bd 1a 7d cb bd 11 20 01 be
       -0.08729222 -0.06701941 -0.099359706 -0.12609889
000010 67 5b da 3d a6 4f 91 bd 90 41 15 3d fd e2 12 bd
       0.10661965 -0.0709527 0.03643948 -0.035861004
000020 5d be eb bd 81 dd 70 bd 58 18 92 bd b2 95 9d bc
       -0.11510918 -0.058804993 -0.071335495 -0.01923642
000030 4f 5d 3c 3d 9f c7 01 bd 4d ec bd bd bc 21 bb 3d
       0.045987424 -0.031684514 -0.092735864 0.09137294
000040 ba 64 7f 3d 3e 40 cc 3a ee 68 c0 3b 79 59 82 3c
       0.06235192 0.001558311 0.0058718836 0.015911805
000050 25 30 1d 3d 09 b6 f7 39 0d 3c b3 bd d8 45 db 3c
       0.038375992 0.00047247138 -0.08751688 0.026766703
000060 47 23 80 3d 6f 47 02 3d b2 32 54 bd b7 17 fe ba
       0.062567286 0.031806406 -0.05180616 -0.001938573
000070 9e 1d 6b bc 47 50 57 3d a8 f2 00 bd 6b 31 19 bd
       -0.014350323 0.052566793 -0.031481415 -0.037400644
000080 96 c6 7f 3d b5 32 8b 3c 5f f2 b6 bd 96 9a 08 bd
       0.062445246 0.016991952 -0.08932947 -0.03335055
000090 a8 fa 50 3d 6d 62 94 3d 62 1b d5 bc 5e ac 18 3d
       0.051020294 0.07245336 -0.026014034 0.037273757
0000a0 b7 10 04 3d 0b ba 9f bd fe 74 6d bc 68 32 8d 3d
       0.032242503 -0.07799157 -0.014493225 0.0689438
0000b0 f7 98 6b bd 3f 09 10 3d 17 35 94 3d a2 9a 97 bd
       -0.057518926 0.035165068 0.072366886 -0.07402541
0000c0 0d 5a 9a bd e1 a0 13 be 9d 6c fa bd 60 93 7b 3b
       -0.07536707 -0.14416839 -0.122277476 0.0038387403
0000d0 8e ca 4e bd 42 5f 19 bd 35 44 fa bc f6 04 c7 bc
       -0.05048614 -0.03744436 -0.030550102 -0.024294358
0000e0 aa cd 05 be c6 f0 aa bd b6 eb c9 bd e2 5e 96 bd
       -0.13066736 -0.08346705 -0.098594114 -0.07342316
0000f0 9c 5e 28 bd 84 27 e7 3d e8 40 36 3c 26 7d c1 3d
       -0.04110585 0.11286834 0.011123873 0.09447698
000100 8e 25 38 be 55 61 83 bd e0 ef 87 bd 61 f6 8f bd
       -0.17983076 -0.06415049 -0.066375494 -0.07029415
000110 fd 9e 9a 3d d8 c1 a4 bc fc 88 de 3c 4d 90 8b bd
       0.07549856 -0.020111963 0.027164929 -0.068146326
000120 f7 77 18 3d 6c 2c 2e bd 2a 73 79 bc 39 39 de bc
       0.037223782 -0.042522833 -0.015225211 -0.027126895
000130 00 57 63 3d 76 44 b4 3c 6d 7f 84 bd 28 38 a6 bb
       0.05550289 0.022005301 -0.06469617 -0.0050726123
000140 22 af 97 3c 81 1a d5 bd 68 a7 0d bd 6c e1 9b 3d
       0.018516127 -0.10405446 -0.03458348 0.07611355
000150 ba f7 f7 bd a2 cd ea 3c a8 0e 1f bd 12 a4 09 3d
       -0.12107797 0.028662506 -0.038832337 0.033603735
000160 bd 34 67 3d e5 a1 8e 3d 5a 1a 69 bc 22 cc b3 bb
       0.05644678 0.06964473 -0.014227474 -0.005486981
000170 ec 55 c5 3c 00 69 12 bc e3 d7 17 bd 3f ac f3 3c
       0.024088822 -0.008936167 -0.03707112 0.02974522
000180 01 56 d2 3c 3e ad 2d bd f1 83 39 bd 27 c6 51 bc
       0.025675775 -0.042401545 -0.045291845 -0.012803591
000190 e4 28 2a 3d 56 8b fe bd 88 8f 40 be df fa 96 3d
       0.041542903 -0.1242892 -0.18804753 0.073720686
0001a0 ab fa 3b bb 82 79 9d 3c da d1 23 bc fa 8a b3 3d
       -0.0028683345 0.019222979 -0.009998763 0.08766742
0001b0 62 22 65 bc 72 c6 07 bd 3e cc 83 bd 26 aa c0 bc
       -0.013985248 -0.033148237 -0.064354405 -0.023518633
0001c0 9d d6 08 3d 5f c8 c3 3c cf ae 5d 3d a0 b1 db 3a
       0.033407796 0.023899255 0.05412179 0.001676131
0001d0 00 35 1f bd f4 33 9f 3d 26 7b a5 3d 8e 5f bb bb
       -0.038868904 0.07773581 0.08080129 -0.005718178
0001e0 81 90 59 bd 51 b6 bd 3d bc 3e dc 3c 90 71 c6 bc
       -0.053116325 0.0926329 0.026885383 -0.024224073
0001f0 65 bb 30 3d bd 70 17 3b 75 47 88 3c 6f 65 06 bd
       0.043147463 0.0023107969 0.016635636 -0.03281158
000200 ea b3 a2 bc f1 28 eb 3b a8 fb df 3c 84 46 c1 bd
       -0.01986118 0.0071765115 0.027341679 -0.09437278
000210 aa 7c 90 bd 81 b3 b5 bb c3 3e d4 bd 69 25 49 3d
       -0.07055028 -0.00554508 -0.10363533 0.049107943
000220 03 9c 3e 3b 6e 71 f5 3d fa b6 4d bd b7 0c dd bc
       0.002908469 0.119845256 -0.05022333 -0.026983602
000230 40 cb 96 bd 81 75 23 3c 5d 55 0d 3e 5a 83 0f be
       -0.073629856 0.009976746 0.13802095 -0.1401495
000240 14 bb f6 3d 23 33 34 bd a4 7a 08 3d 71 84 70 bd
       0.12047401 -0.04399408 0.033320084 -0.058720056
000250 59 79 73 bd ac d5 da bd 69 d6 de 3d a4 5b 32 3d
       -0.059441898 -0.10685286 0.10880739 0.043544427
000260 0d df 88 3d 45 b7 ba 3c bb 06 c8 3d e1 db 81 3c
       0.066831686 0.022792468 0.09766909 0.015851917
000270 68 fd a0 3d 48 e1 94 bc ee ea 16 bc 7a 79 18 3d
       0.078608334 -0.018173829 -0.009211285 0.037225224
000280 c4 5e 58 bd 49 9f 06 bd 57 da 93 bd 03 64 39 3d
       -0.05282475 -0.03286675 -0.072193794 0.045261394
000290 6b 39 cb bd 19 7f 4a 3c 12 f1 ac bd 7c 32 57 3d
       -0.09923061 0.012359404 -0.08444418 0.05253838
0002a0 a4 51 f0 3c 79 e7 55 bd 31 8f 70 3d 8d 31 49 bd
       0.029335804 -0.052222703 0.058730308 -0.04911952
0002b0 97 84 71 3c bb a7 a6 bb f1 fa 64 3d 35 7f 8a 3d
       0.014741085 -0.005085913 0.05590338 0.06762544
0002c0 6d da 38 3d ba 77 03 be e5 70 20 bd 51 76 27 3d
       0.045130182 -0.12838641 -0.039170165 0.04088432
0002d0 d3 c0 31 bd 84 ac 99 3d b2 2a a6 bd 94 dc 68 bd
       -0.043396782 0.07503608 -0.08113612 -0.056850985
0002e0 49 04 89 bb 0d 46 cc 3c e7 16 63 bd 69 fe 7d bd
       -0.004181419 0.024935747 -0.055441763 -0.062010203
0002f0 4b f4 cc 3c 31 48 3e bd 1a 8a 91 bc ca 2e d1 3c
       0.025018832 -0.046455566 -0.017766047 0.025535006
000300 71 8e 48 3e 02 d2 3f 3d 9c fd 19 bc db 57 4f 3d
       0.19585587 0.04683114 -0.009398844 0.050620895
000310 f5 91 61 3d 05 b9 f9 bc 5a 29 2e bd 22 0d 64 3d
       0.055070836 -0.030483732 -0.042519905 0.055676587
000320 95 d0 c2 bd fe ab 85 b8 ed 00 a6 3b 10 a4 6c 3d
       -0.0951244 -6.37397e-05 0.0050660283 0.05777365
000330 20 c3 50 3c fd e7 02 3d 13 8e a2 3c 4e 09 87 3d
       0.012741834 0.031959523 0.019843137 0.065935716
000340 50 9f 38 3e 67 34 c7 3b aa 68 55 3d 00 9b 91 bc
       0.18029523 0.006079245 0.05210177 -0.017774105
000350 54 04 4c 3c b0 eb f2 3c ae a6 c7 3c 2a 9f 1b 3d
       0.012452204 0.0296534 0.024371471 0.037993588
000360 cd 7e b7 bc 67 b7 04 bd a1 01 08 be 99 8d ab bd
       -0.02239933 -0.03240147 -0.13281871 -0.08376617
000370 e9 d1 09 bd 48 68 a7 b9 35 e9 83 bd a9 bd 8e 3d
       -0.03364745 -0.00031930418 -0.06440965 0.069697686
000380 09 92 8f 3c 8a be 45 bd 0a 15 ad bd cf 44 0c 3d
       0.01752569 -0.048277415 -0.084512785 0.03424531
000390 15 dc b2 3c dc 39 f8 bd 05 2c c0 bd 7f 00 1a bd
       0.021833459 -0.12120411 -0.09383396 -0.03759813
0003a0 88 18 a3 3b f6 7f a9 3d 3b 25 9e bd 77 0f 2b 3d
       0.0049772896 0.0827636 -0.07721945 0.041762795
0003b0 ae 4a 09 bc 20 c5 c0 bd 74 63 a7 3c cf 4a 35 bd
       -0.008379621 -0.094125986 0.020433165 -0.044260796
0003c0 a3 42 b4 3d 20 fe 8e bc db 2b 91 bc 00 26 6b bd
       0.088017724 -0.01745516 -0.017721107 -0.057409286
0003d0 43 14 47 3d 37 38 87 bd 16 af 05 3d af ad b0 bd
       0.048603307 -0.06602519 0.032637678 -0.086268775
0003e0 dc 40 b5 bd 8e ed 13 3e 93 5f 72 bc 01 11 ef 3c
       -0.088502616 0.14446089 -0.0147932945 0.029182913
0003f0 89 5b 4b 3d 1c 91 e7 3d 6b 08 2c bd 4a 41 d1 bd
       0.04964784 0.11306974 -0.042000216 -0.10217531
