mlruns/761854136110779325/830a49b11079404196148249adbab1fd/artifacts/shallow_nn_pytorch.pth (torch, 43929 bytes, 6 tensors)

fc1.weight f4 [128, 8]
00000000: bd7b 033d 7b70 47bd 85ff bb3b f132 ac3e
00000010: c8a5 5b3e 9549 01bf 313a 33bf b618 b43e
00000020: ef02 1dbd 6bdf 0ebc d221 563c 2396 a53e
00000030: 8c15 8b3d 11fc d8bf de4b 213d 087c e5be
00000040: ef98 62be 10d5 133f eb72 dcbc f853 59be
00000050: 8d87 f33d c982 8a3e 0198 023e 70cf c6bd
00000060: 02c1 ba3e c0a2 5d3d 63ae e8bd 5f46 dabd
00000070: f9a4 2c3e 095b b0bd 0e3b eebd 7d3e 333e
00000080: 12cb a13d cf88 0abf ac1d 943d e248 1fbe
00000090: 5186 a03d 3a13 d3bd b046 0a3e 3546 523e
000000a0: a842 18bd 5dae 053f a89e a13d 5896 bf3b
000000b0: 4c1b 143e a463 76bf 378b b93d ae5a b13c
000000c0: ceea 863d c33d 21be 923f b4be 4323 18bf
000000d0: 4128 623e 54d0 91bf 3191 a63d a08a 303e
000000e0: 7396 613b c537 e93c f6bd 823c c94a 3ebe
000000f0: 6928 debe 828e 123f cd16 20be df32 8a3d
00000100: ac38 23bf 5e58 563d 73bc 2cbe 850b 11bf
00000110: 1d47 ad3e e143 5d3e de5e 483e f598 93be
00000120: 5b75 ae3c 1a7f 313f 2a19 333d 8118 003e
00000130: 23ba 00be b807 8f3d 78f2 0cbb 954e 98bc
00000140: 6125 42bf 42ea 3e3c d9ac 893e 24a3 c0be
00000150: 8228 123e c53a 853d cd54 d03d fd25 3f3e
00000160: 4579 963d bf1c cc3b a250 313d b6b1 debe
00000170: 2c9c f13c 46ca babd b6b9 093f 6bf1 1dbe
00000180: 40e0 d43e 9416 c2bc 8e45 f3bc d838 023e
00000190: d643 54bf cce2 483e 9918 8bbd 9630 2bbe
000001a0: 2ccf b7bc ff4a 27bd dcbd 113f fb9b 88be
000001b0: 51f2 853e 89d3 fa3d cd59 703e e69a f4bd
000001c0: eb90 a13e fcdc 643b 7e3c 41bc 18e9 763d
000001d0: f314 8b3e b558 79bf 128d 12bf b75a 253e
000001e0: 1d18 b8be eb71 f03d 8f9d c63e a11a e83d
000001f0: 0506 c8bd 589b b33e 0a84 42be a66f 1fbe
00000200: 5f6f 39bc ed36 f93b e778 9e3e 221f cd3e
00000210: 02d1 fcbe c1b8 123e 7d34 9c3d d669 cebe
00000220: 1c21 b93b 6d5e 97bc 26b3 a5bd a95c 60be
00000230: 2b9b efbe 9922 67bf b354 24bf bb2e a3be
00000240: e1e9 16bd 38c9 b5bc 7112 b1bd 53e5 7fbf
00000250: 4e7b d8be 7ddc 503e 8c6b 193e 4dcf 1ebf
00000260: 7f42 60bc 5808 07bf 398c bc3e e8f6 8b3e
00000270: c7bc cebb 9192 1e3e 2956 673e b363 bdbe
00000280: cdff 10be 1e4f 9a3a 493c 4c3d b7ee 873e
00000290: c9c9 863e 9ab1 a5bf 39c9 d9bc 83be cdbe
000002a0: 9fcb 8dbd 3f0d 833d 8726 843e 77d9 d33e
000002b0: 8700 82be 3158 ae3d e030 963e 13a9 b5be
000002c0: 9d27 053d a9a8 2c3f 84cf 51bb 7940 79be
000002d0: 1dae a8bc d566 74bd af51 4cbc ca86 7f3d
000002e0: bfa6 d1bd 21be 16bb fc62 d1bc ad21 9bbf
000002f0: 8905 53bc 8122 1f3d 4f83 ca3e e99a 90bd
00000300: 8f08 143d ebff 0abe 0a76 a03e ad91 0e3e
00000310: 7ad7 5dbd ce41 5b3d 64a6 9cbe 0900 1fbc
00000320: 9c83 953c 5a53 44bc cffb 89bd 3eae 343d
00000330: 86f9 c23e a8a3 c6bf e116 9bbd 9752 64be
00000340: c286 76bd d12a da3e d4b9 1d3c 83cf ea3d
00000350: e3b4 e63e a22a e3be 1e30 603d 949a a33b
00000360: a585 403d 50d0 c33c 5a75 9d3e bc8f 84bd
00000370: 1ebc 11be 0b96 81bf 652c 263e fba6 463e
00000380: d99e a7bb 9022 f0bd 443b e8be d283 65be
00000390: 132f 7a3c beb3 a8be 5883 483e e4b7 883d
000003a0: f73f 56bd c39f 32bc 95e3 5f3d 15ae dbbd
000003b0: fb5b 6cbe 20a7 bcbf 5284 97bb 1f9d 313e
000003c0: 4a73 64be 2374 09bd db27 65be c2f8 723e
000003d0: 2e73 343d bde7 a3bd c809 863e 22aa 173e
000003e0: 71eb 43bd 1eb9 9c3c fbee 24bd b540 12bf
000003f0: d112 2bbf e35e 403d 2553 09bf 8799 3fbf
0.032100428 -0.048691254 0.0057372474 0.33632615 0.2144996 -0.505029 -0.7001067 0.35175103
-0.038332876 -0.008720259 0.013069587 0.32341108 0.06791219 -1.6951925 0.039378993 -0.4482119
-0.22128652 0.5774698 -0.026910266 -0.21223438 0.11891089 0.27052906 0.12753297 -0.09707534
0.36475378 0.05411029 -0.113613866 -0.106579535 0.16859807 -0.086111136 -0.116323575 0.17504306
0.07900061 -0.54115003 0.07232222 -0.15555146 0.07838119 -0.103064016 0.13503528 0.20534594
-0.037172943 0.5221918 0.078915894 0.00584678 0.14463538 -0.9624579 0.09059756 0.021649685
0.06587754 -0.15746216 -0.3520475 -0.59428805 0.22085668 -1.1391702 0.08133162 0.17240381
0.003442195 0.028468976 0.015959721 -0.18583216 -0.43390206 0.572487 -0.15633698 0.06747984
-0.6375835 0.052330367 -0.16868763 -0.566582 0.33843318 0.21607925 0.19567439 -0.28827634
0.021296194 0.69334567 0.04372517 0.12509347 -0.12571006 0.06983894 -0.0021506827 -0.018592158
-0.75838286 0.011652531 0.26889685 -0.37624466 0.14273265 0.0650535 0.101724245 0.18666835
0.07347349 0.0062290127 0.043289788 -0.43494958 0.029493414 -0.09120612 0.53799 -0.15424125
0.4157734 -0.023692407 -0.029696252 0.12716997 -0.8291601 0.19617766 -0.06791801 -0.16717753
-0.022437654 -0.040843006 0.5693033 -0.26681504 0.26161435 0.122473784 0.23471756 -0.11943607
0.31555876 0.0034921756 -0.011794208 0.06028089 0.2716442 -0.9740098 -0.57246506 0.16147886
-0.35955897 0.11740478 0.38792083 0.11333204 -0.09766773 0.35079455 -0.18995681 -0.15569934
-0.011318057 0.0076054246 0.30951616 0.40062815 -0.4937821 0.1432829 0.07627199 -0.4031512
0.005649699 -0.018477643 -0.080908105 -0.21910347 -0.4679807 -0.90287167 -0.6419174 -0.3187159
-0.036844138 -0.022190675 -0.086460955 -0.99959296 -0.42281574 0.2039661 0.14982432 -0.62035066
-0.013687729 -0.52747107 0.3682573 0.27336812 -0.006309125 0.15485598 0.22591461 -0.36990127
-0.1416008 0.0011772846 0.04986218 0.26549312 0.26325825 -1.2944825 -0.026585208 -0.4018441
-0.06923603 0.06399011 0.25810644 0.4137685 -0.25391027 0.08512915 0.29334164 -0.35480556
0.03250848 0.67444855 -0.0032014558 -0.24341 -0.020590836 -0.05966838 -0.012470647 0.062384404
-0.102368824 -0.002300151 -0.025559895 -1.2119652 -0.012879738 0.038851265 0.39553306 -0.07060797
0.036140975 -0.13574187 0.31340057 0.13922758 -0.054160573 0.053529553 -0.30595696 -0.009704598
0.018251233 -0.011982763 -0.06737482 0.044111483 0.38080996 -1.5518694 -0.07572723 -0.2229713
-0.06018711 0.4261079 0.009626824 0.11465361 0.4505988 -0.44368464 0.054733388 0.0049927924
0.047002453 0.023903042 0.30753595 -0.06472728 -0.14231917 -1.0123914 0.16227873 0.19399635
-0.0051153717 -0.11725342 -0.45357716 -0.22413567 0.015270012 -0.32949632 0.19581354 0.06675699
-0.052307095 -0.010902348 0.0546604 -0.10726563 -0.23081963 -1.4738503 -0.004623928 0.17345093
-0.22309604 -0.033558022 -0.22378485 0.23727706 0.044055156 -0.08003185 0.26179338 0.14810994
-0.047831956 0.01913124 -0.040266972 -0.57129985 -0.66825587 0.04696549 -0.53642493 -0.7484364

fc1.bias f4 [128]
00000000: 787f cebe 3ed3 abbe 39a6 00bf 34c9 4fbd
00000010: b2d5 81be 5def 21bf dabb 63be 124a bebc
00000020: 1c06 24bf 685d 00bc 796c 3fbf 6583 4fbd
00000030: 71f6 f4be ba9c c4be b223 1bbe 35ba 99be
00000040: 0382 b2bd 3a39 e6be 4cc2 c7be 2f75 21bf
00000050: 9487 84be 4476 cfbd db8c c4bc 508d 69be
00000060: 2230 d1bd 6845 99be 22c5 95be 593b a6be
00000070: 1fc0 a9bc fb76 56be b671 bfbd 9040 11bf
00000080: 4234 16bf 3641 23bf e423 debb c716 01bf
00000090: c00a c9be faf5 0ebe 4499 2cbf b25c 78be
000000a0: c019 c4be 167f 543d 05a6 16bf a4e9 a8be
000000b0: 62dc 6bbe e1af 1a3d e24b bdbe df40 6fbd
000000c0: af89 a6be bd60 27bf b2b7 96be d3b1 f4be
000000d0: 0666 dbbe 6c67 01bf 6147 873d eacb f9be
000000e0: 7055 9dbe 4995 98bd 1eb9 babc 869b 6dbb
000000f0: a629 ffbb 6b5f 6fbe 7e6a 943d 7dd9 20be
00000100: ad9f 0dbe 173c b2be c47a f3be cba4 28bf
00000110: f1b2 0abf d757 c4be 7ed3 5abe c3fe 38bf
00000120: 4b86 45bf 7f2f 173d 945d babe 621a b03c
00000130: 7a0c d0be f5ef b1be 3cb4 92be e162 07bf
00000140: f406 c1be 863f 243d c19a 19bf cbcc 28bf
00000150: 8bbb 9bbe 00c9 0ebf 934f ffbe 0337 c7be
00000160: 601b 9cbe 3c9f febe 9690 b6bd 01c2 1f3d
00000170: 1f03 43bf a2cd 04be 2491 d2be 7d8c bdbe
00000180: e15f 7cbe 55cf edbe cbaa 0dbf fb1a 8b3d
00000190: 9761 dbbe d07f 2dbf 3af1 fbbd 6a19 82be
000001a0: 6d19 a0be ba9f 37be 9356 2bbf 6dff 93be
000001b0: 6d81 edbe 6762 f2be 5433 f9be a945 d7bd
000001c0: 57bf 26bf f95f 0ebe 993e 7dbe bde0 2dbf
000001d0: bb06 f1bd 1efb 98be ad19 f9bc 0f78 acbe
000001e0: e41e ddbe ca57 86be 4a80 0abf 5f6e 08bf
000001f0: 13bd a4be dc89 23bf 9ccd 3cbf 340e 53bf
-0.40331626 -0.33559602 -0.50253636 -0.05072899 -0.2535835 -0.63255864 -0.22239628 -0.023228679
-0.6407182 -0.00783477 -0.7477489 -0.050662417 -0.4784427 -0.38400823 -0.15150335 -0.30024877
-0.08716204 -0.44965535 -0.39015424 -0.6306943 -0.25884688 -0.10129979 -0.023992946 -0.22807813
-0.10214259 -0.29935765 -0.29251963 -0.32467154 -0.020721493 -0.20943825 -0.093478605 -0.5673914
-0.5867349 -0.6377138 -0.006779181 -0.5042538 -0.39266014 -0.1396102 -0.67421365 -0.2425411
-0.38300896 0.05187901 -0.58847076 -0.32990754 -0.23033288 0.037765387 -0.36971956 -0.058411475
-0.3252692 -0.65381986 -0.29437023 -0.4779192 -0.42851275 -0.50548434 0.06605411 -0.48788387
-0.30729246 -0.07450349 -0.022793349 -0.003625603 -0.0077869473 -0.23376243 0.07246874 -0.15707965
-0.13830443 -0.3481147 -0.475546 -0.65876454 -0.5417929 -0.38348266 -0.2136974 -0.72263736
-0.7715804 0.03691053 -0.3639952 0.021496955 -0.4063452 -0.34753385 -0.28653133 -0.5288525
-0.37700617 0.040099643 -0.6000176 -0.6593749 -0.3041652 -0.5577545 -0.49865398 -0.38909158
-0.30489635 -0.4973086 -0.08914296 0.039003376 -0.7617664 -0.12969068 -0.41126359 -0.37021247
-0.2464595 -0.46447244 -0.55338734 0.067922555 -0.42847893 -0.6777315 -0.1230187 -0.25410014
-0.31269398 -0.17932025 -0.66928977 -0.28905812 -0.46387807 -0.473407 -0.48671973 -0.105113335
-0.6513571 -0.13903798 -0.2473091 -0.6792105 -0.11768862 -0.29879087 -0.030407751 -0.33685347
-0.4318763 -0.26238853 -0.54102004 -0.5329341 -0.32175502 -0.6388223 -0.73751235 -0.8244355

fc2.weight f4 [64, 128]
00000000: 8a55 e2bd 2128 e73e a98d e5bd f3ee 59bd
00000010: 87b5 073e 340a 23be a4cf 04be 0804 2abf
00000020: dae5 99be 556b 843d cd4a 2ebf 11c4 83bc
00000030: 3d2f 01bf 98f5 d93c d81d 7dbe 5d5c 44bf
00000040: 3393 a6be 0390 393e 2db5 0ebf 2365 ad3d
00000050: f065 eb3d 14b2 033e e9a6 143c 91e4 6dbe
00000060: b484 ddbd ad1c 023d 24e0 943d 2d65 8dbd
00000070: fd3b e4bd f3f2 733e 8a2f b53d 73ef f3bd
00000080: 1f1e 573e a37b 173e 9a96 d0bd c543 9e3d
00000090: 6170 bbba eca5 253e 824c 343d fcb0 233e
000000a0: a188 d6be a942 723d e136 3ebf 9613 24be
000000b0: a01b 29be 7d90 a83d 4ceb 833e ffe5 013d
000000c0: 223f 02bd 7268 8e3d 27ee dd3d fbd3 0bbe
000000d0: 8b24 01bf e080 44be a258 923d bf5b bebd
000000e0: 93e3 053d 3ed3 9bbe ecbb b7be 41a4 37be
000000f0: 0469 3fbd 4b59 efbd 87f7 733e 8949 07bd
00000100: 2626 4e3d 92b6 17bf c59e b4bd d456 a33d
00000110: 4749 8bbd 936d e43d 95b0 debd d49e 0abf
00000120: fe6c 91bd accd ed3c c4a7 8b3d d688 28bf
00000130: 138a 42bf dd2d 93bd 9704 5d3c 55a8 9d3d
00000140: 142e a2bc 7903 aabc e106 4b3e f9bc 343d
00000150: 689b 78be 5b70 0bbf d80d 8fbe 6c3e 3e3e
00000160: c6ef aabe 5b17 cfbd 0f4e 9ebc 5e1a 55bd
00000170: 440b fd3d 5a99 20be 2ddc 08bf b991 17be
00000180: d9b8 5e3e 13ac 54bf e7c1 48bf 53a1 723d
00000190: 4e6d 003e 76f6 553e 2d36 3b3e 34c4 293e
000001a0: 29a6 17bf 0f44 d0bd c9f2 083e 6985 94bf
000001b0: 711a 4abf 5065 9ebd 4c14 76be 321c 80be
000001c0: e05d 633e 08f1 56bf caf9 40bf a421 ab3d
000001d0: 4c60 19be dc9c 283e 8b75 3fbc bf23 a8bd
000001e0: a4d2 03be d4ec 2c3d 6f70 04bf 6ba5 833e
000001f0: 26c0 a9bd 5dd6 75be a477 f2bb eb1b e3bd
00000200: 5c5e f1bc 438a b53e 28b1 29bf f2d1 8e3d
00000210: 98f8 42be 9648 55be 10a9 a0bd 95af e93d
00000220: b2af 22be d728 c1bf 9890 6e3d 63cd a13e
00000230: db5b 0b3e 3292 ac3d d816 033b 39cd 6bbd
00000240: fb8c bd3d 70dd 5dbe ff5a 563e 1cd6 73be
00000250: 7136 3f3d d752 19bd 14e4 a6bf 14c9 303e
00000260: ef33 213e a623 3cbe 4468 b93d 2b08 313e
00000270: 18e1 0cbe 94eb 7d3e 5766 abbc 5284 093e
00000280: 0f92 bfbd dfeb ac3d 71ad 00be ad82 83be
00000290: 83d0 e13a 527e 84bc 18b7 21bf 3977 313c
000002a0: 4283 59bf d371 ccbc 349d 033e 4c1a ae3d
000002b0: 71de 523d c1e7 24bf 8cb1 9fbb 4448 d73d
000002c0: ee6e 803d 5b28 573e ddaa 073e 7d32 52be
000002d0: d059 ef3d e33d 9c3d ab75 d53d e485 1a3e
000002e0: f479 00bc 5a42 5abd 6a00 dfbc ec44 50be
000002f0: fe70 1abd 24cb 0f3e ec15 65bd e98a 14be
00000300: efa9 3bbd 131f db3d ab21 cf3d e3ab 7cbe
00000310: 3a63 9d3d 3815 cb3e b927 133e dd19 c1bd
00000320: 4cc7 1fbe a2e3 c5bf cf09 6e3e 1e27 97bb
00000330: d75b 673d 474e 1dbd e0c9 413e ce58 65be
00000340: 1e18 953e 8a95 9cbc 7a92 e1be ff5a a1bc
00000350: 93b2 08be f3fe a0bd f198 ffbc d7ec 613e
00000360: e40f 0c3e ab22 863d 5520 09bc 6b8c 09be
00000370: b380 e7bd 37f7 76be 1d1d 003d 8d97 0a3e
00000380: 8ce5 3a3d a8f2 983b c1cf 323e bfd3 68be
00000390: 3613 50bd 0372 803e 932c bb3d 400e b2bd
000003a0: 967b 1e3e 77bd 41be 5e3a 443d f191 8a3e
000003b0: 8e19 983d f547 be3d 058c 5fbe 3068 bfbd
000003c0: 8501 f73d 6966 d33d cf1f 193e c9f1 14bd
000003d0: 4f59 dd3d 1cf4 d4bd 3f7f 323d 27bd 69be
000003e0: 103d da3d 635d 5bbd 5d77 23be 7b88 c5bd
000003f0: 6811 083e 06df 3e3e 65a9 99bc eb8f a6bd
-0.110514715 0.45147803 -0.1120866 -0.053206395 0.13252841 -0.15921861 -0.12969834 -0.664124
-0.30058175 0.064657845 -0.68082887 -0.016084703 -0.50462705 0.026606366 -0.24718416 -0.76703435
-0.3253418 0.18121342 -0.557452 0.08466556 0.114940524 0.128609 0.009072998 -0.23231722
-0.10816327 0.03176563 0.07269314 -0.069040634 -0.11144254 0.23823147 0.08846958 -0.11910906
0.21007584 0.14793257 -0.10184975 0.0772777 -0.0014300459 0.16176575 0.044018276 0.15985483
-0.41901115 0.059145603 -0.7430249 -0.16023096 -0.16514444 0.08230684 0.25765455 0.031713482
-0.03179849 0.06953515 0.108364396 -0.13655083 -0.50446385 -0.19189787 0.071458116 -0.09294843
0.032687735 -0.30434602 -0.3588556 -0.17933752 -0.04673101 -0.11686953 0.23824893 -0.033029113
0.05032935 -0.59262955 -0.088193454 0.079755455 -0.06801086 0.11153712 -0.10873524 -0.541486
-0.07100867 0.029028736 0.06819108 -0.65833795 -0.75991935 -0.07186482 0.013489864 0.076981224
-0.019797362 -0.020753609 0.19826843 0.04412553 -0.24278033 -0.54468316 -0.2794025 0.185785
-0.33386058 -0.101118766 -0.01932433 -0.0520271 0.12355664 -0.15683499 -0.5346096 -0.14801683
0.21750201 -0.83075064 -0.7842087 0.059235882 0.12541696 0.20894799 0.18282385 0.16578752
-0.59237915 -0.10169231 0.13373865 -1.1603214 -0.78946596 -0.077341676 -0.2403118 -0.2502151
0.22203779 -0.83961535 -0.7538115 0.08356026 -0.1497814 0.16466087 -0.011685739 -0.08209943
-0.12873322 0.042218044 -0.5173406 0.2571214 -0.082886025 -0.24007554 -0.007399516 -0.11089309
-0.02946394 0.35457048 -0.66285944 0.06973638 -0.19040143 -0.2082847 -0.07844746 0.11410443
-0.15887335 -1.5090588 0.058243364 0.3160201 0.13609259 0.08426322 0.002000263 -0.057568762
0.092554055 -0.21666503 0.2093315 -0.23812145 0.04668278 -0.037432518 -1.3038354 0.17264205
0.15742467 -0.18372974 0.0905309 0.17288272 -0.13757741 0.24796897 -0.020922823 0.13429382
-0.0935403 0.08443426 -0.12566163 -0.25685635 0.0017228279 -0.016173515 -0.63170004 0.010831648
-0.8496591 -0.02495662 0.12852937 0.085011095 0.051481668 -0.6441613 -0.00487346 0.105118304
0.06271158 0.21011488 0.13248773 -0.20527072 0.11687052 0.076289915 0.10422834 0.15090138
-0.007841576 -0.053285934 -0.027221877 -0.20338792 -0.037705414 0.14042336 -0.05592911 -0.14506115
-0.04581636 0.10699286 0.101138435 -0.24674945 0.076849416 0.39664626 0.14370622 -0.09428761
-0.1560337 -1.5460093 0.23245929 -0.0046128174 0.05648407 -0.03840473 0.18924665 -0.22397158
0.29119962 -0.019114275 -0.44057065 -0.01969671 -0.1334937 -0.07861128 -0.031200858 0.22063003
0.13677937 0.06549581 -0.008369525 -0.13432471 -0.11303844 -0.24117742 0.031277765 0.13534375
0.04562907 0.0046675988 0.17462064 -0.22737025 -0.05079957 0.25086984 0.09139361 -0.08694124
0.15476832 -0.18919931 0.047907226 0.2706447 0.07426749 0.092910685 -0.21830757 -0.09346044
0.12060837 0.103222676 0.1495354 -0.036363397 0.1080805 -0.10398123 0.043578383 -0.22826062
0.10656178 -0.053555857 -0.15963502 -0.09645172 0.1328789 0.18639764 -0.018757531 -0.08132919

fc2.bias f4 [64]
00000000: f57e de3e 597a 313e 24e4 233e 9ff9 993e
00000010: c35f d53e d3ad d3bd 5ba5 1cbe d88f bf3d
00000020: 255f 8e3e 8294 10be c90a d73c 1f4d b63e
00000030: 495f ff3e c69a 033e e3cf 1d3e 6fb6 11bf
00000040: 0fea 533e 8301 0e3e 28be b73e f977 373e
00000050: fed0 693e 6ded b73e 3b26 2f3e 02f3 cd3c
00000060: f51a 2e3e 776d 6bbd 8305 813e eac6 1d3e
00000070: 4124 cfbd 40b7 c7bd 039b 173e 3874 5f3b
00000080: 71e1 523e a642 ff3d 1edd d63e 39df bb3e
00000090: 5ba7 a63e 88a8 c83e e947 0d3c 3421 aabc
000000a0: a61b 47be 13ae 3bbe 2a87 6dbe 29ca d53e
000000b0: 8fa5 903d 947f e13c 3db1 113e 7eaa fc3e
000000c0: 5e24 30be 6c4b b13e 5671 873d 4423 863e
000000d0: 8e7c 24bd beba d93e 87c3 243d d0c5 693e
000000e0: 4da5 043f a277 913e 8945 db3e 3cba 123e
000000f0: a164 ef3e d489 633e 7716 a63d d102 a8bd
0.43456236 0.17331828 0.16004997 0.30073258 0.41674623 -0.10335889 -0.15297453 0.09353608
0.27806965 -0.14119151 0.02625026 0.35605714 0.49877384 0.1285201 0.15411334 -0.56918997
0.20694755 0.13867764 0.35887265 0.1791686 0.2283363 0.3592333 0.17104428 0.02514029
0.17002471 -0.05747744 0.25199518 0.15407911 -0.10114337 -0.09751749 0.14805226 0.0034096371
0.20593812 0.12463884 0.41965574 0.36693743 0.32549557 0.3919108 0.008623102 -0.020767786
-0.19444141 -0.18328123 -0.23196092 0.41755798 0.07062828 0.027526654 0.14227767 0.49348825
-0.17201373 0.34627855 0.06613414 0.2619878 -0.040157847 0.42525285 0.040225532 0.22829366
0.5181473 0.28411585 0.4282649 0.14328855 0.4675646 0.22220546 0.081097536 -0.08203662

fc3.weight f4 [12, 64]
00000000: 9a35 0e3e f0d4 a63d 384c c93d c8a1 4d3e
00000010: a513 f73d 7fe6 5abd 588c 493d eab3 023e
00000020: a803 33be 440a a33c 979b 10be 3218 7d3e
00000030: 2587 9bbe f57f 7ebf e02a b6bd 6328 003e
00000040: acfa 903d 5990 953d 6f0e 323d 7151 07be
00000050: cbc4 d13d 6019 aa3e ac3c 5b3e 3d56 c8bd
00000060: 5536 c7be cf98 33bd baee 5fbe 330c 823d
00000070: 11fa f93d ce4a d1bd f5d3 b33e 2a6a a93d
00000080: d7d5 e83d a82b b4bc f2b9 493e f65c 393d
00000090: 3966 7f3e 0ed9 17bf 2362 46be 11fb 19be
000000a0: fca5 033e 3221 823d 46d1 b0bc 5d6a bebe
000000b0: 8e3c 2b3e d769 063e 2de2 29bd e801 063e
000000c0: 0e94 babd 953d 413e c125 2c3d 74b3 c03d
000000d0: 9ee1 0c3e 2650 e73d 2dd3 193c 5e78 32be
000000e0: 2e8b 003c ce46 ae3d adae 84bd a963 db3c
000000f0: b89c cb3d f346 873e 5ac8 663e 3085 29bd
00000100: 0d60 95be e8a7 613d 3f04 4fbe d5fb c73e
00000110: e323 cb3e b509 103d 33f6 50bd 7af4 84bd
00000120: 3fdb 00bf e2c1 9abd bc43 dcbe ddb8 4c3d
00000130: efd6 2dbf 5d5b 103f 1195 1bbf c6db f4be
00000140: bcad 8cbd 196d 0ebe 6c1e c23b 7e1b 293f
00000150: 3d11 973d 169b 83be 50de b33e a4f9 bebe
00000160: f734 b0be ab0d 22bd 9fd2 1dbf 6f04 aabd
00000170: 9582 5bbc 1b47 14bc e3a7 913e d9cb 73be
00000180: fa04 a6be 83d1 d2be d16d 85bf c7d5 a23e
00000190: 3a32 9b3e d7bb acbd 1b5a c53c 76ae 7bbd
000001a0: bbbd 213d c953 f33c 80a3 ad3c bc17 4c3e
000001b0: 1941 b23d d595 823d b877 c6be 0e76 2f3e
000001c0: d735 f4bd 6e6c d2bd 9860 a93a 4058 363f
000001d0: e301 c2be ad5a 6abf ab07 8a3d 520f 133f
000001e0: 0674 d4bc 51e9 9a3e d5ea 8fbe f8e8 8cbe
000001f0: f6b3 97be 745f 053f 7eb4 d1be 91d4 f4be
00000200: 2c63 623e 912d 6cbf 197f df3d cc42 97bf
00000210: 6481 513b c09d 17bf be9c 88be 4a90 8c3c
00000220: 378e 313e ce5c 09bf 5aa0 5e3e cf7f c73d
00000230: a611 aebe 69c8 103f 178a 65be 507c 3abf
00000240: a4aa 3d3e 0d5d 833c f2ea 823e 9c74 d1be
00000250: 0ee8 0e3e 5d8a dabe 8229 bc3d 8edb 88be
00000260: 5495 97bc 4e44 1e3d f7bf fc3d 5495 733d
00000270: 08e5 60bf 91cd dd3c acd6 1b3d fd66 833e
00000280: abe7 823d 4845 31be b500 923e dbf9 d43e
00000290: e9c0 a03e e671 bd3d da79 423b 6822 03bf
000002a0: 154d d4be 2f96 a9be a162 0cbf d3d8 07be
000002b0: 7be4 9ebe 5115 83be f22b c63e 3a8c 723e
000002c0: b091 3e3c de5e 6f3c 7fe7 debe 4be4 3e3f
000002d0: 2870 1bbe cd5b 70bc db42 babe 5713 703e
000002e0: 13d9 3bbd 63ba 35bf 2abc efbd 25dc 11be
000002f0: d6cb 4a3e 1cfe f0bc f084 4a3e 3165 133e
00000300: 0d47 a03e 76b8 fdbc 58f7 80be add1 3bbf
00000310: a4ed 00be b637 eb3e a3aa f33d a28a 893d
00000320: 2d0d 963e c050 01bd d62f 12bf 15be 45be
00000330: 3e22 153e ea9a b73e 3191 ecbd ce94 d3bd
00000340: 39cf 773d a8a3 c8be 2e9e 063f 4e44 88be
00000350: f7b4 063e 7524 ffbe 6967 a33e 1893 a73e
00000360: 55dd 4cbf 006c 613d e13e 5bbe b083 653d
00000370: c42a f1be cc6d a4bd d943 ffbd bc62 c7be
00000380: 6303 af3d ee35 fcbc 9b34 20bf b5ca e73e
00000390: dbac adbd 0f2b b1bd 2ce2 fe3d 1b63 bcbe
000003a0: 0e8e ff3d 977c 163e 94d9 343e d9dd 9c3e
000003b0: b04d af3d dd42 083e 9d20 0f3f fbe4 9ebe
000003c0: ab2a bcbc 07c9 30be 3979 313e ab8e 3fbe
000003d0: cd90 7dbd 58d3 70bf 20e6 f73d ae01 da3e
000003e0: 8083 433e a356 b53d 9ecb cdbe c11b 353e
000003f0: 001b 2cbf d12c 27be ecf0 b43e 8a73 c7be
0.13887635 0.08146083 0.09828991 0.20081246 0.12064294 -0.053442474 0.049206108 0.12763944
-0.17481863 0.019902356 -0.14121853 0.24716261 -0.30376545 -0.99413997 -0.088948965 0.12515406
0.07079062 0.07302923 0.043470796 -0.13214661 0.102426134 0.33222485 0.21409863 -0.09782074
-0.3890864 -0.0438469 -0.2186841 0.06349983 0.122058995 -0.10219346 0.35122648 0.08272202
0.11368912 -0.021993473 0.19699839 0.04525467 0.24941339 -0.59315574 -0.19373374 -0.1503718
0.12856287 0.06353988 -0.021584164 -0.37190524 0.16722319 0.13126312 -0.041475464 0.13086665
-0.091102704 0.18871148 0.042028192 0.09409228 0.13757941 0.11294584 0.009388727 -0.17428729
0.007845683 0.08509599 -0.06478629 0.02678092 0.09942001 0.26421317 0.22537366 -0.041386783
-0.29174843 0.05509177 -0.20216464 0.3905932 0.39675817 0.035165507 -0.051016044 -0.06491943
-0.50334543 -0.075565115 -0.43020427 0.049980987 -0.6790609 0.5638941 -0.6077433 -0.47823924
-0.06869075 -0.13908805 0.0059240367 0.66057575 0.07376335 -0.2570426 0.35130548 -0.37299836
-0.3441541 -0.039563816 -0.6164951 -0.08301627 -0.013397832 -0.009050156 0.284484 -0.2380823
-0.32425672 -0.4117547 -1.0424138 0.31803724 0.30311757 -0.08434265 0.024090817 -0.061445676
0.03948758 0.029703038 0.021196127 0.19930929 0.08703823 0.063762344 -0.38763213 0.17134878
-0.11924332 -0.102745876 0.0012922464 0.7122841 -0.37892064 -0.9154461 0.06739744 0.5744525
-0.02593423 0.3025613 -0.2810885 -0.2752149 -0.29629487 0.52098775 -0.40958017 -0.47818425
0.22108144 -0.9225703 0.10912914 -1.181726 0.0031967992 -0.5922508 -0.26682085 0.017158646
0.17339407 -0.53657234 0.21740857 0.097411744 -0.3399784 0.565558 -0.22415958 -0.72845936
0.18522125 0.016035581 0.25569874 -0.40909278 0.1395571 -0.42683688 0.091876045 -0.26730007
-0.018503822 0.03863936 0.12341302 0.059468582 -0.87849474 0.02707556 0.038046524 0.2566451
0.063918434 -0.17311585 0.28516164 0.41596875 0.3139718 0.0925024 0.002967468 -0.51224375
-0.4146506 -0.33122393 -0.54837996 -0.13266306 -0.31033692 -0.256022 0.38705403 0.23686305
0.011631414 0.01461002 -0.43535993 0.745671 -0.15179503 -0.0146703245 -0.36379132 0.23444878
-0.045861315 -0.7098753 -0.11705811 -0.14244135 0.1980432 -0.029418044 0.19777274 0.1439407
0.31304207 -0.030971747 -0.25188708 -0.73366815 -0.12590653 0.45940942 0.11897781 0.06715895
0.29306927 -0.03157115 -0.5710424 -0.19310792 0.14563844 0.35860378 -0.115511306 -0.103311166
0.060500357 -0.3918736 0.52585113 -0.26614612 0.1315497 -0.49832502 0.31914833 0.3272941
-0.80025226 0.055034637 -0.21410705 0.05603379 -0.4710294 -0.080287546 -0.12464113 -0.38942516
0.08545568 -0.030787434 -0.6258027 0.4527184 -0.08480235 -0.08650791 0.124454826 -0.3679436
0.12478267 0.14695965 0.17661124 0.30638006 0.085597396 0.13306756 0.5590914 -0.31034073
-0.022969564 -0.17264186 0.17331399 -0.18706767 -0.06190567 -0.94072485 0.1210444 0.42579406
0.19093132 0.08854415 -0.4019441 0.17686369 -0.672287 -0.1632569 0.3534006 -0.38955337

fc3.bias f4 [12]
00000000: e192 e03e 0c8a a1bd 5afd afbe 727c eb3c
00000010: 67a9 a2be 3cda b2be bbab d83d a38c 163c
00000020: 8a04 173d cc9b d5be d072 b63e c873 9bbe
0.4386206 -0.078876585 -0.3437298 0.028745864 -0.3176987 -0.34932125 0.1057963 0.009188804
0.036869563 -0.41720426 0.3563447 -0.30361772
