mlruns/761854136110779325/c1872aa910c24c34939be694fd51bc5c/artifacts/deep_nn_pytorch.pth (torch, 199248 bytes, 22 tensors)

fc1.weight f4 [256, 8]
0	0xbe2ca7a0	-0.16860819
1	0xbe501fcb	-0.20324628
2	0xbe2ce246	-0.16883191
3	0xbea0d8c8	-0.3141539
4	0xbefbd194	-0.49183333
5	0xbeb46325	-0.3523189
6	0xbdef0af8	-0.11672014
7	0xbf34b56d	-0.70589334
8	0x3ea57ca6	0.32321662
9	0x3e0c6838	0.13711631
10	0x3d3427f2	0.043983407
11	0x3de2bfac	0.11071715
12	0xbdb6fd12	-0.08934988
13	0xbf2dd1a9	-0.6789804
14	0x3e86aa6d	0.263019
15	0x3b987b69	0.0046533835
16	0xbcb0ee9c	-0.021598153
17	0xbda1ec2d	-0.07906375
18	0x3e8b6aac	0.27229822
19	0x3dfde656	0.12397449
20	0xbe43866a	-0.19094244
21	0x3d1c0353	0.038089108
22	0x3eb78f77	0.35851642
23	0xbe8ca359	-0.27468374
24	0x3edeb5bd	0.4349803
25	0xbe788b32	-0.24271849
26	0x3e178895	0.14798196
27	0x3dcca634	0.09992638
28	0x3c15e8cc	0.009149741
29	0xbe0e3820	-0.13888597
30	0x3e531e6e	0.20617077
31	0xbdecfaae	-0.11571251
32	0x3e8b0172	0.2714954
33	0x3d9039ff	0.07042312
34	0x3ebcc5ce	0.36869663
35	0x3e568e28	0.20952666
36	0xbe6cc503	-0.23122029
37	0xbed39c5f	-0.4133024
38	0x3e8558de	0.26044363
39	0xbd59f315	-0.053210337
40	0x3cc92628	0.024554327
41	0x3e179d73	0.14806156
42	0x3ec0ddbd	0.37669173
43	0x3d84eafd	0.06490133
44	0x3deea599	0.11652679
45	0x3e6d01bf	0.23145197
46	0x3e8d1301	0.2755356
47	0x3d34ab49	0.044108663
48	0xbed3ced7	-0.41368744
49	0xbde73376	-0.11289112
50	0xbe1072ff	-0.14106368
51	0xbceba7ee	-0.028766599
52	0xbda45b90	-0.08025277
53	0xbe3f1a41	-0.18662359
54	0xbe68eaff	-0.22745894
55	0x3eb8b321	0.36074165
56	0xbd82a266	-0.06378631
57	0x3b7102d3	0.0036775365
58	0x3e2a527f	0.16633032
59	0x3e5c6141	0.21521474
60	0xbbd1b015	-0.0063991644
61	0xbf20d2bc	-0.62821555
62	0xbc77a600	-0.015115261
63	0xbe687e71	-0.22704484
64	0x3b95a7e6	0.004567134
65	0x3b9e7db2	0.0048367614
66	0xbc27f9e3	-0.010252449
67	0x3ea9de33	0.33177337
68	0xbe9c244f	-0.3049645
69	0xbe06c35b	-0.1316046
70	0x3d9fe116	0.078066036
71	0xbea341b8	-0.31886077
72	0xbcdee2ae	-0.027207699
73	0x3e77417f	0.24146079
74	0xbe9031c8	-0.2816298
75	0x3e64fd12	0.22362164
76	0xbebba8c2	-0.3665219
77	0x3d8b5c9e	0.06804775
78	0x3e8936df	0.26799676
79	0xbcd2a011	-0.025711091
80	0x3ea55293	0.32289562
81	0xbe0adecd	-0.13561554
82	0x3cc445a4	0.023958988
83	0x3e98cc72	0.2984348
84	0x3c3d3b3c	0.011549767
85	0x3de4234f	0.11139547
86	0x3e7bebd0	0.24601674
87	0x3e485439	0.19563378
88	0xbeae848b	-0.34085497
89	0xbea6b4a2	-0.32559687
90	0xbe011b13	-0.12607984
91	0x3d7f9a24	0.06240286
92	0x3d89b7e2	0.06724526
93	0x3c75b614	0.014997024
94	0x3dd4a28a	0.10382564
95	0x3de2f58c	0.110819906
96	0xbd6d6414	-0.05795677
97	0xbe6ea8e9	-0.23306622
98	0x3d9489d0	0.07252848
99	0x3ea30272	0.31837803
100	0xbd8ff461	-0.070290335
101	0x3df9c74a	0.121962145
102	0x3d05af29	0.03263775
103	0xbe1d8d95	-0.1538604
104	0xbdf8185b	-0.121140204
105	0xbe510b3e	-0.20414445
106	0x3f027e8f	0.50974363
107	0xbe2ca7f2	-0.16860941
108	0xbcc68c64	-0.024236865
109	0xbafb30e1	-0.0019164347
110	0x3e2efe20	0.17089128
111	0x3e0189bf	0.12650202
112	0xbc81ba86	-0.015836012
113	0xbe696184	-0.22791106
114	0xbcf410a8	-0.029793099
115	0xbe1809d7	-0.14847504
116	0x3eaf208c	0.3420452
117	0xbd27858b	-0.04089884
118	0xbecf30ca	-0.4046691
119	0x3e92595b	0.28583798
120	0xbd80a0ef	-0.06280696
121	0xbd5a0e96	-0.053236566
122	0xbe1b94d2	-0.15193489
123	0xbe8b86c6	-0.2725126
124	0x3ed7e4ae	0.42166656
125	0x3d62015c	0.055177078
126	0x3dd10db5	0.102076925
127	0xbe935164	-0.28773034
128	0xbcf89e1d	-0.030348832
129	0x3cb06e5f	0.021537004
130	0x3d79207c	0.060821995
131	0xbef2ee72	-0.47447544
132	0x3d51c76e	0.05121558
133	0x3ec8853e	0.39164156
134	0x3db8326a	0.08993991
135	0xbe8f5cee	-0.28000587
136	0x3e580d12	0.21098736
137	0x3b445126	0.0029955595
138	0xbe839f5c	-0.2570752
139	0xbb8ff453	-0.0043931394
140	0x3c8170a5	0.015800783
141	0x3e6d1715	0.23153336
142	0x3e8b2808	0.2717898
143	0x3e87e792	0.26543862
144	0x3d28e725	0.04123606
145	0xbd8f78dc	-0.07005474
146	0xbe8efcf3	-0.2792736
147	0xbe6f8046	-0.23388776
148	0xbdba1b8d	-0.09087286
149	0xbe2f393d	-0.17111678
150	0xbd0b9016	-0.034072958
151	0x3e01c3f2	0.12672403
152	0x3e99bb4a	0.30025703
153	0x3e65baad	0.22434492
154	0xbe442bc9	-0.19157328
155	0x3e39bdd9	0.18138827
156	0xbe60cb08	-0.2195245
157	0x3e7a8518	0.24464834
158	0xbd53619c	-0.05160676
159	0xbe805748	-0.2506659
160	0x3e5aec2c	0.21379155
161	0x3daac2dc	0.08337948
162	0x3e111b1d	0.14170499
163	0x3c841d23	0.016127175
164	0x3e49b0a4	0.1969629
165	0x3e73aa70	0.23795485
166	0x3e5d8c2a	0.216355
167	0xbec1aa99	-0.37825468
168	0x3e6b26b0	0.22963977
169	0xbec93cb0	-0.39304113
170	0x3e18fe3e	0.14940736
171	0xbd83e23f	-0.064396374
172	0x3c7ee94b	0.015558551
173	0xbecf583a	-0.40497
174	0x3e2a99bf	0.16660212
175	0x3e7aed7e	0.24504659
176	0x3eb893d3	0.3605028
177	0xbcde61a9	-0.027146177
178	0xbeca5190	-0.39515352
179	0xbe67b016	-0.22625765
180	0xbd697053	-0.056991886
181	0x3e82a091	0.25513127
182	0x3e9272ee	0.2860331
183	0x3e2b0a22	0.16703084
184	0xbc46bb48	-0.012129612
185	0xbb033db6	-0.0020025796
186	0xbc166479	-0.009179228
187	0xbeebbe4c	-0.46043622
188	0x3ea7cb59	0.3277233
189	0x3c79a7bc	0.015237745
190	0xbe87f8f6	-0.2655713
191	0x3dd30be1	0.10305
192	0xbdef79f9	-0.11693186
193	0x3d42fe31	0.047605697
194	0x3e45d441	0.1931925
195	0xbe425d5b	-0.18980925
196	0xbec0b9ed	-0.3764185
197	0x3e6614e4	0.22468907
198	0xbe6a0ead	-0.22857161
199	0xbe98729b	-0.29774937
200	0x3edff0e7	0.4373848
201	0xbe51df78	-0.20495403
202	0x3e52fbea	0.2060391
203	0x3db9ad53	0.09066262
204	0xbe09c8eb	-0.1345555
205	0x3e01905d	0.12652726
206	0x3ea370ee	0.31922096
207	0x3e2292fe	0.15876386
208	0xbf297518	-0.66194296
209	0xbd1e798a	-0.038690127
210	0xbd516193	-0.051118445
211	0x3e7b8c4c	0.24565238
212	0xbe0c3dcd	-0.1369545
213	0x3e26dfe0	0.16296339
214	0x3e2b12c4	0.16706377
215	0xbe5f7d44	-0.21825129
216	0x3ead6376	0.33864945
217	0xbe0efa69	-0.13962711
218	0xbea07948	-0.3134253
219	0x3e53c5e7	0.20680963
220	0xbeac86f7	-0.3369672
221	0xbed6eb07	-0.41976187
222	0xbe036557	-0.12831627
223	0x3e8c48fd	0.27399436
224	0x3eb82b06	0.35970324
225	0x3e22321e	0.1583943
226	0xbe37ba46	-0.17942151
227	0xbe84d539	-0.25943926
228	0xbc1c5b7d	-0.009543297
229	0xbf02ccef	-0.51093954
230	0x3ebf82f5	0.374046
231	0x3c978d24	0.018499918
232	0x3eb042e1	0.34426025
233	0x3d2d6fa7	0.042342808
234	0x3daccf2e	0.08437954
235	0xbe820b43	-0.25399217
236	0xbf0be203	-0.5464174
237	0x3e69dd89	0.22838415
238	0xbeb6c034	-0.35693514
239	0xbb3c281e	-0.0028710435
240	0x3a59c882	0.0008307771
241	0xbd817219	-0.063205905
242	0x3e805186	0.25062197
243	0xbea7b8a3	-0.32758054
244	0x3e8ee890	0.27911806
245	0x3e373c71	0.1789415
246	0xbebaec54	-0.3650843
247	0xbeb5e506	-0.35526294
248	0xbda6ffa7	-0.081542306
249	0xbd3b5478	-0.045734853
250	0x3e97c112	0.29639488
251	0xbe575e54	-0.21032077
252	0xbe1aa2af	-0.15101121
253	0x3e7bf6e8	0.24605906
254	0x3e37401d	0.17895551
255	0xbe3b268d	-0.18276425

fc1.bias f4 [256]
0	0xbd5b6862	-0.053566344
1	0xbe1e3d06	-0.15452966
2	0xbdb181dc	-0.08667347
3	0x3db4e35c	0.08832428
4	0xbd209f18	-0.039214224
5	0xbd27bd36	-0.04095193
6	0xbe725f7d	-0.23669238
7	0x3c4c12bc	0.0124556385
8	0xbe9db018	-0.3079841
9	0xbe7a3042	-0.24432471
10	0x3e7e0822	0.2480779
11	0xbe126515	-0.14296372
12	0x3e4388e6	0.19095191
13	0x3e0265e0	0.12734175
14	0xbe64d41b	-0.22346537
15	0xbe1c12c1	-0.15241529
16	0x3c052ae2	0.0081279
17	0xbdbbbd29	-0.09166939
18	0xbe057a73	-0.13034992
19	0xbe61b53c	-0.22041792
20	0x3cdc04d0	0.026857764
21	0xbea9d03c	-0.33166683
22	0x3e3ab9c1	0.18234922
23	0xbe81d6bd	-0.25359145
24	0x3e2ae8a7	0.16690312
25	0x3d6e74be	0.058216803
26	0x3e622250	0.22083402
27	0x3e71863a	0.2358636
28	0x3d88f0c8	0.066865504
29	0xbea1d6f7	-0.31609318
30	0xbeabfecc	-0.33592832
31	0xbe885361	-0.26626113
32	0xbe09ddf7	-0.13463579
33	0xbde84712	-0.113416806
34	0x3ca51aaa	0.020154316
35	0x3e594bba	0.21220294
36	0xbc412ee3	-0.011790964
37	0x3eab3a14	0.33442748
38	0x3e9707cf	0.29498145
39	0x3e045de0	0.12926435
40	0x3eb33be8	0.35006642
41	0xbd70a772	-0.05875344
42	0xbe7bb3cc	-0.24580306
43	0xbe972580	-0.29520798
44	0x3dbee56a	0.09321101
45	0x3e86de49	0.26341465
46	0xbd3b65c9	-0.045751367
47	0x3cf3a50b	0.029741785
48	0x3ea4b16d	0.32166615
49	0xbe3b54ca	-0.18294063
50	0xbdb646b5	-0.08900205
51	0xbe27d054	-0.16388065
52	0xbe837fd1	-0.25683454
53	0x3d99d9e4	0.075122625
54	0xbdb5eee7	-0.08883458
55	0xbca902c5	-0.020631203
56	0xbeb77ee7	-0.35839006
57	0x3e6678df	0.22507046
58	0x3eaa814d	0.33301774
59	0x3dc71538	0.09720844
60	0xbe756a78	-0.23966396
61	0x3df30446	0.118660495
62	0xbe56340d	-0.20918293
63	0x3ead4c0e	0.33847088
64	0xbe627488	-0.22114766
65	0xbea3f12d	-0.3201994
66	0xbeaabe36	-0.33348244
67	0x3eb1d686	0.3473398
68	0x3e7f93a8	0.2495867
69	0x3e123707	0.14278804
70	0xbe2ea5b2	-0.17055395
71	0xbc82a913	-0.015949761
72	0xbd7f5d29	-0.062344704
73	0x3af95bdc	0.0019024569
74	0x3ea77d89	0.32712963
75	0x3dd3d99b	0.10344239
76	0x3e9fb86d	0.31195393
77	0xbe60e077	-0.21960627
78	0x3e170e67	0.14751588
79	0xbdf1997d	-0.11796854
80	0x3e817fbe	0.25292772
81	0x3e4b0f91	0.19830157
82	0xbd73baf9	-0.059504483
83	0x3e05074c	0.12991065
84	0xbe12c0e2	-0.14331391
85	0xbe928cc4	-0.2862302
86	0xbe93be2c	-0.28856027
87	0x3c240292	0.010010378
88	0xbe6dc0a0	-0.23218012
89	0x3e7eb552	0.24873856
90	0xbe73acb5	-0.23796351
91	0x3e58777d	0.21139331
92	0x3e564264	0.20923764
93	0x3e566970	0.20938659
94	0xbeab23a9	-0.33425644
95	0xbeb2fb38	-0.3495729
96	0xbea2aaa6	-0.3177082
97	0x3e49d9a5	0.19711931
98	0xbe9fa775	-0.31182447
99	0xbe5e686c	-0.21719521
100	0x3ea4886e	0.32135338
101	0xbe9ff2db	-0.31239972
102	0xbe7139ac	-0.23557156
103	0x3e561a59	0.20908488
104	0x3dae3ee1	0.08508087
105	0xbe30616b	-0.17224662
106	0x3e3d543f	0.18489169
107	0x3e127019	0.14300574
108	0xbe10cd9e	-0.14140937
109	0xbe3b0a3b	-0.18265621
110	0xbe230d91	-0.15923144
111	0x3c29f02a	0.010372201
112	0xbe4af1f7	-0.19818865
113	0xbe92f72a	-0.28704196
114	0x3e2604b6	0.16212735
115	0x3eac892d	0.33698407
116	0x3d59d162	0.0531782
117	0xbe70cec0	-0.23516369
118	0x3e7c4893	0.2463706
119	0xbeaaf62a	-0.33390933
120	0x3d833ce7	0.064081006
121	0x3d1e6e2e	0.038679294
122	0xbe1c927c	-0.15290254
123	0xbdee3808	-0.11631781
124	0x3de47a52	0.11156143
125	0x3e3002b0	0.17188525
126	0x3e9f2d94	0.3108946
127	0xbce1e014	-0.02757267
128	0xbe37be04	-0.17943579
129	0xbe27a343	-0.16370873
130	0x3d50a6b8	0.050940245
131	0xbe1b3b47	-0.15159331
132	0xbeaa82e5	-0.3330299
133	0xbcdd13a2	-0.0269869
134	0xbda7a540	-0.08185816
135	0x3d36756d	0.04454558
136	0xbaec427c	-0.0018025185
137	0x3ea3f802	0.32025152
138	0xbd86f05a	-0.06588812
139	0xbe81f97f	-0.25385663
140	0x3e818225	0.25294605
141	0x3da9ce18	0.082912624
142	0xbd8c599c	-0.06853029
143	0x3dde6d01	0.108606346
144	0xbeb34fb0	-0.35021734
145	0xbd5ba001	-0.05361939
146	0xbe2c13f0	-0.1680448
147	0xbe42ccc9	-0.19023432
148	0x3e5aca67	0.21366273
149	0x3e329289	0.17438711
150	0xbe6090bb	-0.2193021
151	0x3e9af44c	0.3026451
152	0xbeac6392	-0.33669716
153	0xbe3b82ed	-0.18311663
154	0x3e44cded	0.1921918
155	0xbeb10522	-0.3457423
156	0x3e56d0f8	0.20978153
157	0xbd8ffd88	-0.07030779
158	0xbddd6b69	-0.108115025
159	0x3ea6e832	0.32599026
160	0x3e19df2e	0.15026543
161	0xbc2b7e11	-0.010467068
162	0xbd967f45	-0.073484935
163	0xbc187b12	-0.009306686
164	0x3e76f946	0.24118528
165	0xbeb17602	-0.34660345
166	0x3e4c8b1a	0.19974938
167	0x3ebc7654	0.36809027
168	0x3d4b74ef	0.049672063
169	0xbe8db4a2	-0.27676874
170	0x3e290fc7	0.16509925
171	0x3df3178e	0.11869727
172	0xbe1b209a	-0.15149155
173	0x3dc60867	0.09669571
174	0xbeab9197	-0.33509514
175	0x3e90b336	0.28261727
176	0x3e8e8e6c	0.27843034
177	0xbdaa1aae	-0.0830587
178	0x3d5da455	0.054111797
179	0x3d92dac2	0.07170631
180	0xbd94a874	-0.072586924
181	0x3e94dfa3	0.2907687
182	0xbe8ab597	-0.27091667
183	0xbe02156b	-0.12703483
184	0x3e5bd2c5	0.21467121
185	0xbe610f15	-0.2197841
186	0x3e389071	0.1802385
187	0xbe1310eb	-0.14361922
188	0x3e129dc8	0.14318001
189	0xbdecb744	-0.11558393
190	0x3db45a38	0.0880627
191	0xbe39601a	-0.18103066
192	0xbea49bbe	-0.32150072
193	0xbe01f6f6	-0.12691864
194	0xbdc79d34	-0.09746781
195	0x3e76e659	0.24111308
196	0x3e7805f7	0.24221025
197	0x3e1ce6ba	0.1532239
198	0x3e070955	0.13187154
199	0xbe9bace4	-0.30405343
200	0xbd1fbf33	-0.0390007
201	0x3e080efc	0.13286966
202	0xbe311eda	-0.17296925
203	0x3d89cc2b	0.06728395
204	0x3e1228a3	0.14273314
205	0x3e252cf2	0.16130427
206	0xbe933f79	-0.28759363
207	0xbe7a19cb	-0.24423902
208	0x3d9ba1cb	0.07599219
209	0xbd8d12f1	-0.068883784
210	0xbb7e5edd	-0.0038813867
211	0x3c1b1d5a	0.009467447
212	0xbeaf6984	-0.3426019
213	0x3e3762dc	0.17908806
214	0x3e2dca95	0.1697181
215	0xbe830f7a	-0.25597745
216	0x3e4b0ff2	0.19830301
217	0x3e163795	0.1466964
218	0x3ea83370	0.32851744
219	0x3ea1dce2	0.31613833
220	0x3d3ade19	0.045621965
221	0x3e33fe9d	0.17577596
222	0x3d82bc1d	0.06383536
223	0x3eac848a	0.3369487
224	0xbcfa325c	-0.030541591
225	0x3e341b61	0.17588569
226	0x3ea4dce6	0.32199782
227	0xbe22d41b	-0.15901224
228	0xbea9d910	-0.33173418
229	0xbea9a6be	-0.33135027
230	0xbd2294e1	-0.039692763
231	0x3df757d1	0.120772965
232	0x3ddfe207	0.10931783
233	0xbe80d86f	-0.25165126
234	0xbe3cebf2	-0.18449381
235	0x3d17097d	0.036874283
236	0xbea1b496	-0.3158309
237	0x3e637bb3	0.22215156
238	0x3e84a514	0.25907195
239	0xbe3b0356	-0.18262991
240	0x3e091ea6	0.13390598
241	0x3d827c3c	0.06371352
242	0xbde39932	-0.11113204
243	0xbe05cc9c	-0.13066334
244	0xbca37487	-0.019953026
245	0xbe908a5a	-0.28230554
246	0x3d615e05	0.055021305
247	0x3eac5b50	0.33663416
248	0xbeaee356	-0.3415782
249	0x3ea81f60	0.32836437
250	0xbc92aece	-0.017905619
251	0xbe6b08de	-0.22952601
252	0x3d3553b0	0.044269264
253	0xbc239773	-0.009984839
254	0xbda63bf2	-0.081169024
255	0x3e268563	0.1626182

bn1.weight f4 [256]
0	0x3f76472b	0.96202344
1	0x3f6e229b	0.93021554
2	0x3f76eed1	0.96458155
3	0x3f6ce888	0.92542315
4	0x3f6baaca	0.9205748
5	0x3f4909f8	0.78530836
6	0x3f692cc6	0.91083944
7	0x3f9a6157	1.2060956
8	0x3fa67cc3	1.3006824
9	0x3f56f780	0.83971405
10	0x3f2af809	0.6678472
11	0x3f5195b4	0.81869054
12	0x3f44075a	0.7657372
13	0x3f54f23f	0.8318214
14	0x3f7b9cbc	0.9828603
15	0x3f7f4a8e	0.99723136
16	0x3f882b00	1.0638123
17	0x3f5e4655	0.8682607
18	0x3f75dfe6	0.96044767
19	0x3f48de3e	0.78464115
20	0x3f723ed0	0.94627094
21	0x3f607333	0.8767578
22	0x3f4d4620	0.8018513
23	0x3f9e5d74	1.237227
24	0x3f72bd9c	0.9482057
25	0x3f5de9d4	0.8668492
26	0x3f62b135	0.88551646
27	0x3f69f6de	0.91392314
28	0x3f68eec7	0.90989345
29	0x3f7e63ae	0.9937085
30	0x3f6bb6e5	0.9207595
31	0x3f5fb5ca	0.87386763
32	0x3f51a026	0.8188499
33	0x3f865c40	1.0496902
34	0x3f85a8d2	1.0442145
35	0x3f76c20c	0.9638984
36	0x3f8508ed	1.0393349
37	0x3f6959ca	0.9115263
38	0x3f82dd67	1.0223817
39	0x3f85c33e	1.0450208
40	0x3f702c35	0.93817455
41	0x3f8dce40	1.1078568
42	0x3f353e41	0.70798117
43	0x3f87071e	1.0549047
44	0x3f91092e	1.1330926
45	0x3f8c64b4	1.0968232
46	0x3f8d4a25	1.1038252
47	0x3f37d396	0.7180723
48	0x3f76270e	0.9615334
49	0x3f7b3a87	0.9813618
50	0x3f6e4b93	0.9308407
51	0x3f6ce24d	0.9253281
52	0x3f6f9ae3	0.93595713
53	0x3f9b6f10	1.2143269
54	0x3f801a60	1.0008049
55	0x3f826779	1.0187827
56	0x3fa84ef9	1.31491
57	0x3f912ba0	1.1341438
58	0x3f5b19c2	0.8558618
59	0x3f639042	0.88891995
60	0x3f89f426	1.0777633
61	0x3faf118e	1.3677232
62	0x3f449ad1	0.7679873
63	0x3f5b6133	0.8569519
64	0x3f68f88c	0.9100425
65	0x3f584e79	0.8449474
66	0x3f6cd42a	0.92511237
67	0x3f9368f9	1.151641
68	0x3f639e81	0.8891373
69	0x3f6a567b	0.9153821
70	0x3f772f28	0.9655633
71	0x3f756d12	0.95869553
72	0x3f4db9df	0.8036174
73	0x3f6c74dc	0.92365813
74	0x3f975b25	1.182469
75	0x3fad10a2	1.3520701
76	0x3f54e062	0.8315488
77	0x3f8d44e3	1.1036648
78	0x3faaa9a8	1.3333025
79	0x3f67bb5b	0.90520257
80	0x3f9ec031	1.2402402
81	0x3f83ac86	1.0287025
82	0x3f5c6f5b	0.86107415
83	0x3f6df211	0.9294749
84	0x3f81574b	1.0104765
85	0x3f71d162	0.9446012
86	0x3f706c2d	0.93915063
87	0x3f5e3342	0.86796963
88	0x3f510fca	0.8166472
89	0x3f98fc86	1.1952064
90	0x3f788c37	0.9708895
91	0x3f98c572	1.1935256
92	0x3fa56ece	1.292444
93	0x3f5885a4	0.8457892
94	0x3f7d4265	0.98929435
95	0x3faf410b	1.3691725
96	0x3f5df2e3	0.8669874
97	0x3f52ffaf	0.8242139
98	0x3f89843f	1.0743483
99	0x3f532afe	0.82487476
100	0x3f5c4720	0.8604603
101	0x3f7997d6	0.9749731
102	0x3f700e17	0.937715
103	0x3f6e3530	0.9304991
104	0x3f84ca45	1.0374228
105	0x3f63c916	0.8897871
106	0x3f685f62	0.9077054
107	0x3f723fbb	0.94628495
108	0x3f5fae9b	0.873758
109	0x3f6afa1b	0.9178788
110	0x3f6d2cd7	0.92646545
111	0x3f7443aa	0.9541575
112	0x3f82763c	1.0192332
113	0x3f52faea	0.82414114
114	0x3f7096d1	0.9398013
115	0x3f78aabe	0.9713553
116	0x3f60a130	0.8774595
117	0x3f5fc36d	0.8740757
118	0x3f913834	1.1345277
119	0x3f6f0b7b	0.9337689
120	0x3f75a4ab	0.9595439
121	0x3f61703b	0.88061875
122	0x3f5a23dd	0.85210973
123	0x3f7a907a	0.97876704
124	0x3f912f36	1.1342533
125	0x3f902f03	1.1264347
126	0x3f76cd4c	0.9640701
127	0x3f79f607	0.9764103
128	0x3f877272	1.0581801
129	0x3f68a18f	0.9087152
130	0x3f663aab	0.8993327
131	0x3f6f3c7d	0.9345167
132	0x3f56b09c	0.83863235
133	0x3f850c58	1.0394392
134	0x3f6dd153	0.9289753
135	0x3f5da345	0.86577255
136	0x3f7a4aa2	0.9777013
137	0x3f77f0d3	0.96851844
138	0x3f7010f1	0.9377585
139	0x3f780e24	0.96896577
140	0x3fa1aed4	1.2631478
141	0x3f6b553d	0.9192694
142	0x3f59a097	0.85010666
143	0x3f6b0687	0.91806835
144	0x3f914bcb	1.1351255
145	0x3f70a410	0.9400034
146	0x3f94131c	1.1568332
147	0x3f735706	0.9505466
148	0x3f808542	1.0040667
149	0x3f6818aa	0.90662634
150	0x3f599f4b	0.85008687
151	0x3f8008fe	1.0002744
152	0x3f85093d	1.0393444
153	0x3f66a68c	0.9009788
154	0x3f7b2792	0.98107255
155	0x3f52ddc5	0.82369643
156	0x3f8f1263	1.1177486
157	0x3f6fc724	0.9366324
158	0x3f6c8af0	0.923995
159	0x3f54d7f0	0.83141994
160	0x3f80a309	1.0049754
161	0x3f6ac361	0.91704375
162	0x3f64efe9	0.89428574
163	0x3f890e34	1.070746
164	0x3f2f1ac0	0.6840019
165	0x3f8669b9	1.0501014
166	0x3f6082e4	0.87699723
167	0x3f9fb3e6	1.2476776
168	0x3f6b5db2	0.9193984
169	0x3f559988	0.83437395
170	0x3f53035f	0.8242702
171	0x3f6990b3	0.9123642
172	0x3f7e40b8	0.993175
173	0x3f5340b3	0.825206
174	0x3f52cdf1	0.8234549
175	0x3f752191	0.95754343
176	0x3f6035d4	0.87582135
177	0x3f81141b	1.0084261
178	0x3f720612	0.9454051
179	0x3f7013e6	0.9378036
180	0x3f90165a	1.1256821
181	0x3f650119	0.894548
182	0x3f7046e1	0.9385815
183	0x3f6e035d	0.9297388
184	0x3f3be855	0.73401386
185	0x3f52d59f	0.8235721
186	0x3f7ddc27	0.9916405
187	0x3f63adbc	0.8893697
188	0x3f9e40f4	1.2363572
189	0x3f71047a	0.94147456
190	0x3f99b0d8	1.2007093
191	0x3f7182b5	0.9434007
192	0x3f5f06f4	0.87119985
193	0x3f7093b9	0.93975407
194	0x3f8c9807	1.0983895
195	0x3f6279e7	0.8846726
196	0x3f635e3d	0.8881567
197	0x3f58a4e2	0.8462659
198	0x3f66a12e	0.9008969
199	0x3f8f6ba4	1.1204724
200	0x3f6148d5	0.8800176
201	0x3f80232c	1.0010734
202	0x3fa39213	1.2778953
203	0x3f61f995	0.88271457
204	0x3f76479f	0.96203035
205	0x3f4c89ca	0.7989775
206	0x3fabc7c0	1.3420334
207	0x3f7ae985	0.9801257
208	0x3f5c0a9d	0.85953695
209	0x3f6ac861	0.91712004
210	0x3fa775e5	1.3082854
211	0x3f7615b2	0.96126854
212	0x3f774d35	0.96602184
213	0x3f6e3657	0.93051666
214	0x3f698c24	0.9122946
215	0x3f560e62	0.83615696
216	0x3f6eca4c	0.9327743
217	0x3f910aee	1.133146
218	0x3f84b048	1.0366297
219	0x3f7e0c65	0.9923766
220	0x3f9789e3	1.1838955
221	0x3f933da4	1.1503186
222	0x3f9127b3	1.134024
223	0x3f5515f2	0.8323661
224	0x3f682859	0.90686566
225	0x3f627722	0.8846303
226	0x3f83e119	1.0303069
227	0x3f62273e	0.8834113
228	0x3f66e85d	0.9019831
229	0x3f6d3d7c	0.9267194
230	0x3f8f1cfc	1.118072
231	0x3f78584e	0.9700974
232	0x3f801f47	1.0009545
233	0x3f5b8a11	0.8575755
234	0x3f8d914f	1.105997
235	0x3f79de9c	0.976053
236	0x3f9763d8	1.1827345
237	0x3f54b36f	0.83086294
238	0x3f6f2bbd	0.93426114
239	0x3f67ee44	0.9059794
240	0x3f4fd2d6	0.81181085
241	0x3f7652aa	0.96219885
242	0x3f4723e8	0.77789164
243	0x3f8c5780	1.0964203
244	0x3f8216c5	1.0163199
245	0x3f4cac77	0.7995066
246	0x3f593c82	0.8485795
247	0x3f2efd27	0.6835503
248	0x3f8fc204	1.1231084
249	0x3f82bb08	1.0213327
250	0x3f565574	0.8372414
251	0x3f6a927d	0.91629773
252	0x3f444bf6	0.7667841
253	0x3f5bcc6d	0.85858804
254	0x3f782c8c	0.96942973
255	0x3f8d88e6	1.1057403

bn1.bias f4 [256]
0	0xbd2c259c	-0.042028055
1	0xbe18a258	-0.14905679
2	0xbe4ebf1b	-0.20190088
3	0xbdc6d89b	-0.09709283
4	0xbe43173e	-0.19051835
5	0xba808761	-0.0009805971
6	0xbe590927	-0.21194898
7	0xbe0fda1e	-0.14048049
8	0xbe89d6b8	-0.2692163
9	0xbea49350	-0.3214364
10	0xbd8931f3	-0.0669898
11	0xbe0c77c4	-0.13717562
12	0xbe4aaa7e	-0.197916
13	0xbe8a1618	-0.2696998
14	0xbddf7353	-0.10910668
15	0xbc9f73ce	-0.0194644
16	0xbb32d2fb	-0.0027286399
17	0xbe14a5bd	-0.14516349
18	0xbdd16a94	-0.10225406
19	0xbe0d1bf2	-0.13780192
20	0xbe1bca06	-0.15213785
21	0xbe828ef4	-0.2549969
22	0xbe7f88d7	-0.24954544
23	0xbe50a8cb	-0.2037689
24	0xbe3f7703	-0.18697743
25	0xbe01524c	-0.1262905
26	0xbead5e11	-0.3386083
27	0xbdfed477	-0.12442868
28	0xbdea8f24	-0.11453083
29	0xbe1f0425	-0.15528925
30	0xbe24122f	-0.16022561
31	0xbe1a6580	-0.15077782
32	0xbd9e18ce	-0.07719575
33	0xbd752dce	-0.059858136
34	0xbe205aab	-0.15659587
35	0xbe5eff65	-0.21777113
36	0xbe8a0a86	-0.26961154
37	0xbe5727a9	-0.21011223
38	0xbdfca66a	-0.123364285
39	0xbe1f7fc3	-0.15576081
40	0xbdcf7cf0	-0.10131252
41	0xbe7fbaeb	-0.24973647
42	0xbe15de0a	-0.14635482
43	0xbcd49acd	-0.025952721
44	0xbddcee83	-0.1078768
45	0xbe12dfb9	-0.14343156
46	0xbe3edd7d	-0.18639179
47	0xbdd72663	-0.105053686
48	0xbdbe7547	-0.09299713
49	0xbe2e1e53	-0.17003755
50	0xbdfb31ed	-0.12265382
51	0xbe790fe9	-0.24322475
52	0xbe6c8cb7	-0.23100553
53	0xbe6398e3	-0.2222629
54	0xbed2e7d7	-0.41192505
55	0xbe1d7d37	-0.15379797
56	0xbe9e0750	-0.30864954
57	0xbe0226a6	-0.12710056
58	0xbdf08a1f	-0.117450945
59	0xbe900b39	-0.28133562
60	0x3dac567c	0.08414933
61	0xbe8d4742	-0.27593428
62	0xbdc75b96	-0.097342655
63	0xbe12c49d	-0.14332815
64	0xbe0b1a2c	-0.13584203
65	0xbe2ce341	-0.16883565
66	0xbd845610	-0.064617276
67	0xbe685f5b	-0.22692625
68	0xbdfc8503	-0.123300575
69	0xbea33504	-0.31876385
70	0xbcff6705	-0.031177053
71	0xbc323bfd	-0.01087856
72	0xbb2656f5	-0.002538142
73	0xbeb39465	-0.35074154
74	0xbe4377a2	-0.19088605
75	0xbe4581d8	-0.19287813
76	0xbe151292	-0.14557865
77	0xbe22eda7	-0.1591097
78	0xbe746744	-0.23867518
79	0xbde7c601	-0.11317063
80	0xbe937b10	-0.28804827
81	0xbe43acfd	-0.19108959
82	0xbe6db6b2	-0.23214224
83	0xbc52876e	-0.012849672
84	0xbe3390b1	-0.17535664
85	0xbe006a90	-0.1254065
86	0xbdc4cc4e	-0.096092805
87	0xbd4eb48c	-0.05046515
88	0xbe1354ad	-0.1438777
89	0xbe5eec29	-0.21769775
90	0xbe18cce2	-0.14921907
91	0xbe8812f4	-0.2657696
92	0xbe44cc0e	-0.19218466
93	0xbe5f4652	-0.21804169
94	0xbe550d1c	-0.20805782
95	0xbe89f237	-0.26942608
96	0xbe57689b	-0.21035998
97	0xbe807f41	-0.25097087
98	0xbd7de0f9	-0.06198213
99	0xbe49d8cb	-0.19711606
100	0xbd4b409d	-0.049622167
101	0xbe2e4e4c	-0.17022055
102	0xbe2df951	-0.16989638
103	0xbe540ec1	-0.20708753
104	0xbd40b4d9	-0.04704747
105	0xbe04b200	-0.12958527
106	0xbd92c100	-0.07165718
107	0xbe1257c4	-0.14291292
108	0xbe2c2b9e	-0.16813514
109	0xbd56186e	-0.05226939
110	0xbe007f47	-0.12548552
111	0xbdb630f8	-0.08896059
112	0xbe673f00	-0.22582626
113	0xbee0f95a	-0.4394024
114	0xbd8a48a5	-0.06752137
115	0xbe998716	-0.29985875
116	0xbe870256	-0.2636897
117	0xbe0d0748	-0.13772309
118	0xbe50558b	-0.20345132
119	0xbd3ae5c1	-0.045629267
120	0xbe1bd319	-0.15217246
121	0xbe360568	-0.177755
122	0xbdaefbc2	-0.08544113
123	0xbe25c897	-0.161898
124	0xbddb2262	-0.106999174
125	0xbe1f4204	-0.15552527
126	0xbd8b6af4	-0.06807509
127	0xbe6078a0	-0.21921015
128	0xbe03a71b	-0.12856714
129	0xbd471a3a	-0.048608996
130	0xbd9b45f3	-0.07581701
131	0xbb861985	-0.0040923976
132	0xbe7a7fb4	-0.24462777
133	0xbe192296	-0.149546
134	0xbe8d15f3	-0.27555808
135	0xbc9d54d6	-0.019205492
136	0xbe2e808d	-0.17041226
137	0xbdf6ab4e	-0.120443925
138	0xbe28ce97	-0.16485058
139	0xbc3cfb36	-0.011534503
140	0xbe351e53	-0.17687349
141	0xbe35863c	-0.17726988
142	0xbd68a176	-0.056794606
143	0xbe31955d	-0.17342134
144	0x3c737883	0.014860275
145	0xbead2968	-0.33820653
146	0xbe44982d	-0.19198675
147	0xbe916637	-0.28398296
148	0xbe1eaf76	-0.1549662
149	0xbe134c05	-0.14384468
150	0xbe1d160d	-0.15340443
151	0xbddb1442	-0.10697223
152	0xbda81b51	-0.08208335
153	0xbdb78867	-0.089615636
154	0xbdfb5e37	-0.122738294
155	0xbd1100b1	-0.03540105
156	0xbe5aec35	-0.21379168
157	0xbe4b3655	-0.19844945
158	0xbe0e5687	-0.13900195
159	0xbd89715a	-0.06711073
160	0x3d777284	0.060411945
161	0xbd0e23f5	-0.03470226
162	0xbe27415c	-0.16333526
163	0xbe31613c	-0.17322248
164	0xbe373cc3	-0.17894273
165	0xbe14a292	-0.1451514
166	0xbdba5c81	-0.09099675
167	0xbe503dbd	-0.20336051
168	0xbd9d9fa9	-0.076964684
169	0xbe3109f3	-0.17288952
170	0xbc3bb1ad	-0.011455935
171	0xbcd3f884	-0.025875337
172	0xbdff85e9	-0.12476713
173	0xbde6b1f9	-0.11264414
174	0xbe809ee8	-0.25121236
175	0xbe038d6e	-0.1284692
176	0xbe055d53	-0.13023882
177	0xbde8edd7	-0.11373489
178	0xbde0062b	-0.109386764
179	0xbe8ed57e	-0.27897257
180	0xbe21f523	-0.15816168
181	0xbe258e73	-0.16167621
182	0x3cdaef85	0.02672554
183	0xbe3569d7	-0.17716156
184	0xbdd47e8d	-0.103757
185	0xbe60d9a2	-0.2195802
186	0xbe674391	-0.22584368
187	0xbe72e89f	-0.2372155
188	0xbe9c4d29	-0.3052762
189	0xbd8a38ba	-0.06749101
190	0xbe51971c	-0.204678
191	0xbe0da0ac	-0.13830823
192	0xbe52b5d7	-0.20577179
193	0xbe00376e	-0.12521145
194	0xbe17d1c8	-0.14826119
195	0xbe8f2845	-0.2796041
196	0xbda6ff7f	-0.08154201
197	0xbe46f4d5	-0.19429334
198	0xbe00d487	-0.12581073
199	0x3e137bc1	0.14402677
200	0xbe924ae2	-0.28572756
201	0xbdb4b640	-0.08823824
202	0xbe6a7ba6	-0.2289873
203	0xbe8c207f	-0.27368543
204	0xbe8f12fa	-0.27944165
205	0xbe70c170	-0.2351129
206	0xbe7265a3	-0.23671584
207	0xbe2e4e99	-0.1702217
208	0xbdda679e	-0.10664295
209	0xbde183df	-0.110114805
210	0xbe8357ac	-0.25652826
211	0xbe45418d	-0.19263287
212	0xbe8c120d	-0.27357522
213	0xbe766b21	-0.24064304
214	0xbe09f079	-0.1347064
215	0xbe837b26	-0.25679892
216	0xbdc30a05	-0.095233954
217	0xbe309dac	-0.17247647
218	0xbcbb2cb2	-0.02284846
219	0xbd6aa133	-0.057282638
220	0xbe87469d	-0.2642106
221	0xbe1da400	-0.15394592
222	0xbe6500bb	-0.2236356
223	0xbe0dfacc	-0.13865203
224	0xbe1f9767	-0.15585099
225	0xbe51ddd4	-0.20494777
226	0xbe2020f4	-0.1563757
227	0xbe00468e	-0.12526914
228	0xbe78cc24	-0.24296623
229	0xbe0c46a5	-0.13698824
230	0xbd4ed597	-0.050496664
231	0xbe2eddc3	-0.17076783
232	0xbe5ee8a2	-0.2176843
233	0x3c5d9803	0.013525012
234	0xbe4763f7	-0.19471727
235	0xbe3b7963	-0.18308024
236	0xbe2008b0	-0.15628314
237	0xbd9aa97a	-0.07551856
238	0xbe2b17ef	-0.16708349
239	0x3cff79d1	0.031186016
240	0x3b8f3aa1	0.004371003
241	0xbe99bed5	-0.30028406
242	0xbe042cfd	-0.12907787
243	0xbcfeddfc	-0.03111171
244	0xbca1ea67	-0.019765092
245	0x3e833b4b	0.25631174
246	0xbe8addc6	-0.27122325
247	0x3dcd7bc2	0.100333706
248	0xbdb0ab34	-0.086264044
249	0xbdef910a	-0.11697586
250	0xbe5f47dd	-0.21804757
251	0x3d308678	0.04309699
252	0x3dd6a78d	0.104811765
253	0xbe3b7b45	-0.18308742
254	0xbd960a78	-0.073262155
255	0xbe00d480	-0.12581062

bn1.running_mean f4 [256]
0	0xbde02cec	-0.10946068
1	0xbe457c83	-0.19285779
2	0xbdb0b7ba	-0.08628793
3	0x3db6df1f	0.08929276
4	0xbd70660f	-0.05869108
5	0xbc89d212	-0.016823802
6	0xbe77f973	-0.24216251
7	0xbcb53ae7	-0.022122813
8	0xbea7a2a9	-0.32741287
9	0xbe840e30	-0.25792074
10	0x3e89bc3a	0.26901418
11	0xbe0732d7	-0.13202988
12	0x3e4f7f08	0.20263302
13	0x3e12fff0	0.14355445
14	0xbe55adc7	-0.20867072
15	0xbe1ab0e6	-0.15106544
16	0x3c9772bb	0.018487325
17	0xbd9a54f2	-0.07535733
18	0xbe15debd	-0.14635749
19	0xbe6764ba	-0.22597018
20	0x3d1add9c	0.037809
21	0xbeab79a2	-0.33491236
22	0x3e4335d2	0.190635
23	0xbe7f92ca	-0.2495834
24	0x3e245cbd	0.16051002
25	0x3da0684e	0.078323945
26	0x3e647ae7	0.22312509
27	0x3e57540d	0.21028157
28	0x3cfb7050	0.030693203
29	0xbea4a417	-0.3215644
30	0xbea7fbee	-0.32809395
31	0xbe833482	-0.25625998
32	0xbe016722	-0.12636998
33	0xbde69380	-0.11258602
34	0xbce7f6ce	-0.028315928
35	0x3e54f5a7	0.20796834
36	0xbc45bdff	-0.012069224
37	0x3ea878ea	0.3290475
38	0x3e85e47f	0.2615089
39	0x3de2c0e2	0.11071946
40	0x3eaf7fd8	0.34277225
41	0xbda114c9	-0.078652926
42	0xbe678f3b	-0.22613232
43	0xbea607cb	-0.3242782
44	0x3d4e0f8a	0.050307788
45	0x3e5f9ada	0.21836415
46	0xbda1dfdf	-0.07904028
47	0x3d64c277	0.05584952
48	0x3ea72045	0.32641807
49	0xbe4c5ad2	-0.1995652
50	0xbd81f902	-0.063463226
51	0xbe2d14e1	-0.16902496
52	0xbe718e23	-0.23589377
53	0x3ca867e5	0.020557353
54	0xbdbab27f	-0.09116077
55	0xbd3bfc19	-0.045894716
56	0xbec6dabb	-0.38838753
57	0x3e5c4ad9	0.21512927
58	0x3eaf9fd4	0.34301627
59	0x3dfeb2c3	0.1243644
60	0xbe833318	-0.2562492
61	0x3d608ebe	0.05482363
62	0xbe40f5d8	-0.18843782
63	0x3ea8022c	0.32814157
64	0xbe687119	-0.22699393
65	0xbe9f4a72	-0.31111485
66	0xbea5ca38	-0.32380843
67	0x3ea618bb	0.32440743
68	0x3e83a8fd	0.25714865
69	0x3e07ae4a	0.1325008
70	0xbe224024	-0.1584478
71	0xbccbee82	-0.024894003
72	0xbd1bc4a6	-0.038029335
73	0x3c1c3062	0.00953302
74	0x3e8e9394	0.27846968
75	0x3d82243e	0.06354569
76	0x3ea43567	0.32071993
77	0xbe869bed	-0.26290837
78	0x3e12750e	0.14302465
79	0xbde7d767	-0.113203816
80	0x3e5e4a12	0.21707943
81	0x3e3f7cb8	0.1869992
82	0xbd952ed1	-0.0728432
83	0x3e0a55ca	0.13509288
84	0xbe3844bd	-0.17994972
85	0xbe9c4e54	-0.3052851
86	0xbea20a92	-0.3164869
87	0x3cff0659	0.031130956
88	0xbe6bc0f8	-0.2302283
89	0x3e7000c6	0.23437795
90	0xbe68b06d	-0.22723551
91	0x3e4a7183	0.19769864
92	0x3e236342	0.15955833
93	0x3e4fdba1	0.20298626
94	0xbeb09e3f	-0.34495732
95	0xbece9c69	-0.40353706
96	0xbe96a1a5	-0.294202
97	0x3e37077b	0.17873947
98	0xbeb004d3	-0.3437868
99	0xbe44389c	-0.1916222
100	0x3ea8a5b1	0.32938913
101	0xbeaa7639	-0.33293322
102	0xbe82ca88	-0.25545144
103	0x3e6a016a	0.22852102
104	0x3d33ab6d	0.043864656
105	0xbe27e7bc	-0.16396993
106	0x3e3059f6	0.17221817
107	0x3df67a39	0.12035031
108	0xbdf26c33	-0.118370436
109	0xbe2c92a9	-0.16852821
110	0xbe1c2a20	-0.15250444
111	0x3bae1dba	0.0053136023
112	0xbe50d0a4	-0.2039209
113	0xbe9c3816	-0.3051154
114	0x3e2aae0d	0.16667958
115	0x3eb15cc7	0.34641096
116	0x3d4e88b6	0.050423346
117	0xbe687c82	-0.22703746
118	0x3e6e9f95	0.23303063
119	0xbea93355	-0.33046976
120	0x3d6a59a9	0.057214413
121	0x3c3fee1c	0.011714485
122	0xbe1ea714	-0.15493423
123	0xbe29e454	-0.16591007
124	0x3db847a6	0.08998041
125	0x3e0d8dd9	0.13823642
126	0x3ea16636	0.31523293
127	0xbdad5c60	-0.08464885
128	0xbe378a27	-0.17923795
129	0xbe4a4daf	-0.19756196
130	0x3d3c849f	0.046024915
131	0xbe1f70d9	-0.15570392
132	0xbea392d4	-0.31947958
133	0xbd6d54bc	-0.057942137
134	0xbd993d83	-0.074824356
135	0x3d1006b0	0.035162628
136	0x3a4051f0	0.00073364284
137	0x3ea6257d	0.32450476
138	0xbd537dc3	-0.051633608
139	0xbe811afd	-0.25215903
140	0x3e45234d	0.19251747
141	0x3dba25cb	0.0908924
142	0xbd83f5a2	-0.06443335
143	0x3e0548d5	0.13016064
144	0xbeb24e5c	-0.34825408
145	0xbd64ef2e	-0.055892162
146	0xbe55e27d	-0.2088718
147	0xbe451bd5	-0.19248898
148	0x3e2696e5	0.16268499
149	0x3de89c2e	0.11357914
150	0xbe59f5f0	-0.21285224
151	0x3e99b43b	0.30020317
152	0xbebfa482	-0.37430197
153	0xbe387339	-0.18012704
154	0x3e43b130	0.1911056
155	0xbeaa973e	-0.33318514
156	0x3e50e0d0	0.20398259
157	0xbda68d12	-0.08132376
158	0xbe0cca9a	-0.13749161
159	0x3ea8f627	0.330003
160	0x3e2197e8	0.15780604
161	0xbbf19b00	-0.007373214
162	0xbd73929e	-0.059465997
163	0xbca54183	-0.02017284
164	0x3e7216ed	0.23641558
165	0xbeb36d7e	-0.35044473
166	0x3e3ddac6	0.18540487
167	0x3eb366e4	0.35039437
168	0x3d71de3f	0.05904984
169	0xbe87e41d	-0.26541224
170	0x3e2858af	0.1644008
171	0x3dd7906b	0.105255924
172	0xbe255661	-0.16146232
173	0x3dc468bb	0.09590288
174	0xbeae82e3	-0.34084234
175	0x3e8ec3dc	0.27883804
176	0x3e8b6ba3	0.27230558
177	0xbdcc35c0	-0.099711895
178	0x3d20c58e	0.039250903
179	0x3da622bf	0.08112096
180	0xbdb72620	-0.08942819
181	0x3e9cfdc9	0.30662373
182	0xbe98c264	-0.29835808
183	0xbe0acb6b	-0.1355416
184	0x3e7929a6	0.24332294
185	0xbe604a82	-0.21903422
186	0x3e362b45	0.17789944
187	0xbe0820c5	-0.1329375
188	0x3e05602b	0.13024966
189	0xbdd4769b	-0.10374185
190	0x3daca938	0.084307134
191	0xbe4ad7a2	-0.1980882
192	0xbea8883c	-0.3291644
193	0xbe089aff	-0.13340376
194	0xbe215324	-0.15754372
195	0x3e732d14	0.23747665
196	0x3e83cb4b	0.25741038
197	0x3e135dbf	0.1439123
198	0x3e219f35	0.15783389
199	0xbe9bdedf	-0.30443475
200	0xbd0c16b6	-0.034201346
201	0x3e05fd5d	0.13084932
202	0xbe6881f9	-0.2270583
203	0x3d805319	0.062658496
204	0x3df4ded9	0.11956567
205	0x3e47eef8	0.19524753
206	0xbeae3006	-0.34021014
207	0xbe9046a2	-0.2817889
208	0x3d820daf	0.06350266
209	0xbd5974ba	-0.053089835
210	0xbd88fcf6	-0.066888735
211	0xbcc04061	-0.023468198
212	0xbeb3b03a	-0.35095388
213	0x3e42d3c5	0.19026096
214	0x3e22bf41	0.1589327
215	0xbe7c5b3b	-0.24644177
216	0x3e57c3f5	0.21070845
217	0x3e06c8b3	0.13162498
218	0x3eaab554	0.33341467
219	0x3ea228ae	0.3167166
220	0x3cea77c8	0.02862157
221	0x3e231b1f	0.15928315
222	0x3cbe4f4a	0.023231167
223	0x3eaf2ec5	0.3421537
224	0xbd2bf25a	-0.04197917
225	0x3e39994c	0.18124884
226	0x3eaad13f	0.33362767
227	0xbe186854	-0.14883548
228	0xbea048ff	-0.31305692
229	0xbeaa2e0a	-0.3323825
230	0xbd71a08f	-0.05899101
231	0x3df8ae7b	0.121426545
232	0x3debd6e5	0.11515597
233	0xbe823341	-0.2542973
234	0xbe5c0ca3	-0.21489196
235	0x3c10bb5a	0.008833731
236	0xbeb43747	-0.35198423
237	0x3e5ebb9c	0.21751255
238	0x3e8b62e7	0.27223894
239	0xbe31794a	-0.17331424
240	0x3e038e56	0.12847266
241	0x3d914e8e	0.07095061
242	0xbde7aeb2	-0.11312617
243	0xbe047a37	-0.12937246
244	0xbd2ef7d6	-0.042716824
245	0xbe84b603	-0.25920114
246	0x3d361112	0.044449873
247	0x3ebe4a71	0.3716617
248	0xbebe0546	-0.37113398
249	0x3e973b8f	0.29537627
250	0xbc3a2b20	-0.011362821
251	0xbe7738b7	-0.24142729
252	0x3d81474c	0.06312427
253	0x3ac5494c	0.0015051751
254	0xbdc018b4	-0.09379712
255	0x3dfa3b2c	0.122183174

bn1.running_var f4 [256]
0	0x406e84d2	3.7268567
1	0x3f33b831	0.7020293
2	0x3dc55fdb	0.096374236
3	0x3ec5c692	0.3862806
4	0x3f0b8a26	0.5450767
5	0x3f0e834a	0.5566908
6	0x3e689e3d	0.22716613
7	0x3f3acce9	0.7296892
8	0x3e5cae05	0.21550758
9	0x3e3663dc	0.17811531
10	0x3f3f271d	0.7466906
11	0x3ea757b1	0.3268409
12	0x3dacc4fd	0.0843601
13	0x3e9c4ffb	0.3052977
14	0x3dde3e41	0.10851718
15	0x3d86dd47	0.06585174
16	0x3e812edb	0.2523106
17	0x3f222cc0	0.63349533
18	0x3e2db4a0	0.16963434
19	0x3e87f8f3	0.2655712
20	0x3e0d70aa	0.13812509
21	0x3ef78a97	0.48347923
22	0x3ee62d0f	0.44956252
23	0x3d59b33c	0.053149447
24	0x3f7f8837	0.9981722
25	0x3f0c7cbd	0.54877836
26	0x3efa58b1	0.4889579
27	0x3ed866da	0.4226597
28	0x3ef547aa	0.47906238
29	0x3f8d6613	1.1046776
30	0x3ec1783d	0.37787047
31	0x3e3adc7d	0.18248172
32	0x3f06a1cb	0.52590626
33	0x3eaded2a	0.33970004
34	0x3fdbda3a	1.7175972
35	0x3f3aea43	0.73013705
36	0x3e1c1031	0.15240552
37	0x3ee64c96	0.44980305
38	0x3f01c213	0.5068676
39	0x400b4a20	2.1763992
40	0x3eb8c3ca	0.36086875
41	0x3ffda285	1.9815222
42	0x3f7e80be	0.99415195
43	0x40134548	2.3011036
44	0x3f279207	0.65457195
45	0x3f6fd379	0.93682057
46	0x3f6977c4	0.9119837
47	0x3ec8cbad	0.39217892
48	0x3d64d03e	0.055862658
49	0x3f24e876	0.6441721
50	0x3e64e761	0.22353889
51	0x3e97cafa	0.29647046
52	0x3e5725cc	0.21010512
53	0x3f939172	1.1528761
54	0x3ed75150	0.42054224
55	0x405d0d3e	3.4539332
56	0x3f0d3053	0.5515186
57	0x3eaddcd6	0.33957547
58	0x3e915a6f	0.28389308
59	0x3e82ac31	0.25521997
60	0x3e3d1506	0.18465051
61	0x3fec9b81	1.8484956
62	0x3f10f40c	0.56622386
63	0x3ee112a9	0.4395955
64	0x3e8d620f	0.27613875
65	0x3e8c6e6e	0.27428
66	0x3e8441a9	0.25831345
67	0x40005872	2.0053983
68	0x3e87d17d	0.26527014
69	0x3ecc4961	0.39899734
70	0x3d7c96cd	0.061667252
71	0x3dc5001a	0.0961916
72	0x3ea72193	0.32642803
73	0x3ef4bafa	0.47798902
74	0x3f90bc77	1.1307515
75	0x3f343308	0.7039037
76	0x3e9b75e8	0.30363393
77	0x3faf00b5	1.3672091
78	0x3e511bca	0.20420757
79	0x3ddab435	0.10678903
80	0x3f3b52d2	0.7317325
81	0x3f003500	0.5008087
82	0x3e751b67	0.23936234
83	0x3e8e41c6	0.27784556
84	0x3f21c724	0.6319449
85	0x3ee93973	0.45551643
86	0x3f23a55d	0.639242
87	0x3ec06f77	0.3758504
88	0x3e466ea9	0.19378151
89	0x3f1b2c31	0.60614306
90	0x3e466575	0.1937464
91	0x3f4d772f	0.80259985
92	0x3f96f1e7	1.1792573
93	0x3f8955e2	1.0729334
94	0x3e44640c	0.1917879
95	0x3fbfb8c6	1.4978263
96	0x3ed3118b	0.41224322
97	0x3e767d23	0.24071173
98	0x3ef6fe6c	0.48240983
99	0x3e5dac60	0.21647787
100	0x3e94b3a2	0.290433
101	0x3f9073d4	1.1285348
102	0x3fc24e4b	1.5180143
103	0x3e84510b	0.2584308
104	0x3f41461a	0.7549759
105	0x3e70a4f9	0.23500432
106	0x3e73b3ed	0.23799105
107	0x40360638	2.8441296
108	0x3e992bc5	0.29916206
109	0x3e806f92	0.2508512
110	0x3e85b11f	0.26111695
111	0x3f00161c	0.50033736
112	0x3dee178a	0.116255835
113	0x3e3865d1	0.1800759
114	0x3e65a5c7	0.2242652
115	0x3f04fabe	0.519451
116	0x3e858840	0.26080513
117	0x3f0b78bb	0.54481095
118	0x3ed4af43	0.41539964
119	0x3e5e272b	0.21694629
120	0x3f0ee004	0.5581057
121	0x3e83b5a0	0.25724506
122	0x3f6ba87a	0.9205395
123	0x4080709d	4.0137467
124	0x3f0e40b1	0.5556746
125	0x3f385be3	0.7201521
126	0x3d6be0a9	0.0575873
127	0x40441d91	3.0643046
128	0x3e455b82	0.19273189
129	0x3ea70989	0.32624462
130	0x3ded9cf0	0.11602199
131	0x3e66ca2f	0.22538064
132	0x3ec7ecc3	0.39047822
133	0x3f7202b0	0.9453535
134	0x3d776a0d	0.060403872
135	0x3dc372d6	0.095433876
136	0x3df55081	0.119782455
137	0x3ecfb84a	0.4057029
138	0x3dba9f44	0.09112409
139	0x3da9ff0f	0.08300602
140	0x3fce4286	1.6114051
141	0x3e20d0ed	0.15704699
142	0x3e249f26	0.16076335
143	0x3e8db261	0.27675155
144	0x3d20be22	0.039243825
145	0x3f0c7086	0.548592
146	0x3f39f4d4	0.72639203
147	0x3ee48011	0.44628957
148	0x4034b51c	2.823554
149	0x401cd875	2.4507115
150	0x3ebf3742	0.37346846
151	0x3f755282	0.9582902
152	0x3f9d484c	1.2287688
153	0x3e7658ac	0.24057263
154	0x3e460fe5	0.19342001
155	0x3e81fea0	0.25389576
156	0x3ec7a355	0.389918
157	0x3f0727ef	0.5279531
158	0x3e8f61a0	0.2800417
159	0x3ea76621	0.32695106
160	0x3e50ea1f	0.2040181
161	0x3edb795f	0.42866036
162	0x3eb3d536	0.35123605
163	0x40268fd5	2.6025288
164	0x3ea5302f	0.32263324
165	0x3da337ad	0.07969604
166	0x3e976ac1	0.29573634
167	0x3e9632c4	0.29335606
168	0x3e3343ba	0.17506304
169	0x3e47c0e8	0.19507182
170	0x3e0e565e	0.13900134
171	0x3ee9c516	0.45658177
172	0x3ebfd8b8	0.3747003
173	0x3f8a56b3	1.0807709
174	0x3e8ff3dc	0.28115737
175	0x3e56d4f4	0.20979673
176	0x3fbffe03	1.4999393
177	0x3f9509e2	1.1643641
178	0x3f51f38a	0.82012236
179	0x3e41a600	0.1891098
180	0x3ec45847	0.383486
181	0x3ea81a68	0.32832646
182	0x3ec6202f	0.3869643
183	0x3e9c9001	0.30578616
184	0x3f1adee7	0.6049637
185	0x3e0bf9e6	0.13669547
186	0x3de49aa0	0.11162305
187	0x3e7d0dc5	0.24712284
188	0x3f26135e	0.648733
189	0x3d9b65e1	0.07587791
190	0x3e0d22d6	0.1378282
191	0x3e4d7acb	0.20066373
192	0x3ee2dc8f	0.44308898
193	0x3ed13aaa	0.4086507
194	0x3fd0523a	1.6275094
195	0x3e9ad260	0.30238628
196	0x3e3a975b	0.182218
197	0x3ead37da	0.33831674
198	0x3e558369	0.2085091
199	0x3da03f62	0.07824589
200	0x3e60a817	0.21939121
201	0x3eb54ba6	0.35409278
202	0x3faa2f33	1.3295654
203	0x3e0ec1d9	0.13941135
204	0x3e82b547	0.2552893
205	0x3ee28d2f	0.4424834
206	0x3fa0eeb6	1.2572849
207	0x3ff905cd	1.9454895
208	0x3e17b5cd	0.14815445
209	0x3dd12568	0.10212213
210	0x3fd36f01	1.6518251
211	0x3eb8f70f	0.3612599
212	0x3eb02c21	0.34408668
213	0x3e4ca182	0.19983485
214	0x3e3365eb	0.17519347
215	0x3f37d76a	0.7181307
216	0x3e24cd4d	0.16093941
217	0x3f3b6b62	0.7321073
218	0x3e5cd736	0.21566471
219	0x3e522a79	0.20524015
220	0x3f2085eb	0.6270434
221	0x3f1c362a	0.6102015
222	0x408ce5b3	4.4030395
223	0x3e68a884	0.22720534
224	0x3f18746c	0.59552646
225	0x3eb968a4	0.36212647
226	0x3e279322	0.1636472
227	0x3eb747f9	0.35797098
228	0x3e9ae4ef	0.30252787
229	0x3e2c71fd	0.16840358
230	0x3e6713bb	0.2256612
231	0x3e6f1f07	0.2335168
232	0x3ded4124	0.1158469
233	0x3ebe8a16	0.37214726
234	0x3ffb1c96	1.9618099
235	0x3eda42ee	0.42629188
236	0x3fc1c2bd	1.5137554
237	0x3f02c3ed	0.5108021
238	0x3e553287	0.20820056
239	0x3e1135a6	0.14180622
240	0x3ee1ee74	0.44127238
241	0x3f0148fb	0.50501984
242	0x3e8aeaee	0.27132362
243	0x3d7db5f0	0.061941087
244	0x3e9156ea	0.28386623
245	0x3ea19012	0.3155523
246	0x3dd461b6	0.103701994
247	0x3fa04e0d	1.2523819
248	0x3ef922c9	0.4865935
249	0x3fa42e67	1.2826661
250	0x3e9bc922	0.3042689
251	0x3dd08877	0.101822786
252	0x3e942d90	0.2894101
253	0x3e8b68d8	0.27228427
254	0x3e7429b0	0.23844028
255	0x3f610689	0.87900597

fc2.weight f4 [128, 256]
0	0x3d90702a	0.070526436
1	0x3c152f9b	0.009105588
2	0xbe0100db	-0.12597983
3	0xbd8b043b	-0.06787916
4	0xbd83adae	-0.06429611
5	0xbd8263d6	-0.063666984
6	0xbd0596e5	-0.032614607
7	0xbe8f6d19	-0.28012922
8	0xbc49de12	-0.012321012
9	0x3d041c0e	0.032253318
10	0x3d1888c5	0.03723981
11	0x3d99ef8e	0.075163946
12	0x3c34d732	0.011037635
13	0xbd9fe051	-0.07806457
14	0x3ce2196b	0.02760001
15	0x3dc6808f	0.09692489
16	0xbd223751	-0.039603535
17	0x3e0161e5	0.12635
18	0x3cd35c4e	0.02580085
19	0x3caf4dc5	0.021399388
20	0x3d04cd7c	0.032422528
21	0xbdff7eda	-0.12475367
22	0x3e094aba	0.13407412
23	0xbe0f8b56	-0.14017996
24	0x3d60064a	0.054693498
25	0x3c12ef0a	0.008968124
26	0xbcbac6f3	-0.022799945
27	0xbd17c928	-0.037057072
28	0xbcfed57a	-0.031107653
29	0xbd374385	-0.044742126
30	0xbe8859d5	-0.26631036
31	0xbba3ca65	-0.0049984925
32	0xbc9cabff	-0.019124983
33	0x3d6caa48	0.05777958
34	0x3d4cabf6	0.049968682
35	0x3ce38699	0.027774142
36	0xbbeb7d15	-0.007186542
37	0xbdce2bce	-0.10066949
38	0xbdc847dc	-0.09779331
39	0x3cf1730c	0.029473804
40	0x3c82291b	0.015888741
41	0xbdcaf10d	-0.09909258
42	0x3d34ea1b	0.044168573
43	0x3d8bd868	0.068283856
44	0x3e0fcafd	0.14042278
45	0x3ded20f7	0.11578553
46	0xbc65c76b	-0.014024596
47	0x3d7c1127	0.061539795
48	0xbdb55e69	-0.08855898
49	0xbe1e3481	-0.15449716
50	0x3dc5cca3	0.09658172
51	0xbd1b8a32	-0.03797359
52	0xbdf29bea	-0.118461445
53	0xbc91f76b	-0.017818173
54	0x3cc4b5e7	0.024012519
55	0xbe12ad39	-0.14323892
56	0x3c5ddf52	0.013542013
57	0xbe956e41	-0.2918568
58	0xbd89e5fb	-0.067333184
59	0x3c5700c1	0.013122738
60	0x3d946eea	0.07247718
61	0x3e1063bd	0.14100547
62	0x3dcaf3b0	0.09909761
63	0x3c28b04b	0.010295938
64	0x3cb0e8b6	0.02159534
65	0x3dac4324	0.084112436
66	0xbddf3b51	-0.108999856
67	0x3da6e46e	0.08149038
68	0x3d1a5411	0.03767783
69	0x3c378a2a	0.0112023745
70	0x3c627941	0.0138228545
71	0x3c07c403	0.008286479
72	0xbd22894a	-0.03968171
73	0xbd200ca1	-0.039074544
74	0xbc037469	-0.00802336
75	0xbd10a67f	-0.035315033
76	0x3ccca925	0.024982998
77	0xbe352e36	-0.1769341
78	0xbdd22924	-0.10261753
79	0x3cc7e854	0.024402775
80	0x3d766ca6	0.06016221
81	0x3bde8e15	0.00679184
82	0x3d1e4617	0.03864106
83	0xbdd3c2ba	-0.103398755
84	0x3d7a6f19	0.061141107
85	0xbe6dd083	-0.23224072
86	0xbdcadf6e	-0.09905897
87	0x3c3a0414	0.011353511
88	0xbd67de10	-0.05660826
89	0xbd463dd3	-0.048398804
90	0x3dbae32e	0.09125362
91	0x3c0ba5fa	0.008523459
92	0xbd2116f9	-0.03932855
93	0xbd71e92e	-0.059060268
94	0x3a27e90c	0.0006405271
95	0xbe094714	-0.1340602
96	0x3d28793d	0.041131247
97	0xbce4a2d8	-0.027909681
98	0x3e19c75e	0.15017459
99	0xbe1f3b06	-0.1554986
100	0xbd77f756	-0.060538612
101	0xbcf9700a	-0.030448932
102	0xbdae90d0	-0.085237145
103	0xbdda0e39	-0.10647244
104	0xbcee5cd8	-0.029097006
105	0xbd64a92c	-0.055825397
106	0x3db00266	0.085942075
107	0xbda42801	-0.08015443
108	0xbc9a4e50	-0.01883617
109	0xbd1fba09	-0.038995776
110	0xbb9c7174	-0.004774267
111	0xbec66490	-0.38748598
112	0x3c0d960c	0.008641731
113	0xbd8c37bc	-0.06846568
114	0x3d0ba6bc	0.034094557
115	0x3d9118b4	0.0708479
116	0x3cef18df	0.029186664
117	0x3c16a983	0.009195688
118	0xbe73d72f	-0.23812555
119	0xbe7f0945	-0.2490588
120	0xbe6d1e10	-0.23155999
121	0x3c0ccb75	0.00859343
122	0x3bcfdbb0	0.0063433275
123	0x3d5c8df4	0.053846315
124	0xbd9f899e	-0.0778992
125	0xbe48e785	-0.19619568
126	0xbcc031c4	-0.02346123
127	0xbc67e3d4	-0.01415344
128	0xbde4453b	-0.11146017
129	0x3dc8d5fa	0.09806438
130	0x3d1894ba	0.03725121
131	0x3d544cb8	0.051830977
132	0xbd45489f	-0.04816496
133	0xbd5ae746	-0.053443216
134	0x3d0ed8e7	0.034874823
135	0x3d52569b	0.051352125
136	0x3da96344	0.082708865
137	0xbd8da456	-0.0691611
138	0x3da6c0fa	0.08142276
139	0x3d1ed56e	0.03877776
140	0x3e174ec9	0.14776148
141	0x3d46e589	0.048558746
142	0x3d331f98	0.043731302
143	0x3cd89b2d	0.026441181
144	0x3d30275e	0.043006293
145	0x3d8658d0	0.065599084
146	0xbc8eb0cc	-0.017418288
147	0xbd9a701a	-0.07540913
148	0xbdc2b6c5	-0.09507517
149	0xbdaa5f0a	-0.083189085
150	0xbb18cba8	-0.0023314748
151	0x3cffa8df	0.031208454
152	0xbe278871	-0.16360642
153	0xbe805a89	-0.25069073
154	0x3d199c9e	0.037502877
155	0x3d8b1c73	0.06792536
156	0xbd907763	-0.07054021
157	0x3d98949a	0.074502185
158	0x3d36e95d	0.044656146
159	0x3d8dc390	0.06922066
160	0xbd5f238c	-0.05447726
161	0x3d5619da	0.052270748
162	0x3d72dce3	0.059292685
163	0xbdbb9c24	-0.09160641
164	0x3c41327e	0.011791823
165	0x3d040fdf	0.0322417
166	0xbcdda84c	-0.02705779
167	0xbb643d85	-0.0034826708
168	0xbde1558d	-0.11002646
169	0x3d2f130a	0.042742766
170	0x3de4b10b	0.11166581
171	0xbca26191	-0.019821914
172	0xbdf0737a	-0.117407754
173	0xbda3958a	-0.07987507
174	0xbdbdb050	-0.092621446
175	0xbc13035a	-0.008972967
176	0xbb30e1ad	-0.0026989982
177	0xbd38529b	-0.045000654
178	0x3def0538	0.11670917
179	0x3c82dcba	0.015974391
180	0xbdaa1397	-0.08304518
181	0x3cbbd728	0.022929743
182	0x3d38d695	0.045126516
183	0x3de1a749	0.11018235
184	0xbc04356f	-0.00806938
185	0xbd6ec433	-0.05829258
186	0xbe284598	-0.16432798
187	0xbbbe52c4	-0.0058082063
188	0xbddea340	-0.10870981
189	0xbe31b662	-0.1735473
190	0xbe56e1fd	-0.20984645
191	0x3c6c2c09	0.014414796
192	0xbd1dba6b	-0.03850786
193	0xbd277b3c	-0.04088901
194	0xbd302f11	-0.043013636
195	0xbd26084b	-0.040535253
196	0xbdaa8274	-0.08325663
197	0x3c88ec21	0.016714158
198	0xbc0b4498	-0.008500241
199	0xbcde99e9	-0.027173
200	0x3ccc0e03	0.024909025
201	0xbd84b934	-0.06480637
202	0x3de43c6d	0.11144338
203	0xbcc28a30	-0.023747534
204	0xbda0daec	-0.07854256
205	0x3d6f52de	0.058428638
206	0xbd3df519	-0.04637632
207	0xbe0f95d2	-0.14021996
208	0x3d1cad8a	0.038251437
209	0x3dd2f62a	0.10300858
210	0x3d1d89d0	0.038461506
211	0x3d10ec69	0.03538171
212	0x3db4136c	0.08792767
213	0xbddc59ca	-0.107593134
214	0x3c9bbebe	0.019011851
215	0xbd57d26d	-0.052690912
216	0xbd1e10e0	-0.038590312
217	0xbc0aeea9	-0.008479753
218	0xbd1abd51	-0.037778202
219	0x3d0e1172	0.034684606
220	0xbce36703	-0.02775908
221	0x3b79f772	0.0038141874
222	0x3c9df879	0.01928352
223	0xbc4d81d1	-0.012543158
224	0xbe4f4a14	-0.20243102
225	0x3d605a41	0.054773573
226	0x3c2d47e6	0.010576224
227	0xbc1e3f20	-0.009658605
228	0x3c748e77	0.014926544
229	0xbd23e103	-0.04000951
230	0xbde2ff77	-0.11083882
231	0x3dd9edf8	0.10641092
232	0xbc7b0600	-0.015321255
233	0x3d33e678	0.043920964
234	0xbe2bfbc2	-0.16795257
235	0xbc78de2a	-0.015189687
236	0xbdfc3550	-0.12314856
237	0xbda1ee45	-0.079067744
238	0xbd1d9609	-0.038473163
239	0xbd99709d	-0.074921824
240	0xbc73d59f	-0.014882474
241	0x3d96fadd	0.07372067
242	0x3c75f4f9	0.015012019
243	0xbe0f3fe2	-0.13989213
244	0xbd00daba	-0.031458594
245	0x3e0c0005	0.13671882
246	0xbd84a845	-0.06477407
247	0x3da8dd68	0.08245355
248	0xbd922d6d	-0.071375705
249	0xbda9a9b0	-0.082843184
250	0xbbd3a531	-0.0064589013
251	0xbd78dccd	-0.060757447
252	0x3de7a6e1	0.113111265
253	0xbd924736	-0.07142489
254	0xbd48b6f5	-0.049002606
255	0xbdf19a53	-0.11797013

fc2.bias f4 [128]
0	0x3d4c6116	0.049897276
1	0xbbe44036	-0.0069656624
2	0xbd3fc138	-0.046815127
3	0x3d10d58a	0.035359897
4	0xbb0f7918	-0.0021892246
5	0x3c775ed9	0.015098297
6	0xba9d17e8	-0.0011985274
7	0x3d5285cd	0.051397134
8	0xbc57ad4b	-0.013163875
9	0x3c25e944	0.010126416
10	0xbd25aad2	-0.04044611
11	0x3d429c7b	0.047512513
12	0xbd13917c	-0.036027417
13	0xbd5002e2	-0.050784
14	0xbd177fba	-0.036987044
15	0x3cd563f6	0.026048642
16	0xbd27da5c	-0.040979728
17	0x3d630a51	0.05542976
18	0xbd32f66f	-0.04369205
19	0x3ca8d7a2	0.020610634
20	0x3bde11fc	0.0067770462
21	0x3d71ae1c	0.059003934
22	0xbbf266c9	-0.007397507
23	0xbcb14dde	-0.021643575
24	0x3d3e2712	0.04642398
25	0x3d25db70	0.040492475
26	0x3c8c280a	0.017108936
27	0x3d45810d	0.048218776
28	0xbc9a0fa6	-0.01880629
29	0xbd1c871b	-0.038214784
30	0xba250dd0	-0.0006296309
31	0xbcb9f5ee	-0.022700276
32	0x3c40d47b	0.011769409
33	0x3d5bcf74	0.05366464
34	0xbd13fbea	-0.036128916
35	0xbcb3c7b9	-0.021945821
36	0x3cf860b6	0.030319553
37	0xbd3b25c2	-0.045690306
38	0xbd360e62	-0.04444731
39	0x3c299087	0.010349399
40	0x3bc26167	0.0059320214
41	0xbcac6f22	-0.021049086
42	0xbd08d569	-0.03340665
43	0xbd6dd404	-0.058063522
44	0x3d341189	0.043962035
45	0xbba65118	-0.005075585
46	0x3cb75867	0.02238102
47	0xbd5ec66e	-0.054388456
48	0x3d7ad68a	0.061239757
49	0xbcb30031	-0.021850677
50	0xbce70c5c	-0.028204136
51	0x3d453add	0.04815184
52	0x3ca0b1fe	0.019616123
53	0x3d425835	0.047447402
54	0x3c3fe97e	0.011713384
55	0x3d2f6996	0.042825304
56	0x3d1a6ed4	0.03770335
57	0x3d2c0061	0.04199255
58	0xbd13a23c	-0.03604339
59	0xbc1248a8	-0.008928455
60	0x3c63ba0c	0.0138993375
61	0x3ce8302f	0.028343288
62	0xbcac6fed	-0.021049464
63	0xbd820b67	-0.06349831
64	0xbd447af0	-0.047968805
65	0x3d7fa1f8	0.062410325
66	0xbd088fea	-0.033340372
67	0xbad19b65	-0.0015991746
68	0xbbcc59cf	-0.006236292
69	0xbd39b3bf	-0.045337435
70	0xbd26aca5	-0.04069199
71	0xbc8cef07	-0.01720382
72	0xbb952262	-0.004551218
73	0x3caeb7f5	0.021327952
74	0xbd21e766	-0.03952732
75	0x3ceffb8a	0.029294748
76	0xbd154186	-0.03643944
77	0xbcc56a39	-0.024098502
78	0xbd0a61ae	-0.03378456
79	0x3d728b87	0.059215095
80	0x3a7313b0	0.0009272648
81	0x3d3ad0fc	0.04560946
82	0x3cd3c0f0	0.025848836
83	0x3c8ff41a	0.017572451
84	0x3cdd7e99	0.027037906
85	0xbca5cd1b	-0.020239403
86	0xbcfbc58e	-0.03073385
87	0xbad0101c	-0.0015873942
88	0xbcb627bb	-0.022235742
89	0x3be82d7a	0.0070854994
90	0x3d1e6a7d	0.038675774
91	0x3d6c6567	0.057713892
92	0x3c3a0c0c	0.011355411
93	0x3af781fd	0.0018883344
94	0xbc84817d	-0.016175026
95	0xbc1df91b	-0.009641911
96	0xbce29e34	-0.027663328
97	0xbd287dc6	-0.041135572
98	0x3c969464	0.018381305
99	0xbc6a6c30	-0.0143080205
100	0xbd41b69f	-0.0472933
101	0xbccfc4aa	-0.025362331
102	0xbc8cae16	-0.017172854
103	0x3cb04b5c	0.02152031
104	0xb9999c85	-0.0002929905
105	0xbd46f971	-0.04857773
106	0x3d523056	0.051315628
107	0xbd150302	-0.03637982
108	0x3d2b96b2	0.04189176
109	0xbd345ca7	-0.044033673
110	0x3d1059b7	0.03524181
111	0x3d35f1d1	0.044420067
112	0x3d0d3f4e	0.0344842
113	0x3be4a69f	0.0069778706
114	0xba14a611	-0.0005670498
115	0x3d192780	0.037391186
116	0xbc224edd	-0.009906498
117	0x3d5e82b6	0.054323874
118	0xbc50b3c8	-0.012738176
119	0x39b37124	0.00034225837
120	0x3c067517	0.008206627
121	0xbbccc68a	-0.0062492536
122	0xbb5f0078	-0.003402738
123	0x3b925d49	0.004466687
124	0xbd1b6ff6	-0.03794857
125	0x3d411374	0.047137693
126	0x3886d78d	6.4297674e-05
127	0x3d08e4ae	0.03342121
