mlruns/761854136110779325/c1872aa910c24c34939be694fd51bc5c/artifacts/shallow_nn_pytorch.pth (torch, 43929 bytes, 6 tensors)

fc1.weight f4 [128, 8]
-0.02394725 -0.033226587 -0.062120203 -0.46788475 0.052288983 0.48229656 -0.03078276 -0.3101396
-0.025599629 0.11328486 0.06651441 0.09141808 -0.6123215 0.034138944 0.4640585 0.03639735
-0.08134603 -0.27244323 0.058019318 0.10774679 0.033189926 0.063043855 0.10667037 -0.07339035
-0.002355121 0.74436605 -0.023998704 -0.07708778 0.0002330266 0.017196827 -0.039820306 0.08372358
0.10838992 0.46456406 0.14050046 0.032320697 0.102645084 -0.4778258 0.42289418 -0.4101296
0.024154099 0.19428167 -0.23505427 -0.17994025 0.34258956 -1.4049731 -0.20101358 -0.054326534
-0.40584323 -0.21065803 -0.09918545 -0.2764824 -0.018923163 -0.7628906 0.33502686 -0.056773838
-0.0069865147 -0.006346065 -0.012975237 0.17030606 0.09762267 -1.8443311 0.11806489 -0.29801464
0.0027587218 -0.63155025 0.0027494486 -0.11487521 0.036759198 0.25310734 0.17224625 -0.22633944
0.018273277 0.38574627 0.138221 0.20809585 -0.23351206 0.27882504 0.22576186 -0.096586384
0.2278014 0.056832533 -0.39566937 0.36769366 0.10951691 -0.35191184 -0.2319164 0.08304411
0.30415875 -0.3448069 -0.36346382 0.19991228 0.30267778 0.28902292 -0.36415076 0.08994005
-0.5474197 0.22584884 -0.05134651 0.29498544 0.1911302 0.049037166 -0.41806227 0.24590445
-0.005591869 -0.05183729 0.4438286 0.29695717 -0.36195207 -0.003351906 0.08390372 0.20884007
-0.59040266 -0.015825845 -0.15799299 -0.52102613 0.1825336 0.086884625 0.16321072 -0.03496256
0.32844535 0.01678733 -0.17910837 0.45812225 -0.75157374 -0.30600008 -0.18989924 0.32368457
-0.034372605 -0.02851073 -0.0542752 -1.0039419 0.07531462 -0.7952761 -0.26427606 -0.58502597
-0.36610696 -0.04513735 0.29026583 0.0029229366 0.18231037 -1.1333983 -0.16519503 0.21606523
0.41798502 0.045251608 -0.20961224 -0.081833616 -0.77862823 0.14139602 0.02924719 -0.032048285
-0.46118066 -0.10680783 0.2021965 0.23812917 0.46103692 -0.38495713 -0.4069085 0.17387381
0.016410599 0.093723096 -0.12334264 -0.030988999 -0.024014482 0.0052350103 0.25375053 0.092275
0.34031096 -0.006805837 -0.034159932 -0.1006874 0.32171255 -0.4535119 -0.12791948 -0.3850622
0.016493125 0.010787068 0.02502805 -0.9641909 0.570912 -1.2853795 0.061171293 -0.29107296
-0.18202619 -0.11829346 -0.6645119 0.10011108 -0.09872849 0.08796585 0.2369783 -0.13290289
-0.40166163 0.5239529 -0.056262754 -0.025296832 0.07253743 0.03806527 0.08679388 -0.03198168
0.42957765 0.32058367 0.0075919805 -0.30535406 0.20757206 -0.095672555 0.2175963 0.21944207
-0.05204832 -0.02057057 0.52129716 -0.2917747 0.5226211 0.06643966 -0.12271149 -0.13861805
-0.014948901 -0.0069074538 0.32527646 -0.031474404 -0.40121865 -0.03181904 0.43518892 0.24525823
-0.2411859 -0.15978795 -0.8002956 -0.39604303 -0.09393917 0.0001890046 0.16508327 0.12329267
0.015362781 -0.061585244 -0.03858754 -1.2066952 0.79333824 0.25689313 -0.067505315 -0.50994205
-0.49062148 -0.021625947 0.30471146 0.12227769 0.3686921 0.30000997 -0.49867284 -0.11884374
-0.00020717976 0.0015549855 -0.020033883 0.44831225 -0.2933051 -1.7704772 0.074805416 -0.3019243
00000000: 062d c4bc 9a18 08bd c171 7ebd 978e efbe
00000010: f92c 563d 93ef f63e 202c fcbc 9eca 9ebe
00000020: 50b6 d1bc e501 e83d b538 883d 6739 bb3d
00000030: 1ac1 1cbf 47d5 0b3d 1399 ed3e 6315 153d
00000040: bf98 a6bd ae7d 8bbe aaa5 6d3d 59aa dc3d
00000050: 29f2 073d 231d 813d ff75 da3d ae4d 96bd
00000060: 6058 1abb c68e 3e3f ee98 c4bc 33e0 9dbd
00000070: 9a58 7439 5ce0 8c3c 9e1a 23bd 4577 ab3d
00000080: 89fb dd3d 57db ed3e 5adf 0f3e b562 043d
00000090: 9637 d23d 95a5 f4be 9685 d83e 82fc d1be
000000a0: d1de c53c c6f1 463e 11b2 70be 4242 38be
000000b0: e667 af3e 29d6 b3bf 81d6 4dbe 8085 5ebd
000000c0: afca cfbe bdb6 57be be21 cbbd 1a8f 8dbe
000000d0: c004 9bbc cc4c 43bf a488 ab3e af8b 68bd
000000e0: 22ef e4bb a7f2 cfbb 1796 54bc b664 2e3e
000000f0: 65ee c73d 0b13 ecbf 01cc f13d 6095 98be
00000100: accb 343b 47ad 21bf 1830 343b b243 ebbd
00000110: d090 163d 4997 813e 5261 303e 87c5 67be
00000120: d7b1 953c 8980 c53e ce89 0d3e 1417 553e
00000130: c91d 6fbe 28c2 8e3e 1e2e 673e 15cf c5bd
00000140: c544 693e 3bc9 683d 2d95 cabe 5842 bc3e
00000150: 674a e03d ca2d b4be 7e7b 6dbe 0813 aa3d
00000160: b2ba 9b3e 888a b0be ee17 babe ceb5 4c3e
00000170: 95f8 9a3e d0fa 933e f871 babe 7d32 b83d
00000180: b323 0cbf eb44 673e b850 52bd 5508 973e
00000190: a3b7 433e 32db 483d 420c d6be 60ce 7b3e
000001a0: ff3b b7bb 5753 54bd 813d e33e c50a 983e
000001b0: c851 b9be a7ab 5bbb b7d5 ab3d 2cda 553e
000001c0: a124 17bf 34a5 81bc eac8 21be f861 05bf
000001d0: 17ea 3a3e 91f0 b13d b620 273e e734 0fbd
000001e0: fd29 a83e 9585 893c 2f68 37be 008f ea3e
000001f0: 2367 40bf 0bac 9cbe f274 42be fcb9 a53e
00000200: 4aca 0cbd 568f e9bc ac4f 5ebd 2b81 80bf
00000210: 8d3e 9a3d 3797 4bbf 314f 87be 43c4 15bf
00000220: 5f72 bbbe f1e1 38bd b99d 943e bd8e 3f3b
00000230: 92af 3a3e 3213 91bf e328 29be 3440 5d3e
00000240: 2202 d63e c059 393d 97a4 56be 6298 a7bd
00000250: 2e54 47bf 1eca 103e ce97 ef3c 1045 03bd
00000260: df1f ecbe 10be dabd 990c 4f3e 22d8 733e
00000270: 080d ec3e 1a19 c5be 5056 d0be fa0b 323e
00000280: 856f 863c e5f1 bf3d 119b fcbd a4dc fdbc
00000290: 05ba c4bc 738a ab3b 97eb 813e adfa bc3d
000002a0: 3d3d ae3e 8003 dfbb 49eb 0bbd 3235 cebd
000002b0: 82b7 a43e b632 e8be 53fd 02be df26 c5be
000002c0: 971c 873c 3ebc 303c a007 cd3c 37d5 76bf
000002d0: 4a27 123f 5187 a4bf c08e 7a3d 8407 95be
000002e0: 1365 3abe d743 f2bd 741d 2abf 0a07 cd3d
000002f0: 2a32 cabd 7127 b43d 71aa 723e b217 08be
00000300: 98a6 cdbe c721 063f c673 66bd 4d3b cfbc
00000310: 818e 943d 54ea 1b3d fdc0 b13d 39ff 02bd
00000320: 9af1 db3e 8b23 a43e 26c6 f83b 5e57 9cbe
00000330: c58d 543e f9ef c3bd 91d1 5e3e 6cb5 603e
00000340: 9f30 55bd 9d83 a8bc bb73 053f 7e63 95be
00000350: 7fca 053f 8411 883d 2950 fbbd e4f1 0dbe
00000360: 3cec 74bc ec57 e2bb a38a a63e 4eeb 00bd
00000370: 886c cdbe af54 02bd 15d1 de3e f924 7b3e
00000380: 70f9 76be 749f 23be 2ce0 4cbf 27c6 cabe
00000390: 2e63 c0bd 892f 4639 970b 293e de80 fc3d
000003a0: 2cb4 7b3c cf40 7cbd f80d 1ebd fd74 9abf
000003b0: 3718 4b3f 7f87 833e 3a40 8abd 908b 02bf
000003c0: bd32 fbbe e628 b1bc 2403 9c3e ba6c fa3d
000003d0: 36c5 bc3e e89a 993e 0c52 ffbe 5964 f3bd
000003e0: 653e 59b9 a8d0 cb3a 191e a4bc 2f89 e53e
000003f0: 162c 96be ff9e e2bf 9533 993d d295 9abe

fc1.bias f4 [128]
-0.09042546 -0.0069346535 -0.084245555 -0.7017192 -0.60332155 -0.29288462 -0.5924715 -0.3914477
-0.5004695 -0.14352827 -0.1635206 -0.9470318 -0.5488936 -0.2565932 -0.48264745 -0.16659684
-0.53460616 -0.5299218 -0.3278296 -0.53031 0.051460925 -0.06548043 -0.42741683 -0.29586494
-0.522231 -0.34402862 -0.4556614 -0.18608314 -0.42698613 -0.2124256 -0.12400907 -0.35603273
-0.80378103 -0.2924803 -0.1914783 -0.32812002 -0.3766316 -0.49960843 -0.22065721 -0.4037925
0.20099713 -0.44200915 -0.06317833 0.03758414 -0.18229717 -0.2783331 -0.5833845 -0.28673533
-0.71900654 -0.37340704 -0.4733397 -0.168791 -0.015446292 -0.12067542 -0.4776225 0.055362318
-0.74752825 -0.5231537 -0.68645334 -0.33761925 -0.056767996 -0.16523227 -0.18311456 -0.032952704
-0.5705892 -0.22967173 -0.49351805 -0.4332418 0.049394157 -0.5121442 -0.24244685 -0.38452202
0.009703515 -0.6894403 -0.39337426 -0.13222882 -0.17269674 -0.7048471 0.0692029 -0.33146083
-0.559516 -0.5066746 -0.4146132 -0.2951367 -0.4005253 -0.23201643 -0.8004526 -0.4093449
-0.20837833 0.09517829 -0.043411463 -0.21189444 -0.4386378 -0.32184982 -0.24361753 -0.46862862
-0.05946454 -0.39608184 -0.45899087 -0.4649639 0.00010348433 -0.09430187 -0.47086143 -0.6525893
-0.23661514 -0.8223224 -0.4373732 -4.043919e-05 -0.5199354 0.11676391 -0.16144165 -0.1020768
-0.28946686 -0.6347301 -0.33748016 -0.3231657 -0.24535312 -0.41653937 -0.15002164 -0.19578102
-0.39423484 -0.32670176 -0.5011538 -0.515205 -0.25946087 -0.30749324 -0.35184887 -0.719923
00000000: fc30 b9bd 173c e3bb ef88 acbd dfa3 33bf
00000010: 4873 1abf f9f4 95be 36ac 17bf d56b c8be
00000020: c51e 00bf 13f9 12be f271 27be ad70 72bf
00000030: 4a84 0cbf 2f60 83be 911d f7be 5d98 2abe
00000040: f3db 08bf f5a8 07bf 48d9 a7be 65c2 07bf
00000050: b1c8 523d 9b1a 86bd 61d6 dabe 9c7b 97be
00000060: eeb0 05bf 8524 b0be 734c e9be 948c 3ebe
00000070: ed9d dabe 1986 59be 78f8 fdbd ec49 b6be
00000080: 98c4 4dbf fabf 95be e312 44be 59ff a7be
00000090: dbd5 c0be adcc ffbe f7f3 61be e4bd cebe
000000a0: 31d2 4d3e 064f e2be a463 81bd d4f1 193d
000000b0: 1cac 3abe ad81 8ebe b058 15bf f9ce 92be
000000c0: d010 38bf 352f bfbe 9559 f2be 8cd7 2cbe
000000d0: 7212 7dbc ad24 f7bd f08a f4be 99c3 623d
000000e0: 035e 3fbf 67ed 05bf 68bb 2fbf 6edc acbe
000000f0: 8f85 68bd a632 29be 6282 3bbe 6af9 06bd
00000100: 2212 12bf 112f 6bbe 66ae fcbe dfd1 ddbe
00000110: 8751 4a3d e21b 03bf fd43 78be 12e0 c4be
00000120: 7efb 1e3c 297f 30bf 5a68 c9be fe66 07be
00000130: 6ad7 30be dc70 34bf 40ba 8d3d 3cb5 a9be
00000140: 713c 0fbf 6db5 01bf 2e48 d4be 281c 97be
00000150: a711 cdbe b795 6dbe 76ea 4cbf a895 d1be
00000160: 2161 55be d6ec c23d 38d0 31bd dbfa 58be
00000170: 2295 e0be 80c9 a4be e076 79be 17f0 efbe
00000180: 1791 73bd 3dcb cabe da00 ebbe c00f eebe
00000190: ba05 d938 5721 c1bd c014 f1be 1810 27bf
000001a0: 3d4b 72be b983 52bf 61ef dfbe 409d 29b8
000001b0: 7d1a 05bf eb21 ef3d f650 25be a40d d1bd
000001c0: 0035 94be ac7d 22bf 33ca acbe fa75 a5be
000001d0: d93d 7bbe a644 d5be 469f 19be d27a 48be
000001e0: 26d9 c9be 7445 a7be 9e4b 00bf 7ae4 03bf
000001f0: 0ed8 84be c16f 9dbe 8925 b4be e04c 38bf

fc2.weight f4 [64, 128]
-0.23293756 0.084650375 0.26046807 0.3984925 -0.72772485 0.021393072 0.1387818 0.29804462
0.18135902 -0.061881326 -1.5663471 -0.3678573 0.06480591 -0.62664354 -0.038269974 -0.5199478
-0.31721252 0.007402889 0.042354546 0.16737573 0.13258997 -0.33181575 -0.3952278 -0.47436762
-0.03511688 -0.8081464 -0.6628377 0.10252511 -0.46505383 -0.6614801 0.029457605 0.20549786
0.18766584 -0.49041978 0.36352062 0.33910248 0.03850763 0.5550849 0.18500227 -0.11067034
0.005205014 -0.5425003 0.18277809 -1.0249118 0.12099604 -0.3048665 -0.0676797 -1.3691232
0.13734953 0.13390234 0.10644748 -0.14340585 -0.026464436 -1.1107026 0.03180987 -0.0073827137
-1.1560526 0.022968616 -0.013459273 -0.012956193 0.017848426 -0.070203066 -0.08942897 -0.013663269
0.075775556 -0.14687419 -0.5455245 -0.58300304 -0.9481288 -0.19460936 0.11743208 0.22078666
-1.7936687 -0.9619575 -0.09419085 0.21218434 -0.39330545 0.351137 -0.7575299 0.12541501
-0.44363472 -0.015696343 -0.24563694 0.13894945 -0.03972452 -0.98944306 -0.104611084 -0.78161913
-0.75513077 -0.13359675 -0.037708238 -0.19474293 0.24728951 0.06659803 -0.07967554 0.03789302
-0.00476722 -0.018169893 0.26777992 -0.13056298 0.040811367 -0.28375867 0.22567944 -0.36798087
-0.8033622 0.35130474 -0.28217664 0.13907415 -0.16776338 0.009963829 -0.5858469 0.057567164
-0.80705315 -0.061740782 -1.3652129 0.4406943 -0.38287553 -0.16053326 0.19075154 0.1617338
-0.58997023 -0.013403319 -0.28285363 -0.48393604 0.23470786 0.08795318 0.19786212 -0.15515606
0.031232052 -0.07686683 -0.028030572 0.2156982 -0.1556757 -0.16830266 0.25878978 -0.7194286
0.206582 0.15368494 0.03379312 -0.5023298 -0.2611009 -0.7968556 -0.10298896 -0.12542562
-0.27504715 -0.0021667592 0.015002261 -0.037476912 -0.035033785 0.08376604 -0.26604256 0.074277334
0.24496508 -0.59408337 -0.7061327 -0.7411311 0.060065396 0.15660615 -0.07288459 -0.8441292
0.23727667 -0.45759144 -0.35934278 0.40614495 0.37981236 -0.0066870158 0.19892135 -0.12254836
0.049026597 -0.5350535 -0.35109404 -0.04164218 -0.26161116 -0.106262706 -0.4273888 0.022033341
0.027992478 0.10480909 -0.12071223 0.115441866 -0.14986752 0.025357231 -1.1960896 -0.02303884
-1.1727813 0.07732494 0.13090141 0.23638834 -0.24884146 -0.045657117 0.12703393 0.08953897
0.5165608 0.35061088 0.11583397 -0.5067429 -0.23562022 0.23463385 0.18678722 -1.3620014
0.19150846 -0.22291175 0.005362765 -0.021688009 -0.042286832 0.43208504 0.040819034 -0.50404346
-0.6182225 -0.1741009 -0.040459044 0.42415312 0.03294818 -0.38986924 0.48201868 -1.0272976
-0.5942802 0.028475791 -0.5547607 0.017723935 -1.3988608 -0.4079232 0.21675642 0.12010329
-0.1034428 -0.02125829 -0.14937669 -0.09736442 -0.057970118 -0.75835264 0.7086244 -0.18544693
-0.0929097 0.18047363 0.13271971 -0.42622286 0.2066579 0.037029378 0.05105198 -0.06103519
0.16896315 0.094450034 -0.15623133 -1.1938043 -0.13802543 0.079989225 -0.41485184 -0.1949361
0.14343618 -0.20611474 0.21173476 0.20881432 -0.48745608 0.004974719 0.048632175 0.4840925
00000000: 2f87 6ebe 2d5d ad3d 125c 853e 3507 cc3e
00000010: 2d4c 3abf 8640 af3c d11c 0e3e 4e99 983e
00000020: 2eb6 393e 4677 7dbd 107e c8bf cb57 bcbe
00000030: f6b8 843d b66b 20bf fac0 1cbd 4d1b 05bf
00000040: ae69 a2be ef93 f23b f67b 2d3d 8b64 2b3e
00000050: aac5 073e c1e3 a9be 4c5b cabe 50e0 f2be
00000060: b8d6 0fbd afe2 4ebf bbaf 29bf aff8 d13d
00000070: 891b eebe c356 29bf 1351 f13c 086e 523e
00000080: 792b 403e 4d18 fbbe 601f ba3e d79e ad3e
00000090: 2dba 1d3d 0b1a 0e3f 3c71 3d3e 22a7 e2bd
000000a0: d28e aa3b 4de1 0abf 2e2a 3b3e 4f30 83bf
000000b0: c6cc f73d 7617 9cbe a89b 8abd 6e3f afbf
000000c0: 5ba5 0c3e b21d 093e 2301 da3d fcd8 12be
000000d0: f2cb d8bc 812b 8ebf 114b 023d b1ea f1bb
000000e0: 88f9 93bf ae28 bc3c 4884 5cbc 3646 54bc
000000f0: dd36 923c a0c6 8fbd 8926 b7bd e7db 5fbc
00000100: 3730 9b3d 3066 16be 7ea7 0bbf b03f 15bf
00000110: 92b8 72bf ad47 47be 3b80 f03d e615 623e
00000120: f096 e5bf d942 76bf 22e7 c0bd da46 593e
00000130: 555f c9be 3bc8 b33e 7bed 41bf cb6c 003e
00000140: 1724 e3be 9e95 80bc 4088 7bbe c448 0e3e
00000150: 2eb6 22bd 244c 7dbf 563e d6bd 3118 48bf
00000160: 4050 41bf 96cd 08be f473 1abd b16a 47be
00000170: 7639 7d3e 8c64 883d ee2c a3bd b635 1b3d
00000180: 5736 9cbb 07d9 94bc 731a 893e 4db2 05be
00000190: d229 273d d148 91be 8318 673e fd67 bcbe
000001a0: 25a9 4dbf 37de b33e 7579 90be 7469 0e3e
000001b0: 2aca 2bbe 543f 233c 10fa 15bf 8ccb 6b3d
000001c0: 099b 4ebf e7e3 7cbd 4cbf aebf afa2 e13e
000001d0: 4308 c4be d562 24be 5f54 433e 8c9d 253e
000001e0: 4a08 17bf 9899 5bbc 31d2 90be 77c6 f7be
000001f0: 4257 703e cc20 b43d 5e9c 4a3e 3be1 1ebe
00000200: 5cda ff3c 5b6c 9dbd 5fa0 e5bc fddf 5c3e
00000210: 7369 1fbe 8857 2cbe 1880 843e 792c 38bf
00000220: 3b8a 533e 965f 1d3e a86a 0a3d b098 00bf
00000230: 04af 85be bbfe 4bbf e0eb d2bd 936f 00be
00000240: fbd2 8cbe 3000 0ebb 0bcc 753c 6481 19bd
00000250: 967f 0fbd 888d ab3d bb36 88be b71e 983d
00000260: 20d8 7a3e d915 18bf 1dc5 34bf c5ba 3dbf
00000270: 2207 763d 5d5d 203e 8444 95bd da18 58bf
00000280: a8f8 723e 6d49 eabe c7fb b7be 3bf2 cf3e
00000290: c476 c23e c11e dbbb 0ab2 4b3e a2fa fabd
000002a0: 1dd0 483d 44f9 08bf 99c2 b3be fe90 2abd
000002b0: e6f1 85be 43a0 d9bd b4d2 dabe 447f b43c
000002c0: 7b50 e53c 26a6 d63d f937 f7bd c96c ec3d
000002d0: df76 19be f8b9 cf3c 7719 99bf f3bb bcbc
000002e0: b31d 96bf 8a5c 9e3d 050b 063e c90f 723e
000002f0: 4cd0 7ebe f502 3bbd 2f15 023e 3560 b73d
00000300: 543d 043f 4583 b33e 5c3a ed3d e7b9 01bf
00000310: 6d46 71be db43 703e 2645 3f3e 1056 aebf
00000320: cb1a 443e fa42 64be 22ba af3b 0dab b1bc
00000330: f534 2dbd 403a dd3e dc31 273d fe08 01bf
00000340: d443 1ebf 8247 32be 62b8 25bd 992a d93e
00000350: acf4 063d f19c c7be 27cb f63e 7d7e 83bf
00000360: bf22 18bf 1046 e93c cc04 0ebf c931 913c
00000370: df0d b3bf 4fdb d0be 65f5 5d3e b7f8 f53d
00000380: d2d9 d3bd de25 aebc 34f6 18be ff66 c7bd
00000390: 1372 6dbd 6623 42bf 6968 353f cde5 3dbe
000003a0: 7147 bebd 14ce 383e ade7 073e e239 dabe
000003b0: 219e 533e 1eac 173d e21b 513d 0900 7abd
000003c0: ad04 2d3e 056f c13d 1bfb 1fbe 94ce 98bf
000003d0: 8a56 0dbe 64d1 a33d 7667 d4be 549d 47be
000003e0: efe0 123e be0f 53be ffd0 583e 6cd3 553e
000003f0: d893 f9be f802 a33b 8832 473d f9da f73e

fc2.bias f4 [64]
0.11274417 0.07432975 0.49995613 0.5367384 -0.13027215 0.10193526 0.36994827 0.10556855
0.33530512 0.2777455 0.53191876 0.10477926 0.3159375 0.2789612 0.29924163 -0.06662942
0.04776954 0.31114405 0.08828856 -0.13713406 0.2758715 0.4694787 0.45880726 0.36356938
-0.75197613 0.08289199 0.17341557 0.24425943 -0.6413056 0.4458642 0.30401105 0.15191506
0.16162609 0.20140377 0.062323168 0.45277208 0.292486 -0.011212005 0.09567989 0.00748386
-0.1718416 0.11593989 0.11669765 0.27591094 0.1500007 0.19513395 0.27247962 -0.09258253
0.09585177 0.31377628 0.16772082 0.04922747 0.028152805 0.023809182 0.4815163 0.16446535
0.03445156 -0.07417875 -0.13895257 0.40801135 -0.0045973007 0.10138725 0.42375335 0.17207524
00000000: 6ae6 e63d 323a 983d 40fa ff3e b067 093f
00000010: 1066 05be 6fc3 d03d dc69 bd3e 5334 d83d
00000020: 1dad ab3e a834 8e3e d42b 083f 8296 d63d
00000030: 8fc2 a13e 01d4 8e3e 3336 993e 0175 88bd
00000040: fea9 433d 464e 9f3e a2d0 b43d df6c 0cbe
00000050: 073f 8d3e 835f f03e c9e8 ea3e c425 ba3e
00000060: 8281 40bf 47c3 a93d da93 313e 251f 7a3e
00000070: 9b2c 24bf 5048 e43e 56a7 9b3e 9f8f 1b3e
00000080: 4f81 253e ca3c 4e3e 9446 7f3d bed1 e73e
00000090: bac0 953e 8fb2 37bc d1f3 c33d 2b3b f53b
000000a0: 3ff7 2fbe e571 ed3d 2dff ee3d 3344 8d3e
000000b0: c999 193e 32d1 473e 7382 8b3e e99b bdbd
000000c0: ef4d c43d 49a7 a03e 02bf 2b3e bea2 493d
000000d0: b6a0 e63c 790b c33c 4e89 f63e 9b69 283e
000000e0: 141d 0d3d 07eb 97bd 9549 0ebe dde6 d03e
000000f0: f4a4 96bb 1ea4 cf3d 33f6 d83e 7e34 303e

fc3.weight f4 [12, 64]
0.10386503 -0.7225146 -0.1419512 0.19816029 0.0037707812 0.15548101 0.02338912 -0.027919652
0.12120432 0.054861642 -0.16445252 0.38339087 0.05754799 0.30926743 -0.034862023 -0.0014699501
-0.36023498 0.06317573 -0.4483521 -0.03789681 -0.80128014 0.04880658 0.059444472 0.070744045
0.03947095 0.47813308 -0.18932462 0.11483247 -0.25131077 -0.29348826 0.37394306 0.1144273
0.17604336 -0.028300704 0.19047797 0.16789564 -0.036820907 -0.5447739 -0.12152261 -0.020261297
0.07383532 0.40429884 0.040112387 0.2195881 -0.35718057 0.0148343155 -0.061107934 0.04989443
0.16884016 -0.0631954 0.25871724 0.0031264294 0.16061664 -0.52548873 0.22996758 0.12736991
-0.09743703 0.010102864 0.20277393 0.24499564 -0.111056834 0.13233934 -0.20957732 -0.08953053
0.042546142 0.11987982 -0.30876383 -0.42305282 0.005792704 0.523337 0.028740816 -0.47408533
0.03202251 -0.20563179 0.21923093 0.25061628 0.19049022 0.31939304 -0.5998569 -0.06703398
-0.25881663 -0.34655672 -0.22016513 -0.073169045 0.16464151 -0.28055492 0.0147967385 0.25173178
-0.30570433 0.32893503 0.9860177 -0.15545925 -0.82307637 0.45315072 0.38874087 0.11756865
0.14894003 -0.6193334 0.34654555 -0.56314784 0.4861078 0.2910967 -0.52199805 -0.15090927
-0.042611316 -0.6181398 -0.30877954 -0.41892532 -0.43727306 0.14949352 -0.18346786 -0.00044446907
-0.42675585 -0.5173323 0.08746702 -0.21364789 -0.19851248 -0.7117589 -0.46694285 -0.10887049
-0.50299895 -0.0058757216 0.03548986 0.508225 -0.14972283 -0.25138855 -0.35451135 0.14640266
-0.80075854 0.3793483 0.12944034 0.19411173 -0.28568804 -0.16213496 0.38008898 -0.039719388
0.061538465 -0.10746622 0.23263477 -0.7625336 -0.08935592 -0.036728024 0.21621697 -0.73529714
-0.26981032 0.32788962 -0.13216111 -0.14638396 0.053135734 0.24459973 0.010161351 -0.30138633
-0.45813742 0.08355221 0.4557286 -0.51314515 -0.76164913 -0.33249223 -0.9465507 -0.42766562
-0.07833381 0.41646925 0.05290231 0.24592876 0.51034415 -0.47858155 0.027508318 -0.42810696
-0.36701924 -0.1146434 0.12261758 0.15604042 -0.03998922 0.13111578 0.09691145 -0.5114016
0.16758457 0.0046762554 0.02668523 -0.6081288 -0.056514386 -1.3566697 0.19056211 -0.004401967
0.087858915 -1.0127512 0.14104648 0.10082943 -0.3031556 -1.1769574 0.059131432 -0.4199217
0.3751165 0.0009386779 -0.44082555 -0.9356796 0.034237858 0.23904659 0.4759174 -0.27946115
0.24611384 0.13979001 0.010520001 -0.17772412 -0.30892226 -0.19323653 -0.10747514 0.08395734
0.36804911 -0.6469269 0.03089162 -0.19587183 0.23485574 0.14231992 0.13498038 0.044760548
-0.12426871 -0.14878969 0.33513793 -0.7461424 0.37064317 0.3523137 0.029093942 0.085327856
0.19238196 -0.48535064 0.42969707 -0.2827543 0.018884761 0.28835285 0.64302784 -0.93974334
0.017034288 -0.102372795 0.26553 0.15312001 -0.0039696624 0.27436757 0.21422221 0.23235093
-0.017275997 -0.810322 0.07510679 0.21767491 -0.050701283 0.5701898 0.108995646 2.3027373e-05
0.026356325 0.05241284 0.029686246 -0.38376558 0.11488942 -0.14466715 0.054794475 0.23227899
00000000: 30b7 d43d b8f6 38bf a85b 11be 88ea 4a3e
00000010: 361f 773b 6a36 1f3e 8a9a bf3c c1b7 e4bc
00000020: f839 f83d 9ab6 603d 3e66 28be cf4b c43e
00000030: 71b7 6b3d 4d58 9e3e 7bcb 0ebd 57ab c0ba
00000040: b870 b8be 4762 813d 688e e5be af39 1bbd
00000050: b220 4dbf 69e9 473d 0c7c 733d 41e2 903d
00000060: 4aac 213d dccd f43e 50de 41be 492d eb3d
00000070: ceab 80be 1844 96be 7775 bf3e dc58 ea3d
00000080: b644 343e e1d6 e7bc a80c 433e d6ec 2b3e
00000090: 85d1 16bd 4d76 0bbf d9e0 f8bd 05fb a5bc
000000a0: f936 973d 4200 cf3e e34c 243d b4db 603e
000000b0: 5fe0 b6be a10b 733c 504c 7abd 1a5e 4c3d
000000c0: 6fe4 2c3e 976c 81bd 9676 843e c8e4 4c3b
000000d0: b078 243e 6e86 06bf 9f7c 6b3e 426d 023e
000000e0: 118d c7bd 7c86 253c f8a3 4f3e 23e0 7a3e
000000f0: c471 e3bd f783 073e 709b 56be c85b b7bd
00000100: dd44 2e3d 8d83 f53d 4b16 9ebe 619a d8be
00000110: b9d0 bd3b 6af9 053f dc71 eb3c 50bb f2be
00000120: 092a 033d 2491 52be 137e 603e c750 803e
00000130: de0f 433e 7c87 a33e 3990 19bf 1c49 89bd
00000140: 9d83 84be e26f b1be f872 61be a7d9 95bd
00000150: c997 283e e5a4 8fbe 056e 723c fde2 803e
00000160: 4785 9cbe 2c6a a83e a86b 7c3f b630 1fbe
00000170: 22b5 52bf 5f03 e83e 0b09 c73e d5c7 f03d
00000180: bc83 183e a28c 1ebf 6b6e b13e 752a 10bf
00000190: 1fe3 f83e a00a 953e aaa1 05bf f687 1abe
000001a0: 3489 2ebd 693e 1ebf 5a18 9ebe 617d d6be
000001b0: 41e2 dfbe d414 193e 00df 3bbe a107 e9b9
000001c0: be7f dabe e46f 04bf e921 b33d 83c6 5abe
000001d0: db46 4bbe d535 36bf 2213 efbe 7ef7 debd
000001e0: 8ac4 00bf 2089 c0bb d15d 113d 091b 023f
000001f0: f150 19be 00b6 80be 8382 b5be 94ea 153e
00000200: 83fe 4cbf f139 c23e 028c 043e 3ac5 463e
00000210: b445 92be b506 26be 069b c23e ccb0 22bd
00000220: c20f 7c3d 4017 dcbd cf37 6e3e 6735 43bf
00000230: 3d00 b7bd 2070 16bd fb67 5d3e 6f3c 3cbf
00000240: 9424 8abe 26e1 a73e 3e55 07be ade5 15be
00000250: dba4 593d 5a78 7a3e cc7b 263c 4f4f 9abe
00000260: fd90 eabe 6c1d ab3d 4255 e93e 7b5d 03bf
00000270: 70fb 42bf 6c3c aabe 2651 72bf fdf6 dabe
00000280: 7a6d a0bd 753b d53e 18b0 583d c0d4 7b3e
00000290: eaa5 023f a408 f5be 2059 e13c d630 dbbe
000002a0: f2e9 bbbe 29ca eabd ed1e fb3d 0fc9 1f3e
000002b0: bdcb 23bd 3743 063e 8379 c63d 37eb 02bf
000002c0: 4a9b 2b3e 463b 993b fc9a da3c 54ae 1bbf
000002d0: a17b 67bd 5aa7 adbf b722 433e 603e 90bb
000002e0: 60ef b33d d5a1 81bf 7d6e 103e a97f ce3d
000002f0: 3637 9bbe 8aa6 96bf cd33 723d faff d6be
00000300: 450f c03e 9c11 763a e3b3 e1be b388 6fbf
00000310: ff3c 0c3d a1c8 743e 72ab f33e 8815 8fbe
00000320: 4405 7c3e 1d25 0f3e 155c 2c3c 50fd 35be
00000330: 0f2b 9ebe ccdf 45be ed1b dcbd d3f1 ab3d
00000340: ef70 bc3e 009d 25bf 6c10 fd3c a092 48be
00000350: 067e 703e 50bc 113e 4c38 0a3e d656 373d
00000360: 9880 febd 535c 18be 3397 ab3e 3003 3fbf
00000370: f1c4 bd3e 7662 b43e 6b56 ee3c 5fc0 ae3d
00000380: c7ff 443e e17f f8be 4101 dc3e 2cc5 90be
00000390: 37b4 9a3c fca2 933e 799d 243f 0593 70bf
000003a0: 7e8b 8b3c d4a8 d1bd 8cf3 873e 7ecb 1c3e
000003b0: f113 82bb e879 8c3e 115d 5b3e 67ed 6d3e
000003c0: 6486 8dbc 4371 4fbf 97d1 993d 2ce6 5e3e
000003d0: 26ac 4fbd f5f7 113f 1c39 df3d e82a c137
000003e0: 38e9 d73c d9ae 563d 9230 f33c ec7c c4be
000003f0: 254b eb3d a023 14be 2c70 603d 8bda 6d3e

fc3.bias f4 [12]
0.5407065 -0.13495877 -0.34374607 -0.15046112 -0.17332524 -0.3431735 0.16735008 0.048558116
0.144837 -0.53506005 0.28552875 -0.34991387
00000000: be6b 0a3f a232 0abe 7cff afbe 7b12 1abe
00000010: 2c7c 31be 70b4 afbe d25d 2b3e e0e4 463d
00000020: 2750 143e b2f9 08bf d330 923e e927 b3be
