mlruns/761854136110779325/34e393f9c1c645aa98db11c59c411d74/artifacts/deep_nn_pytorch.pth (torch, 199248 bytes, 22 tensors)

fc1.weight f4 [256, 8]
0	0xbf262d50	-0.6491289
1	0xbc7ebaf9	-0.015547507
2	0xbda179b4	-0.07884541
3	0xbd9ff9b8	-0.07811302
4	0xbe4bf4b8	-0.19917572
5	0x3d428110	0.047486365
6	0x3e5d497c	0.21610063
7	0x3e2c8cf3	0.16850643
8	0xbca932b1	-0.020654054
9	0x3bc67dd7	0.0060574817
10	0x3d19eddc	0.037580356
11	0xbe95aeb5	-0.29234853
12	0x3e25e807	0.16201793
13	0xbec60ae6	-0.3868019
14	0xbd4c88e7	-0.049935248
15	0xbeb76a29	-0.3582318
16	0x3df503b6	0.119635984
17	0xbccd3557	-0.025049848
18	0xbe48935d	-0.19587465
19	0xbdf141a7	-0.117801
20	0xbe570003	-0.20996098
21	0xbf6f3c44	-0.93451333
22	0x3ecbf962	0.398387
23	0xbd5bbbf5	-0.053646047
24	0xbc9d9deb	-0.01924034
25	0xbc8247cc	-0.015903376
26	0xbaed708a	-0.0018115204
27	0x3d81be87	0.06335168
28	0x3ea5548e	0.32291073
29	0xbf5f4f7b	-0.8723065
30	0xbd8963c1	-0.0670848
31	0xbeae13de	-0.33999532
32	0x3db8eb17	0.09029215
33	0x3d3e6dcc	0.04649143
34	0x3e3c1233	0.18366317
35	0xbe81b224	-0.25331223
36	0xbe8f52d8	-0.27992892
37	0x3e4de05d	0.20105119
38	0xbf1aa87e	-0.6041335
39	0xbde7c3c2	-0.11316635
40	0xbea770fe	-0.32703394
41	0x3ded99c7	0.11601596
42	0xbe88c5d8	-0.26713443
43	0xbe9f936a	-0.31167156
44	0x3e76b6ec	0.24093217
45	0xbe42ba5f	-0.19016407
46	0x3da3b2a1	0.07993055
47	0xbcf1ab8a	-0.029500742
48	0xbe049bc1	-0.1295004
49	0xbde52004	-0.11187747
50	0x3ea4bdee	0.32176155
51	0x3e9a6a96	0.30159444
52	0xbee17bc5	-0.4403974
53	0x3d8e666e	0.06953131
54	0xbe83ceff	-0.25743863
55	0x3e65546c	0.22395486
56	0xbeabab9c	-0.33529365
57	0xbbe53ee5	-0.006996023
58	0xbea07507	-0.31339285
59	0xbe2d158e	-0.16902754
60	0xbdb095c0	-0.086223125
61	0x3dba4f6b	0.09097179
62	0x3e216cc5	0.15764149
63	0x3e578c22	0.2104955
64	0xbe17f335	-0.1483887
65	0x3df065ff	0.11738204
66	0x3e376ace	0.17911837
67	0xbede010c	-0.43360174
68	0x3e26dcd0	0.16295171
69	0xbea9a196	-0.33131093
70	0xbd9a44eb	-0.07532676
71	0xbe7aa131	-0.24475552
72	0xbe8f58b4	-0.27997363
73	0xbe06801b	-0.13134806
74	0x3df1f313	0.11813941
75	0x3e38c41e	0.18043563
76	0x3db57678	0.08860487
77	0xbef67499	-0.48135832
78	0x3cdaede7	0.026724769
79	0x3d120d28	0.035657078
80	0x3e9f50be	0.3111629
81	0x3e0f9695	0.14022286
82	0x3e9b60ea	0.30347377
83	0x3e38e94d	0.18057747
84	0xbeb15a7c	-0.34639347
85	0x3e6b9590	0.23006272
86	0x3e03c9f8	0.12870014
87	0xbea14589	-0.31498364
88	0x3e9e73e1	0.30947784
89	0xbd7e7829	-0.062126312
90	0xbecf09d5	-0.4043719
91	0xbd26d5dd	-0.0407313
92	0x3dc24312	0.09485449
93	0x3dd6a8ff	0.10481452
94	0x3e135fe4	0.14392048
95	0xbe394d0d	-0.18095799
96	0x3c5c7a25	0.013456856
97	0xbb6479a6	-0.0034862547
98	0xbca39bb1	-0.0199717
99	0x3e126881	0.14297678
100	0xbe604545	-0.21901424
101	0xbf645a42	-0.8920022
102	0x3ea8495a	0.32868463
103	0xbe7420b4	-0.238406
104	0xbe0a0614	-0.13478881
105	0x3e51ad50	0.2047627
106	0x3eb383ff	0.35061643
107	0xbe61845d	-0.22023149
108	0xbeb5eb22	-0.35530955
109	0xbd2dcf97	-0.0424343
110	0x3e80a63c	0.25126827
111	0xbe936fd0	-0.28796244
112	0x3e179a61	0.14804985
113	0x3cacfd45	0.021116862
114	0x3ecce99d	0.40021983
115	0x3e50eb0f	0.20402168
116	0x3e86413a	0.2622164
117	0xbedd762c	-0.4325422
118	0xbe474a30	-0.19461894
119	0xbc7851cd	-0.015156222
120	0x3c813a7f	0.015774963
121	0x3ae4f50b	0.0017468048
122	0xbcef66b4	-0.029223777
123	0x3ea1a860	0.31573772
124	0xbe5f2742	-0.2179232
125	0xbf3926ff	-0.7232513
126	0x3e290c49	0.16508593
127	0xbe8043b5	-0.25051656
128	0xbbe05497	-0.0068460214
129	0xbc1c2b16	-0.009531757
130	0xbd803f01	-0.06262017
131	0xbef8cce3	-0.48593816
132	0x3c3ca8da	0.011514867
133	0xbf1408d6	-0.5782598
134	0xbecef1fe	-0.40419
135	0xbf2312be	-0.63700473
136	0xbd85355b	-0.065043174
137	0xbd0e2539	-0.034703467
138	0x3e56d332	0.20979002
139	0xbe2f0cdd	-0.1709475
140	0x3ec03493	0.3754011
141	0x3e30483b	0.17215054
142	0xbeae8457	-0.34085342
143	0xbe24718f	-0.16058944
144	0xbc95ffaf	-0.018310396
145	0x3d5ef17e	0.054429524
146	0x3db48c17	0.088157825
147	0xbf1a334e	-0.60234535
148	0x3eac5a88	0.3366282
149	0xbe6dfd3f	-0.23241137
150	0xbe92484f	-0.28570792
151	0xbeaa1375	-0.3321797
152	0xbcc09d88	-0.023512617
153	0x3c8114d7	0.015757008
154	0x3a355f24	0.0006918779
155	0x3e7df778	0.24801433
156	0xbec50682	-0.38481528
157	0xbf207442	-0.62677395
158	0xbd92c9ba	-0.071673825
159	0x3de619ce	0.112353906
160	0x3e67fe4f	0.22655605
161	0x3df40c9e	0.11916469
162	0xbe2cea0b	-0.16886155
163	0xbea98d3e	-0.33115572
164	0x3eb5c8d7	0.3550479
165	0xbe3fb10e	-0.18719885
166	0x3eb7cbe7	0.35897753
167	0xbe658735	-0.22414859
168	0xbe87d98e	-0.2653317
169	0x3d38fefd	0.04516505
170	0xbe8a8e0c	-0.27061498
171	0xbeae4f58	-0.3404491
172	0xbe16c1ff	-0.14722441
173	0x3d12c7c6	0.03583505
174	0x3e178ab4	0.14799005
175	0xbebf3582	-0.3734551
176	0xbe6947ab	-0.22781245
177	0xbd1056d2	-0.03523905
178	0xbe8b4ff5	-0.2720944
179	0x3ed04863	0.40680227
180	0x3da73e2a	0.08166154
181	0x3e0379b3	0.12839393
182	0x3e57f59c	0.21089786
183	0x3ec2dbd6	0.38058347
184	0x3ce4c18e	0.027924325
185	0x3ec7365f	0.3890867
186	0xbd7c57b9	-0.061607096
187	0x3d669429	0.05629364
188	0x3de622c7	0.11237102
189	0x3e32f2c0	0.17475414
190	0x3d2efc05	0.042720813
191	0xbe0cf4c8	-0.13765252
192	0x3cef3391	0.029199393
193	0xbaad77f6	-0.0013234604
194	0xbdca1e1a	-0.09869023
195	0x3d87c9b6	0.0663027
196	0xbf0fd832	-0.5618926
197	0xbed8c731	-0.4233947
198	0xbeb99524	-0.36246598
199	0xbeb4cbcb	-0.35311732
200	0x3bf646a7	0.0075157466
201	0x3c2b1abe	0.010443388
202	0xbce28553	-0.027651465
203	0x3ea1e663	0.31621084
204	0xbe7732c4	-0.2414046
205	0xbf8684a7	-1.0509232
206	0xbd7a64f0	-0.061131418
207	0xbe2dd9cc	-0.16977614
208	0xbe5fcf21	-0.21856357
209	0xbcf6b0af	-0.030113546
210	0xbe60f253	-0.2196744
211	0xbdbe1f8c	-0.09283361
212	0x3e69aa36	0.22818837
213	0x3d30b811	0.04314429
214	0x3dd95775	0.10612384
215	0xbe737648	-0.2377559
216	0x3e282152	0.1641896
217	0x3a4c5878	0.00077951653
218	0xbec198b0	-0.37811804
219	0xbdb0095c	-0.08595535
220	0xbe1f2f5a	-0.15545407
221	0x3d8c7b06	0.06859402
222	0xbeafa388	-0.34304452
223	0x3d9efd8a	0.077632025
224	0x3d3c36f9	0.045950864
225	0x3edb02b4	0.427755
226	0xbdeb5e16	-0.11492555
227	0x3e3cc365	0.18433912
228	0x3e41fcfe	0.18944165
229	0xbece8b0c	-0.4034046
230	0x3d92baf0	0.07164562
231	0xbea7b06c	-0.32751787
232	0x3b97d843	0.0046339347
233	0x3c85bbae	0.016324844
234	0xbc87e92b	-0.016590675
235	0x3d590c78	0.052990407
236	0xbee23668	-0.44182134
237	0xbdf12c2a	-0.11776002
238	0xbdf098fa	-0.11747928
239	0x3df97a38	0.121815145
240	0xbe916c5f	-0.28402993
241	0x394a90bc	0.00019318139
242	0x3e95ad5b	0.29233822
243	0x3cec4a51	0.02884403
244	0x3ed74816	0.42047185
245	0x3e88e0ab	0.26733908
246	0x3e6a3a28	0.22873747
247	0xbd4e3ab8	-0.050348967
248	0x3cdb7f49	0.026794093
249	0xbc1b8d93	-0.009494203
250	0x3b7b054a	0.0038302713
251	0xbe1ce6a1	-0.15322353
252	0x3edae452	0.4275232
253	0xbf085736	-0.53258073
254	0xbe48725d	-0.19574876
255	0xbe0e0c1b	-0.13871805

fc1.bias f4 [256]
0	0xbd1b2adf	-0.037882682
1	0xbe0a265e	-0.13491198
2	0xbe7ce4c2	-0.24696639
3	0x3cde477b	0.027133694
4	0x3e881c03	0.2658387
5	0x3e82f0b6	0.25574273
6	0x3e3f34eb	0.1867253
7	0x3d99b7be	0.07505749
8	0xbeb68d62	-0.35654742
9	0x3e4fa7e1	0.20278884
10	0x3e7108c8	0.23538506
11	0x3db4a725	0.08820943
12	0xbe8fe1a8	-0.2810185
13	0xbe7e689a	-0.2484459
14	0x3d5efcea	0.054440416
15	0x3e29f780	0.1659832
16	0x3dcdd317	0.10050028
17	0xbb8fcec3	-0.0043886616
18	0xbdbdf45a	-0.09275122
19	0x3dc510aa	0.09622319
20	0x3bd6784e	0.006545103
21	0xbe9b178b	-0.302914
22	0x3e8278e0	0.25482845
23	0x3e9f270f	0.31084487
24	0x3e8b927e	0.27260202
25	0x3e9027d7	0.28155395
26	0xbe833719	-0.25627974
27	0x3d4a3fa9	0.049377117
28	0x3eaf5fff	0.34252927
29	0x3cbec547	0.023287429
30	0xbe1fcfbc	-0.15606588
31	0xbcd0063b	-0.025393596
32	0x3d8d8f22	0.06912066
33	0x3ea89ccc	0.32932127
34	0xbd5d70eb	-0.054062765
35	0x3e8719de	0.26386923
36	0x3e38c4ad	0.18043776
37	0x3e4e8910	0.20169473
38	0x3d1fb710	0.03899294
39	0x3e3610ee	0.17779896
40	0x3e90364b	0.28166422
41	0xbe2c5faf	-0.16833375
42	0x3e2b55fb	0.16732018
43	0x3e62f9fd	0.22165675
44	0xbe209474	-0.1568163
45	0x3ea46761	0.32110122
46	0x3e3bc803	0.18338017
47	0x3dc5408e	0.096314535
48	0xbe99fd90	-0.30076265
49	0xbeb02428	-0.34402585
50	0xbe17a099	-0.14807357
51	0x3e1612fc	0.1465568
52	0x3dd57347	0.10422378
53	0xbe8bc3d1	-0.27297834
54	0x3c27ce47	0.010242051
55	0x3dd63f53	0.10461297
56	0x3e61636b	0.22010581
57	0xbe64901f	-0.22320603
58	0xbd32954b	-0.043599408
59	0x3eaafd18	0.3339622
60	0x3e008aff	0.12553023
61	0xbd997c43	-0.07494404
62	0xbe8367d6	-0.25665158
63	0xbe85c0ad	-0.26123562
64	0x3e98bc49	0.2983115
65	0xbcb33a84	-0.021878488
66	0x3e010ff7	0.12603746
67	0x3e5a547e	0.21321294
68	0xbe81b511	-0.25333455
69	0xbe98f084	-0.29871
70	0xbe65dad2	-0.22446755
71	0xbea167d9	-0.31524542
72	0xbe87f651	-0.26555112
73	0xbd026300	-0.031832695
74	0x3ab049c4	0.0013449718
75	0xbeb285ee	-0.34867805
76	0xbe1c6913	-0.15274458
77	0xbe8581d4	-0.26075613
78	0x3dfd858a	0.12378986
79	0x3e93762e	0.288011
80	0x3da580c1	0.080811985
81	0x3e59e373	0.21278171
82	0xbe9ae2d1	-0.30251172
83	0x3e1c7815	0.15280183
84	0xbe2197f1	-0.15780617
85	0x3e1ccb66	0.15311965
86	0xbd811010	-0.06301892
87	0xbe8cc203	-0.2749177
88	0x3d2e80f8	0.042603463
89	0xbe8354aa	-0.2565053
90	0xbdef312c	-0.11679301
91	0x3d870d0d	0.06594286
92	0xbddb5e3a	-0.10711332
93	0xbe76a1b0	-0.24085116
94	0x3dd9e95c	0.10640213
95	0x3e65c501	0.22438432
96	0xbe6ad7fc	-0.22933954
97	0x3da2cdcf	0.07949411
98	0xbd44af83	-0.048018944
99	0xbc36a57e	-0.011147855
100	0x3dbe41d2	0.09289898
101	0x3bfdad26	0.007741588
102	0x3ca549ff	0.020176886
103	0xbeaa07cd	-0.33209077
104	0x3d9ffcd5	0.07811896
105	0x3d179d46	0.037015222
106	0x3e8e15ef	0.2775111
107	0xbe8035d0	-0.25041056
108	0xbea6eb0f	-0.3260121
109	0x3bc7a25e	0.0060923537
110	0xbea4b012	-0.3216558
111	0xbe711333	-0.2354248
112	0x3e5d083d	0.21585174
113	0x3e9dbc02	0.308075
114	0xbe60dfb2	-0.21960333
115	0x3e939ffd	0.28833
116	0xbe71877e	-0.23586842
117	0x3d858335	0.065191664
118	0xbe6ea200	-0.23303986
119	0xbb36ff0b	-0.0027923014
120	0x3e863f73	0.26220283
121	0xbdbad452	-0.09122528
122	0xbe3b2e5e	-0.18279406
123	0x3dd87a28	0.105701745
124	0x3e9d27ee	0.30694526
125	0xbe8d6d76	-0.27622575
126	0x3ea73ff8	0.32665992
127	0x3eb86d48	0.36020875
128	0xbe29e6fe	-0.16592023
129	0xbe6bfd0b	-0.23045747
130	0x3e09dcdb	0.13463156
131	0xbe39e877	-0.18155085
132	0x3c04cead	0.008105916
133	0x3e3ebd54	0.1862691
134	0xbeb30b78	-0.34969687
135	0x3d8e7d9d	0.069575526
136	0x3e7dc9a6	0.24783954
137	0x3dfadd2f	0.12249219
138	0xbe8c7390	-0.27431917
139	0xbe4fb9ef	-0.20285772
140	0x3cc3d666	0.023905944
141	0x3de630f0	0.11239803
142	0xbe01703e	-0.12640473
143	0xbea4e59c	-0.32206428
144	0x3e1fcb2c	0.15604848
145	0x3df15b97	0.117850475
146	0xbbfe7d4c	-0.0077664014
147	0xbd8d174b	-0.068892084
148	0x3e779fdd	0.24182077
149	0xbddb0178	-0.106936395
150	0x3e3c7f4d	0.18407936
151	0x3d7ae425	0.06125273
152	0xbc8e666d	-0.017382825
153	0xbe9f18be	-0.31073564
154	0x3ea84c00	0.32870483
155	0xbea5c120	-0.32373905
156	0x3e51a95f	0.20474766
157	0x3cf048c7	0.029331578
158	0xbe2804b3	-0.16408043
159	0xbdfdeda5	-0.12398843
160	0x3eac2bf0	0.33627272
161	0xbce72939	-0.028217899
162	0x3e260855	0.16214116
163	0x3cea0185	0.028565178
164	0x3e8ec63f	0.27885625
165	0xbdfa5f05	-0.12225155
166	0xbeb47e38	-0.35252547
167	0x3e59d42f	0.21272348
168	0x3c3f7490	0.0116855055
169	0x3e26e49c	0.16298145
170	0x3e31bd31	0.17357327
171	0x3e877828	0.2645886
172	0x3e1ad3b6	0.15119824
173	0xbde2f93d	-0.11082695
174	0x3e80340c	0.2503971
175	0x3e7619bd	0.24033256
176	0xbe819865	-0.2531158
177	0x3df0a17f	0.11749553
178	0xbc3949ca	-0.011309097
179	0x3eab8409	0.33499172
180	0xbce28313	-0.027650392
181	0x3dedce80	0.116116524
182	0x3def3ffe	0.116821274
183	0xbd811f07	-0.06304746
184	0x3e79e219	0.24402656
185	0x3d69e44f	0.057102498
186	0x3dddaed0	0.108243585
187	0xbe43f189	-0.19135107
188	0x3e1586ed	0.14602251
189	0x3e5b0c14	0.21391326
190	0x3e4b9928	0.19882643
191	0x3ea29079	0.3175085
192	0x3e35c99a	0.17752686
193	0x3d7d891f	0.061898347
194	0xbe43861a	-0.19094124
195	0xbde12c7c	-0.10994813
196	0x3d8d0a4d	0.0688673
197	0xbe20d4f4	-0.15706235
198	0x3e6aa8ad	0.22915907
199	0xbda48557	-0.08033245
200	0x3c1fdffb	0.009757991
201	0x3e4ed0d3	0.20196848
202	0xbd39e035	-0.045379836
203	0x3e4ea3c5	0.2017966
204	0x3e858d43	0.26084337
205	0x3e03e521	0.12880374
206	0xbeaffd05	-0.34372726
207	0xbe9783a4	-0.2959262
208	0xbe33d35c	-0.17561096
209	0xbe3f2b2a	-0.1866881
210	0x3e819ddf	0.2531576
211	0x3d5ead05	0.054364223
212	0xbe27b698	-0.16378248
213	0x3eb0f16f	0.345592
214	0x3e408412	0.18800381
215	0x3e9da968	0.3079331
216	0xbd8e2929	-0.069414444
217	0xbceca833	-0.028888797
218	0x3e837d5c	0.2568158
219	0x3eadbf71	0.3393512
220	0x3d5b41cc	0.053529546
221	0xbdb1a8cf	-0.08674776
222	0xbe7ae576	-0.24501595
223	0x3de05968	0.10954553
224	0xbea64af5	-0.32479063
225	0xbe0fe8b3	-0.14053611
226	0xbea082f8	-0.3134992
227	0x3e8f1ebe	0.27953142
228	0xbe80175a	-0.25017816
229	0xbe877f22	-0.26464182
230	0x3da68297	0.08130377
231	0x3e200384	0.15626341
232	0x3d9e17c9	0.077193804
233	0x3e08cd94	0.13359672
234	0x3dc2e51b	0.09516355
235	0xbe9444a2	-0.28958613
236	0x3d021f69	0.031768236
237	0xbe0d3872	-0.13791063
238	0x3e96ab34	0.29427493
239	0xbdc8cb1b	-0.09804364
240	0x3da151d4	0.078769356
241	0xbcb7daa5	-0.022443125
242	0x3e4c7462	0.19966272
243	0x3e06daf1	0.13169457
244	0xbd475e97	-0.048674192
245	0x3e3e44e9	0.18580975
246	0x3df4b270	0.11948097
247	0x3e3ff03b	0.18743984
248	0xbe94fb1b	-0.29097828
249	0xbd29aa7e	-0.04142236
250	0x3eaca7ff	0.3372192
251	0xbe45ed6c	-0.1932885
252	0xbe33638d	-0.17518444
253	0x3e7e5c40	0.24839878
254	0xbe76fc5b	-0.24119703
255	0x3e41e296	0.18934092

bn1.weight f4 [256]
0	0x3f6ecce7	0.93281406
1	0x3f975421	1.1822549
2	0x3f81bcf8	1.0135794
3	0x3fa429b9	1.2825233
4	0x3f528396	0.82232034
5	0x3f4e279d	0.80529195
6	0x3f698cbc	0.9123037
7	0x3f5835af	0.84456915
8	0x3f6f9ef8	0.9360194
9	0x3f68e9fa	0.9098202
10	0x3f5de9a8	0.86684656
11	0x3f572832	0.8404571
12	0x3f93c406	1.1544197
13	0x3f6abd4a	0.9169508
14	0x3f647de1	0.89254576
15	0x3f91c769	1.138898
16	0x3f904f1a	1.127414
17	0x3f7c383f	0.98523325
18	0x3f8bf293	1.0933403
19	0x3f999700	1.1999207
20	0x3f70377b	0.93834656
21	0x3f6b55a8	0.91927576
22	0x3f43ee18	0.7653518
23	0x3f6c27f7	0.9224848
24	0x3f9095f6	1.1295764
25	0x3f8732c3	1.0562366
26	0x3f71ff26	0.9452995
27	0x3f4da6b2	0.8033248
28	0x3f7fa48b	0.9986045
29	0x3f92b197	1.1460446
30	0x3f4a2de2	0.7897626
31	0x3f942979	1.1575156
32	0x3f836e60	1.0268059
33	0x3f7c058b	0.9844596
34	0x3f46e1e1	0.77688414
35	0x3f959c01	1.1688234
36	0x3f98377e	1.1891935
37	0x3f56b2f0	0.83866787
38	0x3f6729d0	0.90298176
39	0x3f68d1fe	0.9094542
40	0x3f5a832d	0.8535641
41	0x3f4f241c	0.80914474
42	0x3f880028	1.0625048
43	0x3f5e9609	0.86947685
44	0x3f549e61	0.8305417
45	0x3f5843df	0.84478563
46	0x3f706269	0.9390016
47	0x3f705538	0.93880033
48	0x3f563a42	0.83682644
49	0x3fa8163f	1.3131789
50	0x3f92baed	1.1463295
51	0x3f685ba5	0.9076484
52	0x3f737efd	0.95115644
53	0x3f732849	0.94983345
54	0x3f62921f	0.88504213
55	0x3f5e6916	0.868791
56	0x3f804900	1.0022278
57	0x3f6fa559	0.93611676
58	0x3f4c64b1	0.7984114
59	0x3f57151a	0.84016573
60	0x3f6a7894	0.9159024
61	0x3f8ad394	1.0845819
62	0x3f54a947	0.83070797
63	0x3f620853	0.8829395
64	0x3f659252	0.8967639
65	0x3f35ef1a	0.71067965
66	0x3f772f22	0.96556294
67	0x3f6a3bff	0.91497797
68	0x3f714da1	0.9425908
69	0x3f609801	0.8773194
70	0x3f9e8cf9	1.2386771
71	0x3f981361	1.1880914
72	0x3f5c16ec	0.85972476
73	0x3f6fbe48	0.9364972
74	0x3f5d9190	0.86550236
75	0x3f7571b1	0.95876604
76	0x3f5fc5b8	0.8741107
77	0x3f4be696	0.7964872
78	0x3f9552df	1.1665915
79	0x3f6ab506	0.9168247
80	0x3f991032	1.1958067
81	0x3f56ed45	0.83955795
82	0x3f853053	1.0405372
83	0x3f740c6a	0.9533144
84	0x3f65156b	0.89485806
85	0x3faebb98	1.3650999
86	0x3f9bbf05	1.216767
87	0x3f8b296e	1.0872018
88	0x3f73a9f6	0.95181215
89	0x3f58d34a	0.846974
90	0x3f7f7310	0.99784946
91	0x3f5de038	0.86670256
92	0x3f500041	0.8125039
93	0x3f77350f	0.96565336
94	0x3f56ebae	0.8395337
95	0x3fa957ba	1.3229897
96	0x3f5f94a3	0.87336177
97	0x3f4abbbb	0.79192704
98	0x3f6754fb	0.90364045
99	0x3f5e0dd3	0.86739844
100	0x3f5d2678	0.86386824
101	0x3f92623e	1.1436231
102	0x3f5d969e	0.8655795
103	0x3f845923	1.0339702
104	0x3f4af170	0.79274654
105	0x3f57e16e	0.84328353
106	0x3f609905	0.8773349
107	0x3f652929	0.8951593
108	0x3f644032	0.89160454
109	0x3f5d517a	0.8645245
110	0x3f69daac	0.9134929
111	0x3f8527b7	1.0402745
112	0x3f8ffe65	1.124951
113	0x3f5abe8a	0.8544699
114	0x3f5a184f	0.8519334
115	0x3f93251b	1.1495699
116	0x3fa1d3b7	1.2642735
117	0x3f6a257e	0.9146346
118	0x3f7796e5	0.9671462
119	0x3f834854	1.0256448
120	0x3f7aeda1	0.9801884
121	0x3f90eae1	1.1321679
122	0x3fa9e1b3	1.3272003
123	0x3f8164e6	1.0108917
124	0x3f61e8a8	0.8824563
125	0x3f752cdf	0.9577159
126	0x3f6c5af0	0.9232626
127	0x3f87eed2	1.0619757
128	0x3f8f8c8a	1.1214764
129	0x3f945ab9	1.1590186
130	0x3f79a0ab	0.97510785
131	0x3f763d95	0.96187717
132	0x3f717c44	0.9433024
133	0x3f84e7ad	1.0383202
134	0x3f7feee3	0.9997389
135	0x3f60f218	0.87869406
136	0x3f9acb89	1.2093364
137	0x3f7a0994	0.97670865
138	0x3f417551	0.75569636
139	0x3f86fcc6	1.054589
140	0x3f82d966	1.0222595
141	0x3f4e8bb6	0.8068193
142	0x3f9caf5a	1.2241013
143	0x3f81a94b	1.0129789
144	0x3f4d2a9c	0.8014314
145	0x3f4c1b67	0.7972931
146	0x3f91c268	1.1387453
147	0x3f6b9593	0.9202511
148	0x3f6e43a7	0.9307198
149	0x3f5f9497	0.87336105
150	0x3f66f529	0.90217835
151	0x3f66aaf9	0.90104634
152	0x3f720de9	0.94552475
153	0x3f9631b7	1.1733922
154	0x3f6ccd13	0.9250042
155	0x3f4d3cdb	0.80170983
156	0x3f6c98a1	0.92420393
157	0x3f43955f	0.763998
158	0x3f89f047	1.0776452
159	0x3f908b89	1.1292583
160	0x3f51719a	0.8181397
161	0x3f472d15	0.77803165
162	0x3f552604	0.8326113
163	0x3f6e95a1	0.93197066
164	0x3f5ecbff	0.87030023
165	0x3f81bde6	1.0136077
166	0x3f8dd22a	1.1079762
167	0x3f48f521	0.7849904
168	0x3f84bac4	1.0369496
169	0x3f86cd11	1.0531331
170	0x3f8ed40e	1.1158464
171	0x3f64db99	0.8939758
172	0x3f5bc77a	0.8585125
173	0x3f5c1b6f	0.8597936
174	0x3f75be5e	0.959936
175	0x3f5f5e03	0.87252825
176	0x3f975e77	1.1825703
177	0x3f8f44d0	1.1192875
178	0x3fa2a5b9	1.2706825
179	0x3f73a17d	0.95168287
180	0x3f7dd5dd	0.99154454
181	0x3f5eed7b	0.87081116
182	0x3f4a3dce	0.79000556
183	0x3f672b75	0.90300685
184	0x3f695bd9	0.91155773
185	0x3f771416	0.96515024
186	0x3f9dc812	1.2326682
187	0x3f578596	0.8418821
188	0x3f73603c	0.95068717
189	0x3f364d8d	0.71212083
190	0x3f97c1f6	1.1856067
191	0x3f6f8386	0.93560064
192	0x3f7ecd6a	0.99532187
193	0x3f9bce53	1.217234
194	0x3f47508a	0.7785727
195	0x3f7c7213	0.98611563
196	0x3f93a717	1.1535367
197	0x3f639edd	0.8891428
198	0x3f96839b	1.1758913
199	0x3f76450b	0.961991
200	0x3f59f5dd	0.8514078
201	0x3f664c3a	0.8996006
202	0x3f67b83a	0.9051548
203	0x3f928b0c	1.1448684
204	0x3f60554d	0.8763016
205	0x3f95a1e3	1.1690029
206	0x3f82e739	1.0226814
207	0x3f7ba51d	0.9829882
208	0x3fa39d41	1.2782365
209	0x3f85b98b	1.0447248
210	0x3f4f2631	0.8091765
211	0x3f9227f7	1.1418446
212	0x3f50b8cd	0.81531984
213	0x3f6744e3	0.9033949
214	0x3f66dc0d	0.9017952
215	0x3f678a79	0.9044567
216	0x3f87a07d	1.0595852
217	0x3f44c324	0.7686026
218	0x3f678bd9	0.90447766
219	0x3f72bf33	0.94822997
220	0x3f9edb11	1.2410604
221	0x3f719e69	0.9438234
222	0x3f727eeb	0.9472491
223	0x3f4fe4d6	0.8120855
224	0x3f4603eb	0.7734973
225	0x3f65d310	0.8977518
226	0x3f5421b8	0.8286395
227	0x3f8b31d2	1.0874579
228	0x3f6022a7	0.87552875
229	0x3f609800	0.87731934
230	0x3f777179	0.9665752
231	0x3f6fb3f5	0.9363397
232	0x3f6dcf10	0.9289408
233	0x3f823b95	1.0174433
234	0x3f96d024	1.178227
235	0x3f626e9c	0.88450027
236	0x3f78e54f	0.972249
237	0x3f6218f4	0.88319325
238	0x3f68da46	0.9095806
239	0x3f85d17d	1.0454556
240	0x3f39686a	0.7242495
241	0x3f84aec3	1.0365833
242	0x3f7eb0b8	0.994884
243	0x3f74a063	0.9555723
244	0x3f79d33e	0.97587955
245	0x3f5d4efe	0.8644866
246	0x3f8a4b6d	1.0804268
247	0x3f64973c	0.89293265
248	0x3f82510f	1.0180987
249	0x3f686045	0.90771896
250	0x3f8f54b2	1.1197722
251	0x3f5fdfcc	0.8745086
252	0x3f51ac35	0.8190339
253	0x3f7a00c9	0.9765745
254	0x3f6af3fe	0.9177855
255	0x3f557858	0.83386755

bn1.bias f4 [256]
0	0xbecd30d9	-0.4007633
1	0xbe7281ce	-0.23682329
2	0xbdc9360a	-0.0982476
3	0xbe66c8e3	-0.2253757
4	0xbdbe60cc	-0.09295806
5	0xbc0609b7	-0.008181027
6	0xbe28dd4e	-0.16490671
7	0xbe2bbac5	-0.16770466
8	0xbe26e4ad	-0.1629817
9	0xbea90f1b	-0.33019337
10	0xbe439bc5	-0.1910239
11	0xbe85fc76	-0.26169175
12	0xbe2645b4	-0.16237527
13	0xbe7a6112	-0.24451092
14	0xbea3ea1c	-0.3201455
15	0xbe1e90eb	-0.1548497
16	0xbe2bd6f9	-0.16781224
17	0xbe6add07	-0.22935878
18	0xbe51da2e	-0.20493385
19	0xbe7d0c01	-0.2471161
20	0xbe6fd2bb	-0.23420231
21	0xbd9e715f	-0.077364676
22	0xbbf4df83	-0.0074729337
23	0xbe3ec36c	-0.18629235
24	0xbe2b2b45	-0.16715725
25	0xbe1e9d4e	-0.15489694
26	0xbdf4289e	-0.119218096
27	0xbdab133c	-0.08353278
28	0xbe546a9c	-0.20743793
29	0xbe2aeee5	-0.16692694
30	0xbd3b01da	-0.045656063
31	0xbe0c784b	-0.13717763
32	0xbdc1c1bf	-0.09460782
33	0xbdf6d81b	-0.120529376
34	0xbe13ef86	-0.1444684
35	0xbe66ff41	-0.22558309
36	0xbe2f6437	-0.17128073
37	0xbe566640	-0.20937443
38	0xbde89810	-0.113571286
39	0xbdeceb6f	-0.11568343
40	0xbe1842da	-0.14869252
41	0xbdef63e5	-0.11688975
42	0xbe816dc9	-0.25279072
43	0xbd7efe5c	-0.062254295
44	0xb9684f67	-0.00022154824
45	0xbe061c97	-0.13096844
46	0xbe91e322	-0.284936
47	0xbe9b75ea	-0.303634
48	0xbe716eb6	-0.23577389
49	0xbe7392b7	-0.23786436
50	0xbe57dc45	-0.2108012
51	0xbb8c0b13	-0.004273781
52	0xbe2c66ee	-0.1683614
53	0x3d5046e1	0.050848845
54	0xbe5f59f5	-0.2181166
55	0xbe50e9a6	-0.2040163
56	0x3cc4aa32	0.024006937
57	0xbe8a1e36	-0.26976174
58	0xbd227bcb	-0.03966884
59	0xbd47cb19	-0.048777673
60	0x3db42c66	0.08797531
61	0xbe4c01e4	-0.19922596
62	0xbe848bc9	-0.25887898
63	0xbe28bf9b	-0.16479342
64	0xbca81a3c	-0.020520322
65	0xbd84e008	-0.06488043
66	0xbde328ba	-0.11091752
67	0xbe4ff7c0	-0.20309353
68	0xbddac7eb	-0.106826626
69	0xbe7b3753	-0.24532823
70	0xbe67ef9c	-0.22649997
71	0xbdca3710	-0.098737836
72	0xbdff0d8c	-0.12453756
73	0xbdfb6a37	-0.12276118
74	0xbe861844	-0.26190388
75	0xbeafebd0	-0.34359598
76	0xbd25dc3e	-0.040493242
77	0xbe769a0d	-0.24082203
78	0xbe2a4ac0	-0.16630077
79	0xbe2ca8e7	-0.16861306
80	0xbe431946	-0.1905261
81	0xbe012287	-0.12610827
82	0xbec87fc9	-0.39159992
83	0xbb129074	-0.0022363933
84	0xbe2ec628	-0.17067778
85	0xbea39a18	-0.31953502
86	0xbe5ddfd5	-0.21667416
87	0xbe5e723a	-0.21723261
88	0xbe55540a	-0.2083284
89	0xbe7bd306	-0.24592218
90	0xbe6daa75	-0.23209555
91	0xbe11e5c0	-0.14247799
92	0xbda1e5d5	-0.07905165
93	0xbe22c83e	-0.15896699
94	0xbeb6b07d	-0.35681525
95	0xbe87fe63	-0.2656127
96	0xbca72d05	-0.02040721
97	0xbec5a456	-0.3860194
98	0xbe33342d	-0.17500372
99	0xbe863203	-0.2621003
100	0xbe9b9200	-0.30384827
101	0xbd51d172	-0.051225133
102	0xbe911ab5	-0.28340688
103	0xbe622df4	-0.22087842
104	0xbe4f3f69	-0.20239033
105	0xbe899f52	-0.26879364
106	0xbde3a806	-0.11116032
107	0xbdc887c8	-0.09791523
108	0xbdae7219	-0.08517856
109	0xbdcac359	-0.09900541
110	0xbe81361b	-0.25236592
111	0xbdd63fb0	-0.10461366
112	0xbe8fcb4c	-0.2808479
113	0xbe8d70e3	-0.27625188
114	0xbcab65ca	-0.02092256
115	0xbdc6f361	-0.097143896
116	0xbe80bf12	-0.25145775
117	0xbdede253	-0.116154335
118	0xbda3cc78	-0.07997984
119	0xbe027cf2	-0.12742975
120	0xbe9fe7c9	-0.31231526
121	0xbe7a2b4c	-0.24430579
122	0xbe79f0a8	-0.2440821
123	0xbe3bbbab	-0.18333308
124	0xbe0d8816	-0.13821444
125	0xbe9fa7b7	-0.31182644
126	0xbe142be9	-0.14469875
127	0xbe42066c	-0.18947762
128	0xbe0e8259	-0.13916911
129	0xbe29336c	-0.16523522
130	0xbe75bd0e	-0.239979
131	0xbe1c0654	-0.15236789
132	0xbdc8ef4c	-0.09811267
133	0x3d16d667	0.036825564
134	0xbc0690aa	-0.008213202
135	0xbe3e91a4	-0.18610245
136	0xbe3d5a43	-0.18491463
137	0xbe303123	-0.17206244
138	0xbe9fb63b	-0.31193718
139	0xbe51ae21	-0.20476581
140	0xbe22e4dd	-0.15907617
141	0x3d6b56f7	0.057455983
142	0xbe378926	-0.17923412
143	0xbe627cb0	-0.22117877
144	0x3c018f08	0.007907636
145	0xbe0bfe29	-0.13671173
146	0xbe82906b	-0.25500807
147	0xbe4af960	-0.19821692
148	0xbe00ddcd	-0.1258461
149	0xbe3f0302	-0.18653491
150	0x3cb400ff	0.021973131
151	0xbe5bde80	-0.21471596
152	0xbe90d588	-0.2828791
153	0xbe511e8e	-0.20421812
154	0xbe9f5c8b	-0.31125292
155	0xbe3d11ac	-0.18463773
156	0x3e130135	0.14355929
157	0x3d9f42d8	0.07776421
158	0xbe289118	-0.16461599
159	0xbe29bd9a	-0.16576234
160	0xbe6a5aaa	-0.22886148
161	0xbeae0535	-0.33988348
162	0xbe037355	-0.12836964
163	0xbeaa19a3	-0.33222684
164	0xbebb094d	-0.36530533
165	0xbdfa8ad9	-0.12233514
166	0xbe1fd51c	-0.15608639
167	0x3e380cb5	0.17973597
168	0xbd554c38	-0.05207464
169	0xbd82f514	-0.06394401
170	0xbe7a81a2	-0.24463513
171	0xbd69ea6d	-0.05710833
172	0xbe210435	-0.15724261
173	0xbe194076	-0.14965996
174	0xbe4b6002	-0.19860843
175	0xbde6ef7c	-0.11276147
176	0xbe980a48	-0.29695344
177	0xbe65d69b	-0.22445147
178	0xbe689ecb	-0.22716825
179	0xbe1594c1	-0.14607526
180	0xbe4d2c4a	-0.20036426
181	0xbeadb863	-0.33929738
182	0xbe35ffa9	-0.17773308
183	0xbe28627f	-0.16443823
184	0xbe49d6b4	-0.19710809
185	0x3d83aeca	0.06429823
186	0xbe665cdc	-0.2249636
187	0xbebd5658	-0.36979938
188	0xbe43577a	-0.19076338
189	0xbd871092	-0.065949574
190	0xbe60dae3	-0.21958499
191	0xbe22aa06	-0.15885171
192	0xbe5bcf39	-0.21465768
193	0xbe139c20	-0.14415026
194	0xbe70f98a	-0.23532692
195	0xbdf66fc0	-0.12033033
196	0xbda26bfd	-0.079307534
197	0xbe1d6d41	-0.15373708
198	0xbd8647f2	-0.06556691
199	0xbe16e353	-0.14735155
200	0xbe8ffe70	-0.28123808
201	0xbdba53b4	-0.09097996
202	0xbe2e8666	-0.17043456
203	0xbe2bf1f0	-0.1679151
204	0xbe7ff71f	-0.24996613
205	0xbdff1f1e	-0.12457107
206	0xbdcfeef4	-0.101529986
207	0xbd6491ec	-0.055803224
208	0xbe3081b2	-0.17236975
209	0xbe6c8b6b	-0.23100059
210	0xbe4629e9	-0.19351925
211	0xbda1b193	-0.07895198
212	0xbe057985	-0.13034637
213	0xbe2b2f31	-0.16717221
214	0xbe405b74	-0.18784887
215	0x3d8fb554	0.070170075
216	0xbe303754	-0.17208606
217	0xbe8aa338	-0.2707765
218	0xbe3b340c	-0.18281573
219	0xbe0874e5	-0.13325842
220	0xbe5133af	-0.20429872
221	0xbd2d8c9f	-0.042370435
222	0xbd91e1e1	-0.07123161
223	0xbdb98813	-0.09059157
224	0x3d5039bf	0.05083632
225	0xbec68b3c	-0.38778102
226	0xbe9bbbb9	-0.3041666
227	0xbe2ed30b	-0.17072694
228	0xbe6507a3	-0.22366194
229	0xbeb2bfd6	-0.34911984
230	0xbda7ff03	-0.082029365
231	0xbee069bf	-0.43830678
232	0xbe79eeca	-0.24407497
233	0xbdd36eea	-0.103238896
234	0xbd974a2f	-0.07387196
235	0xbe69d536	-0.2283524
236	0xbe07978e	-0.13241407
237	0xbe8c5987	-0.27412054
238	0xbe604ebc	-0.21905035
239	0xbdbf11c6	-0.09329562
240	0xbdfb7736	-0.12278597
241	0xbe293e47	-0.16527663
242	0xbea23579	-0.3168142
243	0xbd909aba	-0.07060762
244	0xbd884582	-0.066538826
245	0xbe9466eb	-0.2898477
246	0xbda3ac07	-0.07991796
247	0x3b528629	0.0032123423
248	0xbe604026	-0.2189947
249	0xbe5b3b87	-0.21409427
250	0xbe7a1f6f	-0.24426053
251	0xbe0dfe61	-0.13866569
252	0xbe0185a4	-0.12648636
253	0xbe91eac1	-0.28499416
254	0xbd5f432f	-0.05450743
255	0xbe4f46e8	-0.20241892

bn1.running_mean f4 [256]
0	0xbd86d604	-0.06583789
1	0xbe275dae	-0.1634433
2	0xbe8413c1	-0.2579632
3	0x3baf44f9	0.0053487984
4	0x3e8300db	0.2558659
5	0x3e70942c	0.23494023
6	0x3e3c39ec	0.1838147
7	0x3d9e56e8	0.0773142
8	0xbed065cd	-0.40702668
9	0x3e3d6d60	0.18498755
10	0x3e66a193	0.22522573
11	0x3e039d3b	0.12852947
12	0xbe9b1f3c	-0.30297267
13	0xbe9d85cc	-0.3076614
14	0x3d12c984	0.03583671
15	0x3e1ef64e	0.15523645
16	0x3d8a701e	0.06759666
17	0xbc9dd449	-0.019266265
18	0xbe04cf34	-0.12969667
19	0x3dbab0ca	0.09115751
20	0xba864148	-0.0010242844
21	0xbea4fa5e	-0.32222265
22	0x3e91e41a	0.2849434
23	0x3e98383a	0.29730397
24	0x3e8981a4	0.2685672
25	0x3e890fa1	0.26769736
26	0xbe84ceea	-0.25939113
27	0x3daf288e	0.08552657
28	0x3ea35874	0.31903422
29	0x3cd215ed	0.02564522
30	0xbe3d648f	-0.18495391
31	0xbd2257d6	-0.039634548
32	0x3d984422	0.0743487
33	0x3e95d253	0.29262027
34	0xbd26e764	-0.040748015
35	0x3e77b7c9	0.24191202
36	0x3e26af17	0.16277729
37	0x3e1d53c6	0.15363988
38	0x3d8756a6	0.06608324
39	0x3e26835d	0.16261049
40	0x3e9730ff	0.2952957
41	0xbe0fced6	-0.14043745
42	0x3e55633d	0.20838638
43	0x3e7acf39	0.24493112
44	0xbe1c6e38	-0.1527642
45	0x3e92c347	0.2866461
46	0x3e2292ad	0.15876265
47	0x3dbe44de	0.09290479
48	0xbea2f7ab	-0.3182958
49	0xbebaa2ec	-0.36452425
50	0xbe2b6cd4	-0.16740733
51	0x3e23c162	0.15991738
52	0x3dbc7561	0.09202076
53	0xbe90bb12	-0.28267723
54	0xbcbf9066	-0.023384284
55	0x3e01228b	0.12610833
56	0x3e56053f	0.20900439
57	0xbe6ef332	-0.23334959
58	0xbcc2233f	-0.023698447
59	0x3ea09bfd	0.3136901
60	0x3e138b43	0.14408593
61	0xbdc1316c	-0.094332546
62	0xbe8a5fca	-0.27026206
63	0xbe7d95f8	-0.2476424
64	0x3ea22ddc	0.31675613
65	0xbd089a03	-0.033350002
66	0x3db0ce8f	0.08633148
67	0x3e37e3cc	0.17957991
68	0xbe712140	-0.2354784
69	0xbe9df31d	-0.30849543
70	0xbe6b1e2b	-0.22960727
71	0xbe9d0d41	-0.30674174
72	0xbe845512	-0.25846153
73	0xbd26c703	-0.040717136
74	0xbcc4919a	-0.02399521
75	0xbebdd383	-0.37075433
76	0xbe0f0744	-0.13967615
77	0xbe8aad2a	-0.2708524
78	0x3dd3c62d	0.103405334
79	0x3ea2b835	0.31781164
80	0x3d82c8b9	0.06385941
81	0x3e61c171	0.22046448
82	0xbea5ca16	-0.32380742
83	0x3e2626fa	0.16225806
84	0xbe5dd5b1	-0.21663548
85	0x3e05d4c1	0.1306944
86	0xbd9fa585	-0.07795242
87	0xbe9047af	-0.2817969
88	0x3d53eac0	0.051737547
89	0xbe5fba7a	-0.21848479
90	0xbe0e51a6	-0.13898334
91	0x3d340118	0.043946356
92	0xbdcf1fc1	-0.101134785
93	0xbe6157c2	-0.22006133
94	0x3dc6ee2e	0.09713398
95	0x3e4bbf87	0.1989728
96	0xbe3e3f86	-0.1857892
97	0x3d94927a	0.07254501
98	0xbd53a757	-0.05167326
99	0xbd03a7bc	-0.032142386
100	0x3db00811	0.085952885
101	0x3c32d18e	0.01091422
102	0x3d158ea3	0.036512982
103	0xbeba429f	-0.36378953
104	0x3d97588e	0.07389937
105	0x3d65136d	0.05592673
106	0x3e82f94d	0.25580826
107	0xbe83d027	-0.25744745
108	0xbea2f3a8	-0.3182652
109	0x3ceadd3e	0.02866995
110	0xbea1e007	-0.31616232
111	0xbe7891c0	-0.24274349
112	0x3e4121e3	0.18860583
113	0x3e955e34	0.29173434
114	0xbe7440db	-0.23852865
115	0x3e8e961f	0.27848908
116	0xbe84b9bb	-0.2592295
117	0x3ccd2a1a	0.02504449
118	0xbe80354a	-0.25040656
119	0x3bcb956a	0.00621288
120	0x3e96c45b	0.29446682
121	0xbdbdbc99	-0.09264488
122	0xbe4eda79	-0.20200528
123	0x3dbabf16	0.09118478
124	0x3e9d3430	0.30703878
125	0xbe956583	-0.2917901
126	0x3e985efd	0.2975997
127	0x3eb95a51	0.36201718
128	0xbe4048e7	-0.1877781
129	0xbe626816	-0.22110018
130	0x3e0e11e1	0.13874008
131	0xbe4975cb	-0.1967384
132	0x3d373128	0.044724613
133	0x3e3c2a87	0.18375598
134	0xbebc5498	-0.3678329
135	0x3d7c9c51	0.061672512
136	0x3e62bf92	0.22143391
137	0x3dd1ee1e	0.102504954
138	0xbe803b2f	-0.25045153
139	0xbe54d1f9	-0.20783223
140	0x3d1bc691	0.038031165
141	0x3e030b1d	0.12797208
142	0xbe19b9ec	-0.1501233
143	0xbeb5cd3c	-0.35508144
144	0x3e148ae2	0.14506105
145	0x3db6c4ed	0.08924279
146	0xbd419a73	-0.047266435
147	0xbcbde1be	-0.023178931
148	0x3e626a72	0.22110918
149	0xbd8f91f4	-0.0701026
150	0x3e4d0bd4	0.20024043
151	0x3d59412e	0.053040676
152	0xbc9e07b5	-0.019290784
153	0xbeac070a	-0.3359912
154	0x3eb6144f	0.3556237
155	0xbe9d239a	-0.30691224
156	0x3e749c6f	0.238878
157	0x3d263b33	0.0405838
158	0xbe4505ca	-0.1924049
159	0xbe1b6248	-0.1517421
160	0x3eb566a5	0.35429874
161	0xbd0e0966	-0.03467693
162	0x3e0cc57f	0.13747214
163	0x3b58e870	0.0033097528
164	0x3e8cb58b	0.27482256
165	0xbe16b5a6	-0.14717731
166	0xbec51321	-0.38491157
167	0x3e50f92d	0.20407553
168	0x3c8d018b	0.01721265
169	0x3e13b084	0.14422804
170	0x3e24e8e6	0.16104469
171	0x3e6c86cf	0.230983
172	0x3e1c74ed	0.15278979
173	0xbde6665b	-0.112499915
174	0x3e5e5195	0.21710809
175	0x3e869331	0.26284173
176	0xbe900bfc	-0.28134143
177	0x3ddcab8a	0.10774906
178	0xbd16bfae	-0.036803894
179	0x3e97d74a	0.2965644
180	0xbd7de458	-0.061985344
181	0x3db81405	0.089881934
182	0x3ddc9d86	0.10772233
183	0xbd9ca4a1	-0.07648588
184	0x3e8154b9	0.2525995
185	0x3d7f42a9	0.06231943
186	0x3da3e9dd	0.0800359
187	0xbe2433d1	-0.16035391
188	0x3e142279	0.14466275
189	0x3e6640b0	0.22485614
190	0x3e342d02	0.17595294
191	0x3ea81368	0.32827306
192	0x3e1840e8	0.1486851
193	0x3d8f21ab	0.069888435
194	0xbe2a5533	-0.16634063
195	0xbdab8c5e	-0.08376382
196	0x3d48c605	0.04901697
197	0xbe0bd248	-0.13654435
198	0x3e666618	0.22499883
199	0xbdd4c791	-0.10389627
200	0xbd1c217e	-0.03811788
201	0x3e5053a2	0.20344403
202	0xbd86ef54	-0.06588617
203	0x3e3865cb	0.18007581
204	0x3e72a9c5	0.23697574
205	0x3de352b6	0.1109976
206	0xbeb7c8c7	-0.35895368
207	0xbe946318	-0.28981853
208	0xbe481f01	-0.19543077
209	0xbe524547	-0.2053424
210	0x3e749ff4	0.23889142
211	0x3d017141	0.031602148
212	0xbe1deebd	-0.15423103
213	0x3ec27acc	0.37984312
214	0x3e224c7f	0.15849493
215	0x3e9e44fc	0.30912006
216	0xbdc018ea	-0.09379752
217	0x3c78b645	0.015180175
218	0x3e86cb36	0.26326913
219	0x3ebc20e1	0.36743835
220	0x3cefe85c	0.029285602
221	0xbe0c8560	-0.13722754
222	0xbe9033d4	-0.28164542
223	0x3dbccf77	0.09219258
224	0xbe9d06e9	-0.30669335
225	0xbe42159b	-0.18953554
226	0xbea2a558	-0.31766772
227	0x3e821037	0.25402996
228	0xbe8eb793	-0.2787443
229	0xbea1f4b9	-0.3163202
230	0x3d900c05	0.070335425
231	0x3e009a6c	0.12558907
232	0x3d2596c9	0.040427003
233	0x3e1581ac	0.14600247
234	0x3dd28da4	0.10280922
235	0xbe944159	-0.28956106
236	0x3bcf3e6a	0.006324579
237	0xbe11f1d1	-0.14252402
238	0x3e959328	0.29213834
239	0xbe06804c	-0.13134879
240	0x3d9446b4	0.07240048
241	0xbce8af5a	-0.028403927
242	0x3e3550cb	0.17706601
243	0x3e2ee7e7	0.17080651
244	0xbcac5974	-0.021038748
245	0x3e317107	0.17328273
246	0x3de58199	0.112063594
247	0x3e4eb073	0.20184498
248	0xbe95b3a5	-0.2923862
249	0xbdbe25e2	-0.09284569
250	0x3e9db694	0.3080336
251	0xbe5412b2	-0.20710257
252	0xbe26ada5	-0.16277178
253	0x3e591ea5	0.21203096
254	0xbe8966cd	-0.26836243
255	0x3e49f9aa	0.19724146

bn1.running_var f4 [256]
0	0x3ef48453	0.47757205
1	0x3f276578	0.65389204
2	0x3f928147	1.1445702
3	0x3f76fc27	0.96478504
4	0x3f4453d1	0.76690394
5	0x3e97f93a	0.29682332
6	0x3e86703b	0.262575
7	0x3ea64785	0.3247644
8	0x3f3c2371	0.7349158
9	0x3e8f1a56	0.2794978
10	0x3eb02db0	0.34409857
11	0x3e80077f	0.2500572
12	0x3f887a60	1.0662346
13	0x3f2b0d12	0.6681682
14	0x3ee32406	0.4436342
15	0x3f2ab6c0	0.66685104
16	0x401da094	2.462926
17	0x3dde17b3	0.10844364
18	0x3f57f6c5	0.84360915
19	0x3ef1bf31	0.4721618
20	0x3ea4d789	0.3219569
21	0x3f058808	0.5216069
22	0x3f9175d9	1.1364089
23	0x3e4a220a	0.19739547
24	0x3fbf2034	1.4931703
25	0x3faf83ff	1.3712157
26	0x3e0de004	0.13854986
27	0x3e9d198d	0.30683556
28	0x3ebc4b38	0.36776137
29	0x3e2e5402	0.17024234
30	0x3f081330	0.5315428
31	0x3ec88a87	0.39168188
32	0x3e259165	0.16168745
33	0x3e831949	0.2560523
34	0x3e0354b1	0.12825276
35	0x3f741566	0.9534515
36	0x3ecf5edc	0.4050206
37	0x3ed16104	0.4089433
38	0x3e803249	0.25038365
39	0x3ebed13d	0.3726901
40	0x3e617ab3	0.22019462
41	0x3e56d99c	0.20981449
42	0x3ec4406a	0.38330394
43	0x3e5fc315	0.21851762
44	0x3e8df758	0.2772777
45	0x3f1b6fa6	0.60717237
46	0x3e72a5af	0.23696016
47	0x3e9dcb3b	0.30819115
48	0x3f0e3868	0.5555482
49	0x3f60d37a	0.8782269
50	0x3eab0387	0.3340113
51	0x3e4018e3	0.18759494
52	0x3f36b44d	0.7136887
53	0x3e7d9224	0.2476278
54	0x3ea2029b	0.31642613
55	0x3edfc991	0.4370847
56	0x3e94a60c	0.29032934
57	0x3eb746fc	0.35796344
58	0x3e236a5b	0.1595854
59	0x3e97d899	0.29657438
60	0x3e658e4b	0.22417562
61	0x3f9cf448	1.2262049
62	0x3eea9fd0	0.45825052
63	0x3e71b56f	0.23604368
64	0x3e87acf6	0.26499146
65	0x3ee8d84e	0.45477527
66	0x3ef93a08	0.48677087
67	0x3e8c7cc0	0.27438927
68	0x3ecbe3b1	0.39822152
69	0x3e5337b2	0.20626715
70	0x3e67819f	0.2260804
71	0x3eb4cdfd	0.35313407
72	0x3e5f3a0f	0.21799491
73	0x3f6b5619	0.9192825
74	0x3f10b4e8	0.5652604
75	0x3e04294a	0.12906376
76	0x3e4bcc93	0.19902258
77	0x3eec0431	0.46096948
78	0x3fc30cf9	1.5238334
79	0x3e8d10f3	0.27551994
80	0x3e96d5bf	0.2945995
81	0x3f19b9b9	0.60049015
82	0x3e4d9be3	0.20078997
83	0x3ed0c86a	0.40777904
84	0x3f650a49	0.8946882
85	0x3ea36497	0.3191268
86	0x3e30ddbb	0.17272083
87	0x3fef4886	1.8694007
88	0x3e0d32a6	0.13788852
89	0x3e42d48e	0.19026396
90	0x3ea664db	0.32498822
91	0x3ef5b73f	0.47991368
92	0x3e5db80d	0.21652241
93	0x3e38058b	0.17970864
94	0x3f2e6275	0.68118984
95	0x3fc7ce36	1.5609806
96	0x3ed0db28	0.40792203
97	0x3e91fadc	0.28511703
98	0x3e9eb3f2	0.30996662
99	0x3e17048d	0.1474783
100	0x3ec50fea	0.38488704
101	0x3e178157	0.14795433
102	0x3e8e8d6e	0.27842277
103	0x3e76fca0	0.24119806
104	0x3f0482d1	0.5176211
105	0x3e87128f	0.26381347
106	0x3ec3c6a3	0.38237485
107	0x3ecf4288	0.40480447
108	0x3eb84233	0.35988006
109	0x3df63cf6	0.12023346
110	0x3e2782fb	0.16358559
111	0x3f710541	0.9414864
112	0x3f96fc1e	1.179569
113	0x3e94c078	0.29053092
114	0x3fd00bf6	1.625365
115	0x3de2a494	0.11066547
116	0x3fc0e818	1.5070829
117	0x3e5292fa	0.2056388
118	0x3e3df9fc	0.18552393
119	0x3e56d0dc	0.20978111
120	0x3e22a150	0.15881848
121	0x3f3810a1	0.71900374
122	0x3f6a4d5b	0.91524285
123	0x3e96b7b2	0.29437023
124	0x3f2366de	0.6382884
125	0x3e999075	0.29993024
126	0x3e939cc1	0.2883053
127	0x3e813907	0.2523882
128	0x3e6e0e8d	0.23247738
129	0x3fcc8ce8	1.5980501
130	0x3eec0735	0.4609925
131	0x3f0f7361	0.5603543
132	0x3efc2370	0.49245787
133	0x3dfedcf8	0.1244449
134	0x3e59b5dd	0.21260782
135	0x3e4a6f2e	0.19768974
136	0x3fb39420	1.4029579
137	0x3e2c02e0	0.16797972
138	0x3f15ef0f	0.585679
139	0x3fbc36fd	1.4704281
140	0x3ebec900	0.37262726
141	0x3e708586	0.23488435
142	0x3ee83bd1	0.45358136
143	0x3f212ee3	0.6296217
144	0x3d7afd6e	0.061276846
145	0x3e96648a	0.2937358
146	0x3fbffa48	1.4998255
147	0x3ea144d5	0.31497827
148	0x3e09c7bd	0.134551
149	0x3eaec1c4	0.34132206
150	0x3e0bc9a2	0.13651136
151	0x3ec3cdea	0.38243037
152	0x3dfd084d	0.12355099
153	0x3fb6e76d	1.4289376
154	0x3e7bfbac	0.24607724
155	0x3dbe5b7c	0.09294793
156	0x3eaa2b82	0.3323632
157	0x3e89c777	0.26909992
158	0x3ecc152b	0.398599
159	0x3f83ff51	1.0312291
160	0x3ef79673	0.4835697
161	0x3f14414c	0.57912135
162	0x3e2755e2	0.16341355
163	0x3efb5888	0.4909098
164	0x3e23991f	0.1597638
165	0x3ee54504	0.44779217
166	0x3fc71ea3	1.5556225
167	0x3de67b26	0.112539575
168	0x3f41ed5b	0.757528
169	0x3e5dc714	0.21657974
170	0x3fa7f7fa	1.3122551
171	0x3f0c21b4	0.54738927
172	0x3eb8a92f	0.36066577
173	0x3e8f5586	0.27994937
174	0x3e3d6209	0.18494429
175	0x3e0e9c13	0.13926725
176	0x3f352328	0.7075677
177	0x3f9605fd	1.1720577
178	0x3fa22d85	1.2670141
179	0x3f868409	1.0509044
180	0x3ebb5461	0.36587813
181	0x3f0217fa	0.50817835
182	0x3eb685b7	0.3564889
183	0x3dcd4e8a	0.10024746
184	0x3e1f3bb7	0.15550123
185	0x3d6ecaa2	0.058298714
186	0x3f4fbe26	0.8114952
187	0x3e93e2b3	0.28883895
188	0x3efa9f2b	0.4894956
189	0x3f361a79	0.71134144
190	0x3f0db057	0.553472
191	0x3e5c1eb4	0.21496087
192	0x3e89ac85	0.26889434
193	0x3e616b3e	0.22013566
194	0x3e8ab219	0.27089003
195	0x3ee6b53e	0.45060152
196	0x3f7230b1	0.9460555
197	0x3e37be4a	0.17943683
198	0x3d2af30e	0.0417357
199	0x3dfacac0	0.12245703
200	0x3eb2e8fd	0.3494338
201	0x3ea1b6c7	0.3158476
202	0x3ed48b0f	0.41512343
203	0x3fa7abfe	1.3099363
204	0x3e32d8b4	0.17465478
205	0x4038e920	2.8892288
206	0x3f824852	1.017832
207	0x3e8d9bcc	0.27657926
208	0x3fa5797d	1.29277
209	0x3e9e9b6c	0.30977952
210	0x3f23abcb	0.6393401
211	0x3fc71cbd	1.5555645
212	0x3ea28f88	0.3175013
213	0x3e2ac8f1	0.16678216
214	0x3ecb4b3d	0.3970584
215	0x3eae991c	0.34101188
216	0x401c2207	2.4395769
217	0x3eaa2e08	0.33238244
218	0x3ea02e09	0.31285122
219	0x3f1abe58	0.6044669
220	0x3eb36092	0.35034615
221	0x3ec3d202	0.3824616
222	0x3ea0d042	0.31408888
223	0x3efe3be0	0.49655056
224	0x3e90da06	0.2829134
225	0x3eabd253	0.33558902
226	0x3ef2c17a	0.47413236
227	0x400975d5	2.147817
228	0x3ed656c6	0.41863078
229	0x3ed1a2df	0.40944573
230	0x3ee33938	0.44379592
231	0x3ef5a9a0	0.47980976
232	0x3e7c07e2	0.24612382
233	0x3dcc21cf	0.09967386
234	0x3e5c5c96	0.21519694
235	0x3ec31fbd	0.38110152
236	0x3eb0844e	0.3447594
237	0x3dbe606b	0.09295734
238	0x3e8f3b86	0.279751
239	0x3f27c3dd	0.6553324
240	0x3ef33e38	0.47508407
241	0x3dd272a1	0.1027577
242	0x3e83f0f2	0.25769764
243	0x3ec7b63d	0.39006224
244	0x3ea10feb	0.31457457
245	0x3e9e31a9	0.30897263
246	0x3e24aed2	0.16082314
247	0x3e361551	0.17781569
248	0x3ded7728	0.11594993
249	0x3eb6c21d	0.35694972
250	0x3f35503d	0.7082556
251	0x3ea00745	0.31255546
252	0x3ee447b9	0.4458597
253	0x3e94bf5a	0.2905224
254	0x3e6808fd	0.22659679
255	0x3e55adf7	0.20867144

fc2.weight f4 [128, 256]
0	0x3da57371	0.08078659
1	0x3d944d5a	0.07241316
2	0x3da14bc6	0.07875781
3	0x3e1d1257	0.15339027
4	0xbc0e7b4c	-0.008696388
5	0xbd4e3470	-0.050342977
6	0x3c94ccae	0.018164005
7	0xbb39ad45	-0.0028332036
8	0x3d42c0a7	0.04754701
9	0x3bdba72e	0.006703279
10	0xbd443655	-0.047903378
11	0x3aabebd2	0.0013116545
12	0x3d234885	0.039864082
13	0xbdb50b1f	-0.08840012
14	0xbd8e8099	-0.06958122
15	0x3c90969f	0.017649947
16	0xbd2d5dd5	-0.042325813
17	0xbe48d007	-0.19610606
18	0xbde91ba2	-0.11382224
19	0x3d9f502e	0.07778965
20	0x3d6c2358	0.057650894
21	0xbc7380cb	-0.01486225
22	0xbdc882a7	-0.09790545
23	0xbd5ab296	-0.05339297
24	0x3e264cca	0.1624023
25	0x3df4c45d	0.11951516
26	0xbd23a516	-0.03995236
27	0x3d53ad30	0.051678836
28	0xbdcb1279	-0.09915633
29	0x3d98b39f	0.07456135
30	0xbd159e6e	-0.036528043
31	0xbd9dc525	-0.07703618
32	0x3d58ba3c	0.052911982
33	0x3d7c68c9	0.06162337
34	0x3de87703	0.11350825
35	0x3e8d78b7	0.2763116
36	0xbd122456	-0.035679184
37	0x3cae3ab5	0.021268228
38	0xbd0e58a8	-0.034752518
39	0xbc228808	-0.009920128
40	0xbe1643ed	-0.14674349
41	0xbdc3c82c	-0.09559664
42	0x3d6d4c00	0.057933807
43	0x3d27d53e	0.040974848
44	0xbd81d1ff	-0.06338882
45	0xbc19e8a0	-0.009393841
46	0x3be1c3f7	0.006889816
47	0x3d0b591c	0.03402053
48	0xbe49d0fd	-0.19708629
49	0x3e32d498	0.1746391
50	0xbe5dfc1c	-0.21678203
51	0xbdd0a9fd	-0.10188673
52	0x3ba384af	0.0049901824
53	0xbd0e4ecc	-0.034743115
54	0x3d212f56	0.039351784
55	0x3dd77df2	0.10522069
56	0xbd848c54	-0.06472078
57	0xbb602eb8	-0.0034207534
58	0x3e19830b	0.14991395
59	0xbd972845	-0.07380728
60	0x3d32190e	0.043480925
61	0x3d1cbeb1	0.038267795
62	0xbd9864a0	-0.07441068
63	0x3d890838	0.06691021
64	0xba07da99	-0.0005182415
65	0xbd10aec5	-0.035322923
66	0xbd886737	-0.06660312
67	0xbceecca5	-0.029150316
68	0xbdaf8b11	-0.08571447
69	0xbd36f1b5	-0.044664104
70	0x3d5b7a81	0.053583626
71	0xbda714c4	-0.081582576
72	0xbaeb3f39	-0.0017947919
73	0x3cb1a152	0.021683369
74	0x3cf0f00e	0.029411342
75	0x3cd7c1c4	0.026337512
76	0xbcd7507e	-0.026283499
77	0xbe21f821	-0.1581731
78	0x3df518c4	0.11967614
79	0x3d8a00f9	0.06738467
80	0xbe1feb49	-0.15617098
81	0x3c90d975	0.017681817
82	0xbdf046db	-0.117322646
83	0xbd1789fb	-0.036996823
84	0xbdf2b1cc	-0.11850318
85	0xbe730815	-0.23733552
86	0xbe59d876	-0.2127398
87	0x3da81aa9	0.0820821
88	0x3d1581a4	0.036500588
89	0x3d4c34ce	0.049855046
90	0xbd4add21	-0.04952729
91	0xbd9eb489	-0.07749278
92	0xbd8f614e	-0.07000981
93	0xbc92b905	-0.01791049
94	0xbdb4d6f8	-0.088300645
95	0x3ea21414	0.31655943
96	0x3cd61ffa	0.026138294
97	0xbd14f094	-0.036362246
98	0xbbbb3924	-0.005713599
99	0x3e057eab	0.13036601
100	0xbd90eda3	-0.070765756
101	0x3d8f0c7b	0.06984802
102	0xbd309643	-0.04311205
103	0xbc68ccfa	-0.0142090265
104	0xbe0f4c9c	-0.13994068
105	0x3ddae5ef	0.106883876
106	0x3ddd0148	0.1079126
107	0x3c929bec	0.017896615
108	0x3c9eec76	0.019399863
109	0x3ccf9913	0.025341546
110	0x3c97ed42	0.01854575
111	0xbdcfa5bb	-0.101390325
112	0xbdb87962	-0.09007527
113	0x3c5d6462	0.013512703
114	0xbcc34232	-0.023835275
115	0xbe30834e	-0.17237589
116	0x3e403af7	0.18772493
117	0xbd64f033	-0.055893134
118	0xbcf2085e	-0.029545005
119	0x3d40364f	0.046926793
120	0x3dc6edb3	0.09713306
121	0x3d3811cf	0.04493886
122	0x3e279e33	0.16368942
123	0x3cb11562	0.021616641
124	0xbccdfbc3	-0.025144463
125	0x3d7c9981	0.06166983
126	0xbd94fe64	-0.07275084
127	0x3d06ed84	0.032941356
128	0xbdcae5db	-0.09907123
129	0x3dc09642	0.094036594
130	0xbc5be112	-0.01342036
131	0xbc9d8a7a	-0.01923107
132	0x3d736ece	0.059431843
133	0xbdfa3410	-0.122169614
134	0xbe10f0fd	-0.1415443
135	0x3cd08c60	0.025457561
136	0x3e29e7e3	0.16592364
137	0xbd36c7f7	-0.044624295
138	0xbbc59a1f	-0.0060303356
139	0x3b934d2e	0.0044952845
140	0x3c8b1a8a	0.016980428
141	0x3c6eceac	0.014575642
142	0xbe2e6ea3	-0.17034392
143	0xbce6b667	-0.028163148
144	0xbd1b04aa	-0.037846245
145	0xbe42710c	-0.18988436
146	0xbe075879	-0.13217343
147	0x3d79d250	0.060991585
148	0xbd2d71c7	-0.042344835
149	0xbdf1aac5	-0.1180015
150	0x3d026548	0.03183487
151	0xbb3c560a	-0.0028737807
152	0x3b47eee0	0.003050737
153	0x3d8d62b3	0.06903591
154	0xbd8b250e	-0.06794177
155	0xbd939e7d	-0.072079636
156	0xbc925c70	-0.017866343
157	0xbcba9c71	-0.022779675
158	0xbde5edaf	-0.11226975
159	0x3d054fe9	0.03254691
160	0xbc7c7186	-0.0154079255
161	0x3d9288ee	0.071550235
162	0xbd4a37b4	-0.04936953
163	0xbc8fc65e	-0.017550644
164	0xbbd8ead8	-0.0066197924
165	0x3e108b57	0.14115654
166	0x3dc9ab91	0.09847177
167	0xbd1598c1	-0.03652263
168	0x3d2594c8	0.040425092
169	0xbe175785	-0.1477948
170	0xbdb0448d	-0.08606825
171	0xbc257770	-0.010099277
172	0xbd2c172f	-0.042014297
173	0xba7916ab	-0.0009501974
174	0x3d346a90	0.04404694
175	0xbcbb273d	-0.022845859
176	0xbdfba77e	-0.12287806
177	0x3de5f1b9	0.112277456
178	0x3e4f8bec	0.2026822
179	0xbe4e4f80	-0.20147514
180	0xbd93e0b3	-0.07220592
181	0x3caf2106	0.021378051
182	0x3c557477	0.013028256
183	0xbd9368d5	-0.071977295
184	0x3d16e433	0.03683872
185	0xbdb9b919	-0.09068508
186	0x3d4890ce	0.04896622
187	0x3d92d204	0.071689636
188	0xbc6601b2	-0.01403849
189	0xbe14d705	-0.14535148
190	0xbd27cf2c	-0.04096906
191	0x3d2c05f3	0.04199786
192	0x3d89748d	0.067116834
193	0x3e13b397	0.14423977
194	0xbbe8577d	-0.0070905075
195	0xbd4e08b6	-0.050301276
196	0x3d554fae	0.05207794
197	0xbd566dcb	-0.0523508
198	0xbe667568	-0.22505724
199	0xbcd064a4	-0.025438614
200	0xbe3c6852	-0.1839917
201	0xbdb59c26	-0.088676736
202	0x3c6b0dfe	0.014346598
203	0x3c675549	0.014119455
204	0xbd306b86	-0.043071292
205	0x3d7d5795	0.061851103
206	0x3c2e56f0	0.010640845
207	0xbd50a925	-0.05094256
208	0x3dcbaa55	0.09944598
209	0xbcfd8630	-0.030947775
210	0xbd075b3b	-0.03304599
211	0x3d47170e	0.04860597
212	0xbc693475	-0.014233698
213	0xbce83137	-0.02834378
214	0xbe376657	-0.17910133
215	0xbca69752	-0.020335827
216	0xbce29b63	-0.027661985
217	0x3c758287	0.014984733
218	0xbd0eda52	-0.034876175
219	0x3d34795b	0.044061046
220	0xbe0c9ecf	-0.13732456
221	0xbdb18a3b	-0.086689435
222	0x3c9a2f53	0.018821394
223	0xbd821ade	-0.06352781
224	0xbd98529f	-0.07437634
225	0x3c3ef65b	0.011655415
226	0xbcd627c9	-0.026142018
227	0x3d7c3e8c	0.061583087
228	0xbdafd15c	-0.08584854
229	0xbd419142	-0.04725767
230	0xbd0c80ce	-0.034302525
231	0x3ce4e19e	0.027939614
232	0x3cb09959	0.021557497
233	0x3d463f0e	0.048399977
234	0x3e3064c7	0.17225944
235	0x3d962bb0	0.073325515
236	0x3d918c41	0.071068294
237	0xbd994e2f	-0.074856155
238	0x3d830b67	0.06398659
239	0x3d790842	0.06079889
240	0x3ca3fd88	0.020018354
241	0xbd3fb4b7	-0.046803202
242	0xbcc91d52	-0.024550114
243	0x3ce72dd7	0.0282201
244	0x3d50b849	0.050956998
245	0xbe475414	-0.19465667
246	0x3cb7cac6	0.022435557
247	0xbbaa3013	-0.005193719
248	0x3d443ffd	0.047912586
249	0xbd43ae0e	-0.047773413
250	0xbd43141b	-0.047626596
251	0x3a9e9e4f	0.0012101623
252	0x3db6e5bc	0.08930537
253	0x3d55015d	0.052003253
254	0x3b417bdb	0.0029523287
255	0xbda8d7de	-0.082442984

fc2.bias f4 [128]
0	0xbd35b737	-0.04436418
1	0x3d67d1c4	0.056596532
2	0x3d27f0c9	0.041001115
3	0x3d18ca4d	0.037302304
4	0x3cdb60d6	0.026779573
5	0xbd086662	-0.033300765
6	0x3d0eb6c6	0.034842275
7	0x3d821259	0.06351156
8	0x3cf3653a	0.029711355
9	0xbc2465cc	-0.010034036
10	0x3d27716d	0.040879656
11	0xbc2ada45	-0.010428016
12	0x3d44d716	0.048056684
13	0x3d45fa66	0.0483345
14	0x3c1f7269	0.009731867
15	0xbc2bdef8	-0.010490172
16	0x3d11ce8c	0.03559737
17	0x3cfb9782	0.030711893
18	0xbd4d54de	-0.050129764
19	0xbc3687b6	-0.011140754
20	0xbd25b521	-0.04045594
21	0x3d0a42a2	0.033754952
22	0x3d6778b6	0.056511603
23	0xbd351d3d	-0.044217337
24	0x3d71f65b	0.059072834
25	0x3d2ecc8a	0.042675532
26	0xbbc75e05	-0.006084206
27	0x3d152c7c	0.036419377
28	0x3c5e94e6	0.013585305
29	0xbcf00fbb	-0.029304376
30	0x3d4260be	0.04745554
31	0x3ca4d7f9	0.020122515
32	0xbceda463	-0.02900905
33	0xbd0e28a5	-0.03470673
34	0x3ce8b2f7	0.02840565
35	0x3d40eaa9	0.04709879
36	0x3d81e93a	0.063433126
37	0xbd20d373	-0.039264154
38	0x3bde4860	0.00678353
39	0x3d19c50c	0.037541434
40	0x3c393b69	0.011305668
41	0x3d223c25	0.03960814
42	0xbb66fc15	-0.0035245467
43	0x3d2ca946	0.04215362
44	0xbd2decd6	-0.042462192
45	0x3d4b614b	0.049653333
46	0xbc916f5f	-0.017753301
47	0xbcb91fb7	-0.02259813
48	0xbc1231f2	-0.008923041
49	0x3d02d8b9	0.031944964
50	0x39358ab1	0.00017313172
51	0xbce27b68	-0.027646735
52	0xbca67103	-0.02031756
53	0x3ce482e0	0.027894437
54	0xbc9117ab	-0.017711481
55	0xbc5a4053	-0.013321
56	0x3acf1370	0.001579864
57	0xbca23243	-0.019799357
58	0x3d6742fa	0.05646036
59	0xbd6b0332	-0.057376094
60	0xbc805d0b	-0.015669366
61	0xbd27a1a0	-0.040925622
62	0xbbe8ab90	-0.00710053
63	0x3d209a64	0.03920974
64	0x3d38734f	0.04503184
65	0x3d88ff62	0.066893354
66	0x3d4a0369	0.04931966
67	0x3d6461b5	0.055757243
68	0xbcc1c16e	-0.023651805
69	0x3d09c440	0.033634424
70	0xbac6014c	-0.0015106588
71	0xbcd69ec0	-0.026198745
72	0x3d89145d	0.06693337
73	0x3bf642fd	0.00751531
74	0x3cbb9809	0.022899644
75	0x3cf7f44e	0.03026786
76	0xbc33897e	-0.010958074
77	0xbd358ecc	-0.044325635
78	0x3bb848ae	0.0056238985
79	0x3c8d7b51	0.017270716
80	0xbc002e4a	-0.007823536
81	0xbc734d34	-0.01484995
82	0x3c40f922	0.011778148
83	0x3d7c43fb	0.06158827
84	0x3d45183a	0.048118807
85	0xbd0cda24	-0.034387723
86	0x3c9a0097	0.01879911
87	0x3ccb5376	0.02482007
88	0xbd06d216	-0.032915197
89	0xbd1470b8	-0.03624031
90	0x3d3bff53	0.045897793
91	0x3d7a76ec	0.06114857
92	0xbd452636	-0.048132144
93	0x3cbc7301	0.023004057
94	0xbcf45a80	-0.02982831
95	0xbb629b30	-0.0034577362
96	0xbc56b2c7	-0.013104147
97	0xbd1ca777	-0.038245644
98	0x3cee8e99	0.02912073
99	0xbc299ff4	-0.010353077
100	0xbbb84ae8	-0.005624164
101	0x3ca9bb85	0.0207193
102	0xbac3cc41	-0.0014938192
103	0xbc4d96eb	-0.012548189
104	0xbd5710f5	-0.052506406
105	0xbd7ee620	-0.062231183
106	0x3d4cf482	0.05003787
107	0x3c753ad7	0.014967642
108	0x3cbf98a8	0.023388222
109	0xbb95185c	-0.004550023
110	0xbcd29d29	-0.025709705
111	0xbbf9df0e	-0.007625467
112	0x3d5cc10c	0.05389504
113	0x3d46c25c	0.0485252
114	0xbd1390d9	-0.03602681
115	0x3ce89c09	0.028394716
116	0x3d5e5a27	0.054285195
117	0x3bd680a5	0.0065460973
118	0xbd5d2459	-0.053989742
119	0x3b8d14b2	0.0043054456
120	0xbc2a3fe7	-0.010391212
121	0xbd215a3e	-0.039392702
122	0x3d0046e0	0.03131759
123	0x3d80bfb6	0.06286566
124	0x3ccc79b0	0.024960369
125	0x3d5b403c	0.053528056
126	0x3d4d7704	0.05016233
127	0x3c592665	0.013253783
