mlruns/761854136110779325/34e393f9c1c645aa98db11c59c411d74/artifacts/shallow_nn_pytorch.pth (torch, 43929 bytes, 6 tensors)

fc1.weight f4 [128, 8]
-0.47121176 -0.039667845 0.2867977 0.078726426 0.32496938 0.23120426 -0.60933036 0.095228024
-0.010226442 -0.3583132 0.20249116 0.4787597 -0.26305774 -0.89707994 0.16033465 -0.25418574
-0.03398824 -0.03164763 0.74033386 0.15295239 0.12885498 0.046759672 0.09527405 -0.29003632
0.03804555 0.44017628 -0.19020002 0.035321668 0.04301918 -0.52475953 0.015129464 -0.010167195
0.018747147 0.0015645062 0.014820883 0.6679116 -1.0950292 -1.1590569 0.1918758 -0.21084142
0.0166968 -0.026037358 0.0640311 -0.14324924 -0.34908786 0.15169486 0.3856173 0.14303447
-0.0040539335 -0.11378866 -0.40439528 0.5267797 -0.7529052 0.12635492 -0.13649978 -0.34089485
-0.4834702 -0.026491249 0.46687067 0.026410151 0.36550933 0.10876159 -0.5198531 0.08922028
-0.52239597 -0.010315783 0.02751055 0.009900591 0.30724195 -0.2871387 -0.38342464 0.010365928
0.15149763 -0.50929374 -0.22916028 -0.07631308 -0.1771621 0.13053685 0.19357333 0.1595985
-0.54942954 -0.24820748 -0.36063433 0.021108016 -0.5260457 0.07855737 -0.04195573 0.19978218
-0.36808524 0.5160019 -0.041736178 -0.14687683 -0.07770766 0.061113767 0.34128577 0.019099887
-0.57118076 0.075923994 -0.109381296 0.146363 0.078137346 0.03048059 0.08881391 -0.0045102974
-0.025882708 -0.16234276 0.029342549 0.044355694 -0.0685298 -1.2747782 0.36108738 -0.0069152485
-0.04685423 0.0017354238 0.2170567 0.23621824 0.19366907 -1.4831432 -0.17405467 -0.23589103
-0.011986888 -0.47443104 0.08529589 -0.42538694 0.03710202 0.08909607 0.110702634 0.100782394
0.74305624 -0.004879519 -0.07020245 -0.11350522 0.16174543 0.31662655 -0.19300157 0.16685498
0.13553973 0.034346007 -0.5523318 -0.31252843 0.59898233 -0.07368499 -0.547744 -0.06867635
-0.4161592 0.0020256324 0.48209003 0.02688989 0.33553693 -0.6458425 -0.04452239 -0.004488234
0.23301558 0.2052344 -0.05378677 -0.15737939 -0.0047761644 0.16302304 0.3321868 0.23831077
0.016238999 -0.27856398 0.18873733 -0.32683077 0.46452668 0.010755913 -0.26841688 -0.002624885
-0.0104884505 -0.04482152 -0.03806153 -1.218693 0.4881396 -0.43900314 -0.2745078 -0.7629279
-0.071541205 0.59386605 0.15965052 -0.009686505 0.22499649 -0.6428809 0.0854755 -0.10321203
-0.48195845 -0.011096495 0.062562846 0.15415847 0.31559107 -1.313681 -0.22091274 -0.23495732
-0.06258722 -0.082245395 0.19940893 -0.16097392 0.31709123 0.010117375 0.014827457 -0.13411997
0.019048994 -0.6623928 0.0036130152 -0.09396371 -0.12247658 0.35551295 0.17183363 0.1285495
-0.7552002 0.017029695 0.12934312 -0.23760135 0.17503934 0.22045182 0.18591698 -0.17993475
-0.035574105 0.03573259 0.15826039 -0.2836991 0.30416566 -0.041780822 0.29466853 -0.19371027
0.37782788 -0.064411424 0.08429647 0.36788118 -0.48838982 -0.52715224 -0.07862365 0.11776021
-0.513845 -0.122908026 -0.42782816 0.38463435 -0.39783186 0.05125935 0.1749245 -0.0860548
-0.5204446 0.110551365 0.0046421206 0.048738405 0.16014914 0.104414254 -0.15375772 -0.04016767
0.24613933 0.022026151 -0.0065162554 -0.5992978 -0.39678717 0.094837025 0.19720654 -0.5967724
00000000: ab42 f1be c07a 22bd 26d7 923e 523b a13d
00000010: 6362 a63e cfc0 6c3e 13fd 1bbf e906 c33d
00000020: ce8c 27bc d474 b7be d859 4f3e fe1f f53e
00000030: 81af 86be 08a7 65bf c42e 243e a224 82be
00000040: 4137 0bbd f2a0 01bd 8586 3d3f 8d9f 1c3e
00000050: 8ff2 033e 1287 3f3d 0b1f c33d a47f 94be
00000060: a7d5 1b3d c95e e13e cbc3 42be 74ad 103d
00000070: e134 303d a456 06bf 92e1 773c 4f94 26bc
00000080: 9e93 993c 1e10 cd3a 4ad3 723c 41fc 2a3f
00000090: eb29 8cbf fa5b 94bf 177b 443e d0e6 57be
000000a0: bac7 883c 4c4c d5bc bd22 833d eeaf 12be
000000b0: a5bb b2be e655 1b3e a16f c53e a177 123e
000000c0: dcd6 84bb 070a e9bd e60c cfbe 09db 063f
000000d0: 65be 40bf 2f63 013e 99c6 0bbe c589 aebe
000000e0: 6889 f7be 2d04 d9bc ac09 ef3e 1a5a d83c
000000f0: 0a24 bb3e 66be de3d 1815 05bf 1fb9 b63d
00000100: bebb 05bf 8803 29bc ce5d e13c 1736 223c
00000110: d14e 9d3e d803 93be 3c50 c4be dad5 293c
00000120: 3222 1b3e 1361 02bf fea8 6abe 084a 9cbd
00000130: fb69 35be 74ab 053e 1638 463e ca6d 233e
00000140: 6aa7 0cbf 1a2a 7ebe 10a5 b8be b8ea ac3c
00000150: eeaa 06bf b0e2 a03d c6d9 2bbd b393 4c3e
00000160: ab75 bcbe b318 043f 8ef3 2abd e166 16be
00000170: 3225 9fbd 6e52 7a3d 02bd ae3e 5e77 9c3c
00000180: e738 12bf 0a7e 9b3d 4d03 e0bd 2fe0 153e
00000190: 7906 a03d 6eb2 f93c 11e4 b53d 1ecb 93bb
000001a0: f907 d4bc 2e3d 26be c95f f03c 51ae 353d
000001b0: 5a59 8cbd ef2b a3bf 72e0 b83e 4f99 e2bb
000001c0: 39ea 3fbd 2977 e33a 1d44 5e3e 32e3 713e
000001d0: 2f51 463e a3d7 bdbf 633b 32be 6b8d 71be
000001e0: a764 44bc a0e8 f2be 9daf ae3d 51cc d9be
000001f0: 4af8 173d 0078 b63d 10b8 e23d 0067 ce3d
00000200: ef38 3e3f 5fe4 9fbb 4dc6 8fbd 6d75 e8bd
00000210: 98a0 253e e01c a23e 34a2 45be 08dc 2a3e
00000220: edca 0a3e 66ae 0c3d 9e65 0dbf ba03 a0be
00000230: e856 193f 28e8 96bd f338 0cbf 30a6 8cbd
00000240: d212 d5be 79c0 043b 81d4 f63e 3048 dc3c
00000250: 7fcb ab3e ef55 25bf 1c5d 36bd 0912 93bb
00000260: a39b 6e3e f728 523e 844f 5cbd 1028 21be
00000270: 5f81 9cbb 83ef 263e 6314 aa3e bd07 743e
00000280: a607 853c f09f 8ebe 5c44 413e 5d56 a7be
00000290: 71d6 ed3e 9239 303c f06d 89be 4306 2cbb
000002a0: c0d7 2bbc c596 37bd 68e6 1bbd 22fe 9bbf
000002b0: 6fed f93e 05c5 e0be 498c 8cbe 3e4f 43bf
000002c0: 3284 92bd 9b07 183f 6d7b 233e 26b4 1ebc
000002d0: 7b65 663e d893 24bf c70d af3d d460 d3bd
000002e0: 42c3 f6be 13ce 35bc f320 803d b8db 1d3e
000002f0: 2795 a13e b326 a8bf f336 62be a798 70be
00000300: ba2d 80bd 4670 a8bd db31 4c3e 59d6 24be
00000310: c859 a23e 59c3 253c ddee 723c bf56 09be
00000320: a30c 9c3c 9392 29bf 56c8 6c3b 0c70 c0bd
00000330: 00d5 fabd cb05 b63e 28f5 2f3e 7ba2 033e
00000340: cd54 41bf dc81 8b3c 8672 043e c54d 73be
00000350: 833d 333e 1fbe 613e 0561 3e3e d140 38be
00000360: 27b6 11bd 565c 123d 030f 223e 0241 91be
00000370: 9abb 9b3e 5e22 2bbd cbde 963e fc5b 46be
00000380: a872 c13e 23ea 83bd a1a3 ac3d ec5a bc3e
00000390: 3b0e fabe 73f3 06bf 7005 a1bd 442c f13d
000003a0: 598b 03bf 34b7 fbbd 4b0c dbbe cbee c43e
000003b0: 9eb0 cbbe 53f5 513d 681f 333e 803d b0bd
000003c0: db3b 05bf c168 e23d ee1c 983b eca1 473d
000003d0: 23fe 233e 24d7 d53d aa72 1dbe db86 24bd
000003e0: f30b 7c3e 3070 b43c 5086 d5bb 956b 19bf
000003f0: b027 cbbe ea39 c23d 83f0 493e 13c6 18bf

fc1.bias f4 [128]
-0.14883345 -0.6409873 -0.5505665 0.0016848503 -0.4054745 0.028772814 -0.14932592 -0.33379602
-0.10265042 -0.39908808 -0.7615782 -0.5193694 -0.51064926 -0.337313 -0.30696425 -0.041913938
-0.7925007 -0.703051 -0.5850536 -0.15046391 -0.17952503 -0.46914873 -0.7036964 -0.37617895
-0.046330187 -0.5566335 -0.7230017 -0.06767092 -0.5064977 -0.634842 -0.36502543 -0.28907403
-0.5174589 -0.4153174 -0.7287894 -0.3753704 -0.0973946 -0.34225318 -0.4971424 -0.64530283
-0.13173327 -0.052674495 -0.23944987 -0.14598861 -0.335497 -0.48700067 0.00063110376 -0.15187143
-0.35675195 -0.6399832 -0.32925352 -0.5670768 -0.053302057 -0.5814572 -0.19253778 -0.16436344
0.031649694 -0.1684624 -0.17744435 -0.50541514 -0.15225174 -0.082611956 0.12060527 -0.3156838
-0.04650385 0.001531314 -0.5806525 -0.62968826 -0.7494605 -0.00083362433 -0.37353566 -0.0044768327
-0.3158224 -0.489431 -0.10110406 -0.5158917 -0.27736402 -0.10212335 -0.45344123 -0.045016695
0.039810266 -0.18414365 -0.22908081 -0.49793056 -0.6605296 -0.66316545 -0.56899023 -0.8034539
-0.4236064 -0.16757524 -0.6148575 -0.60445577 -0.5145801 -0.34803677 -0.38957775 -0.27340412
-0.3352316 -0.3136259 -0.48862365 -0.19485995 -0.2358864 -0.7966717 0.018617151 -0.4642001
-0.40061963 -0.32690042 -0.010987536 -0.2973169 -0.7098879 -0.2260207 -0.30200204 -0.31214842
-0.0036158408 -0.4826229 -0.34030274 -0.39697054 -0.24364805 -0.42073748 -0.1649556 -0.27378473
-0.56603146 -0.28619772 -0.4073499 -0.16214488 -0.023132205 -0.4801161 -0.098234445 -0.581177
00000000: cc67 18be be17 24bf edf1 0cbf 32d6 dc3a
00000010: 5b9a cfbe f7b4 eb3c e5e8 18be 50e7 aabe
00000020: 623a d2bd 4655 ccbe caf6 42bf 65f5 04bf
00000030: e9b9 02bf 4ab4 acbe 6b2a 9dbe f3ad 2bbd
00000040: 53e1 4abf 26fb 33bf 13c6 15bf 3613 1abe
00000050: 69d5 37be 4334 f0be 7325 34bf 879a c0be
00000060: b9c4 3dbd 887f 0ebf a416 39bf 0d97 8abd
00000070: d5a9 01bf 0185 22bf 9de4 babe 8301 94be
00000080: 3078 04bf 7ba4 d4be f191 3abf 8d30 c0be
00000090: d276 c7bd cf3b afbe 7389 febe 9132 25bf
000000a0: 16e5 06be 36c1 57bd 5932 75be 0a7e 15be
000000b0: 43c6 abbe 2758 f9be a870 253a 2f84 1bbe
000000c0: 31a8 b6be f0d5 23bf eb93 a8be f22b 11bf
000000d0: 4253 5abd 61da 14bf a028 45be e44e 28be
000000e0: 1ca3 013d 6881 2cbe f9b3 35be e362 01bf
000000f0: e1e7 1bbe 7530 a9bd e5ff f63d 4fa1 a1be
00000100: d27a 3ebd 5fb6 c83a a4a5 14bf 4033 21bf
00000110: a5dc 3fbf 9587 5aba 1140 bfbe 65b2 92bb
00000120: 79b3 a1be b396 fabe a50f cfbd 7a11 04bf
00000130: a802 8ebe 0c26 d1bd 7329 e8be 6d63 38bd
00000140: 1710 233d 2790 3cbe 2994 6abe c1f0 febe
00000150: 7818 29bf 36c5 29bf 58a9 11bf 28af 4dbf
00000160: f0e2 d8be d898 2bbe 4d67 1dbf 9dbd 1abf
00000170: 85bb 03bf e031 b2be bc76 c7be a0fb 8bbe
00000180: 7aa3 abbe 9393 a0be e12c fabe 5e89 47be
00000190: 348c 71be adf2 4bbf ff82 983c a3ab edbe
000001a0: 041e cdbe 7e5f a7be 1105 34bc ec39 98be
000001b0: 37bb 35bf f871 67be 03a0 9abe ebd1 9fbe
000001c0: bef7 6cbb 591a f7be 293c aebe b93f cbbe
000001d0: e07e 79be e76a d7be 1fea 28be 832d 8cbe
000001e0: 70e7 10bf 8288 92be 2b90 d0be 4f09 26be
000001f0: c07f bdbc c7d1 f5be 242f c9bd 04c8 14bf

fc2.weight f4 [64, 128]
-0.017299788 0.22543126 -0.12848079 -0.6116163 0.2137863 0.03661923 -0.15842058 -0.030225823
-0.0040481878 -0.29521805 0.0004147468 -0.2722544 0.26799792 0.48586383 0.16022162 0.048416212
-0.76858574 0.80917525 -0.09877667 -0.22757713 0.12519719 -0.031161813 -0.643291 -0.0046349624
0.08639125 -0.27665058 0.17838292 0.17065036 0.22941901 0.273847 0.17089015 -0.018625597
-0.21588399 -0.6096236 0.25138235 0.11999245 -0.20733534 0.3450331 -0.17672059 -0.23231837
-0.12698245 0.020412987 0.11517656 -0.0120417215 0.12706627 0.5587826 0.10496991 0.15829758
0.37374836 -0.03836778 0.07819529 0.06282352 -0.1210144 -0.40848473 -0.025225243 -0.0066438266
-0.85076916 0.0272955 -0.3502797 -0.099072255 0.029542625 0.01591105 -0.66783625 -0.24389048
-0.10771768 0.08616355 0.037131574 0.38369828 -0.17265594 -0.088000834 -0.90884954 0.41973758
0.16807365 0.37502652 0.1481779 0.101516016 -0.024203654 0.22604713 -0.058098294 0.07220892
-0.43052238 0.007961153 -0.20932156 -0.5766925 -0.12963049 0.21247199 -0.027718203 -0.24813892
0.011818962 -0.16064972 -0.32921243 -0.17641747 0.17512162 0.29310164 -0.03789148 -0.22272737
0.12033663 -0.38826662 -0.18960024 0.06600248 0.47003418 -0.2740572 -0.107443295 -0.08218628
-0.1780323 -0.41291 -0.027665513 0.01334992 -0.2913943 0.22526273 -0.21052672 0.1712957
-0.00075623195 -0.043773174 -0.08268173 0.11637407 -0.13498636 0.12824905 0.29522672 0.06588676
-0.07359638 -0.30076605 0.04393567 -0.08286649 -0.51674 0.13259415 -0.018650766 -0.003960894
0.107622385 0.257035 0.3100937 -0.6062127 0.113875516 0.008542612 -0.0025808248 0.026400516
0.043448016 -0.1743212 0.06035378 -1.8285553 -0.5079071 0.3872236 -0.2459029 -0.021001464
0.37126678 0.050810397 -0.1427749 -1.1381872 -0.26325622 -0.26143473 -0.38760605 0.015811851
0.0045053847 -1.3259678 -0.25090244 -0.20069899 0.18722086 0.038778525 -0.21978025 -0.08752038
-2.5294917 -1.3189272 -0.20262963 0.12735163 0.42194626 0.08399533 -0.04144776 -0.23740616
0.0105332285 0.035504177 -0.025186645 0.02205222 -0.104420654 0.37392768 -0.1279532 0.07892304
0.00095902616 -0.4484132 -0.07224985 -0.32551348 -0.021212844 -2.4531953 0.027285174 0.050729714
-1.3811712 0.14744936 0.045546297 -0.6337962 -0.09413078 0.07330076 -0.02516739 0.082719766
0.17726062 -0.050213944 0.10019241 -0.3395022 -0.4714326 -0.04409179 -1.9043802 0.004644574
0.08752253 0.24145932 -0.21578996 0.0643296 0.06711548 -0.1045785 -0.65052617 0.16573721
0.10034145 0.15338224 0.02886509 0.35260576 -2.2700682 -0.22900787 -0.07301789 -0.110786535
0.102440536 0.010135224 -0.39230275 -0.23849319 0.083923005 -0.109996505 0.18267152 -0.09512338
0.13311847 -1.4374919 -0.13137797 -0.01262364 -0.051630598 -1.0375416 0.058027793 -0.26966968
0.12107742 -2.3856175 0.056850925 0.047900867 -0.838326 0.3945549 -0.16643347 -0.020560862
-0.039394632 -0.7324483 -0.28595766 -0.17481722 0.034547735 0.19215684 -0.14607698 -0.029278385
0.08556409 -0.5700627 0.007493234 0.11563147 -0.12725985 -0.021261625 0.0011968659 -0.48911196
00000000: 49b8 8dbc 74d7 663e 7890 03be e392 1cbf
00000010: ccea 5a3e 0cfe 153d 0139 22be 259c f7bc
00000020: a9a6 84bb d226 97be 6072 d939 ee64 8bbe
00000030: 0637 893e 25c3 f83e 2311 243e 1450 463d
00000040: 09c2 44bf 1c26 4f3f 6c4b cabd fb09 69be
00000050: b133 003e 0f47 ffbc b8ae 24bf e2e0 97bb
00000060: e5ed b03d 25a5 8dbe 03aa 363e f8be 2e3e
00000070: d1ec 6a3e ad35 8c3e d4fd 2e3e b594 98bc
00000080: b110 5dbe 4b10 1cbf 30b5 803e 9abe f53d
00000090: b74f 54be 2ea8 b03e 3ef6 34be dee4 6dbe
000000a0: b007 02be 2339 a73c b0e1 eb3d a44a 45bc
000000b0: a91d 023e 600c 0f3f 77fa d63d c318 223e
000000c0: f25b bf3e 8927 1dbd da24 a03d 9ea9 803d
000000d0: 66d6 f7bd e924 d1be 2ba5 cebc 75b4 d9bb
000000e0: 02cc 59bf d09a df3c dc57 b3be 65e6 cabd
000000f0: 6003 f23c e457 823c 51f7 2abf 6dbe 79be
00000100: 169b dcbd 8476 b03d 4717 183d 1a74 c43e
00000110: b8cc 30be c839 b4bd 5daa 68bf d8e7 d63e
00000120: 801b 2c3e 7a03 c03e f3bb 173e a1e7 cf3d
00000130: be46 c6bc e678 673e 7af8 6dbd 45e2 933d
00000140: 6e6d dcbe 7f6f 023c 6458 56be 1fa2 13bf
00000150: dbbd 04be 4292 593e 4911 e3bc 2118 7ebe
00000160: 52a4 413c 5c81 24be 888e a8be c8a6 34be
00000170: 1553 333e 6b11 963e 1934 1bbd a512 64be
00000180: 0d73 f63d e2ca c6be 9126 42be 4f2c 873d
00000190: 52a8 f03e 3a51 8cbe 3b0b dcbd 4851 a8bd
000001a0: 194e 36be f168 d3be c9a2 e2bc 9fb9 5a3c
000001b0: a231 95be 46ab 663e 5194 57be 2468 2f3e
000001c0: de3d 46ba 804b 33bd 0a55 a9bd 8755 ee3d
000001d0: dd39 0abe b853 033e f527 973e a3ef 863d
000001e0: b3b9 96bd 02fe 99be e4f5 333d e8b5 a9bd
000001f0: 1349 04bf c3c6 073e 7ec9 98bc 63ca 81bb
00000200: 2069 dc3d 179a 833e 9ac4 9e3e c130 1bbf
00000210: 9137 e93d 50f6 0b3c 0e23 29bb e545 d83c
00000220: 8cf6 313d 4281 32be 8635 773d 1a0e eabf
00000230: 3306 02bf 2c42 c63e f8cd 7bbe 430b acbc
00000240: ae16 be3e 901e 503d 9533 12be 1eb0 91bf
00000250: 85c9 86be c6da 85be 4d74 c6be db87 813c
00000260: e8a1 933b 50b9 a9bf 4976 80be 0984 4dbe
00000270: d3b6 3f3e 3bd6 1e3d 130e 61be e33d b3bd
00000280: 31e3 21c0 9bd2 a8bf 247e 4fbe 7768 023e
00000290: 5709 d83e be05 ac3d 20c5 29bd 9a1a 73be
000002a0: 9093 2c3c d46c 113d 3954 cebc dba6 b43c
000002b0: 7fda d5bd 7373 bf3e 2a06 03be 67a2 a13d
000002c0: 2867 7b3a 6a96 e5be bbf7 93bd b4a9 a6be
000002d0: 8fc6 adbc 2701 1dc0 2885 df3c f6c9 4f3d
000002e0: 38ca b0bf f7fc 163e c18e 3a3d 7840 22bf
000002f0: a3c7 c0bd b51e 963d d82b cebc fb68 a93d
00000300: cf83 353e 23ad 4dbd ae31 cd3d 3bd3 adbe
00000310: 9d5f f1be 9899 34bd bbc2 f3bf 8331 983b
00000320: 033f b33d 1d41 773e 0bf8 5cbe 3dbf 833d
00000330: d773 893d 412d d6bd e288 26bf 04b7 293e
00000340: d17f cd3d 3c10 1d3e 7b76 ec3c be88 b43e
00000350: cc48 11c0 0a81 6abe 678a 95bd 0de4 e2bd
00000360: 58cc d13d 360e 263c e8db c8be 8f37 74be
00000370: d3df ab3d d945 e1bd 3e0e 3b3e 0cd0 c2bd
00000380: 3550 083e bcff b7bf f287 06be 62d3 4ebc
00000390: 9b7a 53bd 2ace 84bf 8dae 6d3d 2512 8abe
000003a0: 70f7 f73d f5ad 18c0 84dc 683d b333 443d
000003b0: 889c 56bf 1a03 ca3e 896d 2abe 416f a8bc
000003c0: 445c 21bd bb81 3bbf 0b69 92be 4903 33be
000003d0: ed81 0d3d c3c4 443e 3495 15be 39d9 efbc
000003e0: 3a3c af3d a1ef 11bf cd89 f53b 31d0 ec3d
000003f0: 6850 02be dc2c aebc 28e0 9c3a e26c fabe

fc2.bias f4 [64]
0.010371144 0.19466668 0.15937932 -0.25333825 0.3385239 -0.12587363 0.37078905 0.15992266
0.26171622 0.26906604 0.17010611 -0.01810837 0.11296263 0.16608393 -0.049344003 0.5030491
0.42825 -0.14499228 0.48171878 0.18835184 0.456351 0.5865164 0.24620576 0.2838999
0.09034241 0.13481203 0.35205653 -0.02452088 0.25772738 0.07519057 0.053489935 0.3871021
0.21357036 0.18515585 0.22354741 -0.12394602 0.34236857 0.05008426 0.042011585 0.019864012
0.14557199 0.066713944 0.007813061 0.30780545 0.27239612 0.29672328 0.20540042 -0.67462814
0.116739936 0.32451224 0.10086682 0.087968715 -0.3961675 0.422164 0.07531215 0.19080198
0.15004207 0.34595 -0.084299944 0.025928155 0.054845303 0.21338277 0.098808795 0.1408083
00000000: bbeb 293c b456 473e 5534 233e 8db5 81be
00000010: 0153 ad3e 04e5 00be 10d8 bd3e c4c2 233e
00000020: abff 853e 06c3 893e 4c30 2e3e 0158 94bc
00000030: f458 e73d e811 2a3e f01c 4abd d3c7 003f
00000040: 9643 db3e db78 14be d8a3 f63e 4edf 403e
00000050: d7a6 e93e f025 163f 5d1d 7c3e 545b 913e
00000060: 7105 b93d 2a0c 0a3e c140 b43e 03e0 c8bc
00000070: d8f4 833e 83fd 993d 4318 5b3d 3f32 c63e
00000080: 30b2 5a3e 7f99 3d3e 9de9 643e 69d7 fdbd
00000090: ef4a af3e 2725 4d3d 5714 2c3d dab9 a23c
000000a0: d310 153e 52a1 883d 5a02 003c ad98 9d3e
000000b0: 8177 8b3e 1dec 973e 7d54 523e 6eb4 2cbf
000000c0: 5915 ef3d 7826 a63e 4393 ce3d f128 b43d
000000d0: 77d6 cabe e125 d83e 423d 9a3d 9861 433e
000000e0: a1a4 193e 5c20 b13e 73a5 acbd 4867 d43c
000000f0: 78a5 603d 0381 5a3e 445c ca3d 0d30 103e

fc3.weight f4 [12, 64]
0.22935216 -0.16513762 0.19025481 0.05841812 0.28947386 -0.027503902 0.293894 0.13775513
0.19340871 0.0881105 0.08042758 -0.020975789 0.019896936 0.23303396 -0.08070897 -0.16910052
-0.055201177 -0.14369221 0.15850167 0.07612787 0.205522 -0.30531856 0.18600667 -0.59074223
-0.40886056 -0.10740309 0.09370009 0.09131962 0.21333429 0.09625048 0.13934872 -0.0857685
0.12678234 -0.04351692 0.14118576 0.039954767 0.22262675 -0.68236667 -0.055142418 -0.35936087
0.066544 0.13642335 -0.417952 -0.036831684 0.123649664 0.20797296 0.29380864 0.2422323
-0.15244858 -0.6853441 0.111729234 0.100667745 0.045640696 0.29345426 0.119293764 0.1699834
0.010094782 0.12763631 -0.0837318 -0.36114755 0.141098 0.07257307 0.016094403 -0.0922692
0.0895761 -0.2324895 0.25926927 -0.57251054 -0.014157861 -0.26872748 0.05635932 0.058946043
0.3548757 0.80283254 -0.47784123 -0.18987088 0.19350623 -0.41651925 -0.25008816 -0.460462
-0.34430632 0.028908378 -0.38723233 0.11196068 -0.042271715 -0.12899446 0.4061952 0.2580744
-0.34492716 -0.09199553 -0.70871794 -0.4000509 0.17624573 0.14753799 -0.10105819 -0.7797531
0.07363565 -0.44584265 -0.47013456 -0.03607385 -0.53091633 0.3873611 -0.45976904 -0.45507324
-0.15652859 -0.17672868 0.39046595 -0.8719834 0.613511 -0.12162173 -0.0285402 -0.73148376
0.113556504 -0.1099373 -0.009917625 -0.0670208 -0.6380721 -0.5349068 -0.12544319 0.18445902
-0.18976916 -0.24876814 0.018592363 -0.20465265 0.057676975 0.2602655 0.44718644 0.20024319
-0.6796554 -0.42334282 -0.031101292 -0.83317673 0.095459625 -0.5254277 0.33708432 -0.043098632
0.12709476 0.65733486 -0.1844131 0.31010148 -0.8511209 -0.068525955 -0.022394888 -0.14426439
0.31077725 -0.11970555 0.37466723 -0.3624141 0.061178554 -0.044886377 0.24992368 -0.22968268
-0.10123583 -0.09965291 0.1964593 0.235298 0.05377495 0.017180294 -0.5769487 0.20881276
-0.027898597 0.20948839 0.36231974 -0.6698945 0.07245144 0.40421772 0.35434565 -1.4010234
0.037738577 -0.13541098 0.07158589 0.14686278 0.10748015 0.17485325 -0.10796446 -0.5435864
-0.8387649 0.39848888 -0.12826513 0.058711994 -0.25741136 -0.017401962 -0.1270043 -0.063873716
-0.32974333 0.09113742 -0.87248874 0.19141518 -0.049565807 -0.7277917 -0.44021332 -0.40715444
0.0029774858 -0.6846608 0.23624928 0.20583685 -0.33028406 0.060757685 0.0071948683 0.13081658
-0.11607483 -0.14247228 -0.34216893 0.35516414 -0.59089875 -0.5319505 -0.055951808 -0.015226777
0.15324014 0.007797606 -0.35303426 0.11590656 -0.016241217 -0.13024972 0.15218279 0.24954903
0.18478578 0.34948072 -0.1579943 -0.33115852 -0.16860867 0.089679845 0.37796584 0.009053274
0.30919346 0.7397807 0.24190621 0.09762022 0.20007554 0.4195235 -0.9720157 0.5866284
0.10419151 -0.042481128 0.4621001 -0.57560134 -0.25101325 0.07818606 -0.47422534 -0.20753057
0.25215662 -0.18147986 0.10406785 -0.25757486 -0.13227762 -0.42615488 0.18755297 0.1747451
0.31654826 0.16445884 -0.86189485 -0.20832321 -0.29405403 0.23697838 0.2658731 0.17619497
00000000: 4bdb 6a3e d619 29be 28d2 423e d747 6f3d
00000010: eb35 943e dd4f e1bc 4679 963e ae0f 0d3e
00000020: ef0c 463e 4773 b43d 37b7 a43d 6bd5 abbc
00000030: e6fe a23c 74a0 6e3e bf4a a5bd b028 2dbe
00000040: a11a 62bd 0d24 13be 434e 223e eee8 9b3d
00000050: 5c74 523e b752 9cbe 8878 3e3e e23a 17bf
00000060: 2c56 d1be 27f6 dbbd d5e5 bf3d c805 bb3d
00000070: 4e74 5a3e f91e c53d 6eb1 0e3e 65a7 afbd
00000080: 3bd3 013e cc3e 32bd 0093 103e 9ca7 233d
00000090: 44f8 633e 95af 2ebf 04dd 61bd 26fe b7be
000000a0: 3848 883d 90b2 0b3e cefd d5be d2dc 16bd
000000b0: 093c fd3d ddf6 543e 166e 963e be0b 783e
000000c0: 7b1b 1cbe b672 2fbf 4cd2 e43d e42a ce3d
000000d0: bdf1 3a3d a33f 963e 4a50 f43d 2110 2e3e
000000e0: 9664 253c 18b3 023e 947b abbd 55e8 b8be
000000f0: fe7b 103e 31a1 943d 69d8 833c a2f7 bcbd
00000100: ad73 b73d ba11 6ebe f1be 843e 0d90 12bf
00000110: 5ff6 67bc a696 89be 08d9 663d 6871 713d
00000120: 45b2 b53e 6f86 4d3f 9ba7 f4be 836d 42be
00000130: 7f26 463e 0342 d5be 8e0b 80be adc1 ebbe
00000140: eb48 b0be 43d1 ec3c 5143 c6be a44b e53d
00000150: 1b25 2dbd 2017 04be d1f8 cf3e 5422 843e
00000160: 4b9a b0be 2768 bcbd 8a6e 35bf 79d3 ccbe
00000170: c379 343e 3314 173e 99f7 cebd e69d 47bf
00000180: 4ace 963d 7d45 e4be 7ab5 f0be 2cc2 13bd
00000190: 22ea 07bf 3254 c63e d966 ebbe 5cff e8be
000001a0: 0849 20be 5df8 34be 27eb c73e 4e3a 5fbf
000001b0: 0f0f 1d3f d014 f9bd 23cd e9bc 8542 3bbf
000001c0: 5090 e83d cf26 e1bd 897d 22bc 3442 89bd
000001d0: b158 23bf a7ef 08bf 2e74 00be d3e2 3c3e
000001e0: d952 42be 13bd 7ebe 034f 983c 7790 51be
000001f0: b13e 6c3d 8541 853e 9ff5 e43e 8d0c 4d3e
00000200: e5fd 2dbf 64c0 d8be 23c8 febc 124b 55bf
00000210: 5680 c33d 6e82 06bf 5196 ac3e 3188 30bd
00000220: 2125 023e 1947 283f cad6 3cbe 9fc5 9e3e
00000230: 0fe3 59bf 5657 8cbd 7c75 b7bc 0bba 13be
00000240: 321e 9f3e 2f28 f5bd 62d4 bf3e 578e b9be
00000250: 5d96 7a3d c7da 37bd feeb 7f3e f031 6bbe
00000260: bb54 cfbd d316 ccbd a02c 493e f5f1 703e
00000270: 1f43 5c3d b0bd 8c3c e9b2 13bf 03d3 553e
00000280: 998b e4bc 2084 563e f981 b93e 357e 2bbf
00000290: 6c61 943d a0f5 ce3e cb6c b53e bc54 b3bf
000002a0: c493 1a3d 2da9 0abe a09b 923d 3263 163e
000002b0: 8e1e dc3d bb0c 333e 791c ddbd 7a28 0bbf
000002c0: 4cb9 56bf bc06 cc3e ef57 03be fd7b 703d
000002d0: 6ccb 83be 8f8e 8ebc 6a0d 02be 39d0 82bd
000002e0: 1ed4 a8be 41a6 ba3d 6c5b 5fbf 5702 443e
000002f0: 8405 4bbd 8f50 3abf a463 e1be 8c76 d0be
00000300: ec21 433b ee45 2fbf 55eb 713e e5c6 523e
00000310: fe1a a9be 0ddd 783d eec2 eb3b c8f4 053e
00000320: a4b8 edbd 41e4 11be c430 afbe 13d8 b53e
00000330: 2445 17bf e82d 08bf b92d 65bd bb79 79bc
00000340: fcea 1c3e 0f83 ff3b e8c0 b4be 6b60 ed3d
00000350: 4d0c 85bc 2f60 05be ced5 1b3e c889 7f3e
00000360: 7c38 3d3e 23ef b23e 42c9 21be 9c8d a9be
00000370: c0a7 2cbe 11aa b73d bd84 c13e 2f54 143c
00000380: 9b4e 9e3e 4562 3d3f 43b6 773e 1ced c73d
00000390: 9ae0 4c3e c9cb d63e 05d6 78bf 472d 163f
000003a0: 5c62 d53d b100 2ebd 6298 ec3e 9c5a 13bf
000003b0: cf84 80be 0320 a03d aacd f2be e582 54be
000003c0: ac1a 813e dbd5 39be 8621 d53d dae0 83be
000003d0: c973 07be f930 dabe e30d 403e 61f0 323e
000003e0: 9d12 a23e e667 283e 24a5 5cbf ae52 55be
000003f0: 408e 96be 76aa 723e 8520 883e 746c 343e

fc3.bias f4 [12]
0.47610372 -0.05940115 -0.36176714 -0.15034923 -0.35323006 -0.19866987 0.0039394437 0.14002119
0.011758972 -0.28216416 0.2719949 -0.29049084
00000000: dec3 f33e 9f4e 73bd 8b39 b9be 26f5 19be
00000010: 92da b4be 1d70 4bbe 7316 813b b761 0f3e
00000020: b4a8 403c d277 90be ea42 8b3e 37bb 94be
